cases/test/snaps_128_32_96_uflux6/plumePLRNN_2024-05-22_10-05.pth (torch, 446400 bytes, 8 tensors)

conv1.weight f4 [32, 4, 5, 5]
00000000: b2f1 5cbd c0f9 823d 767f 733d 73c4 9b3d
00000010: 3257 edbb 613e babc e065 833c 57a9 033e
00000020: 1cc5 4cbd a162 40bc 639b 41bd 8031 30bb
00000030: 3cc6 283d ee80 d13c f8fb a03d a905 90bd
00000040: 2b5d 523d 452b 5ebd ff8a c73b 5fdb 86bd
00000050: 2184 c7bd df68 80bd f238 963d 5e0f 963c
00000060: df3b 403d 4e79 c2bd c5bf 21bd 169b f639
00000070: e63e 4cbd 03a3 973c ca9d 8ebd fbe7 1d3d
00000080: d06c 873d 7272 a2bd ae4d b73d 5d39 cabc
00000090: 8767 5ebd bd66 a43d 4e49 083c 8b18 80bd
000000a0: e5e9 673d 1ecc 683b 7024 b1bd a15c 683d
000000b0: 3da8 fdbc 1af6 8d3c d4fc 2abd d832 efbc
000000c0: 4e78 cdbd ec24 313d 061b 323c 74bb a23d
000000d0: 1539 713c c61f 813d a689 903c 9d4a f93b
000000e0: 54b5 14bd a0dd a63c 0072 043c f25b 533c
000000f0: 7271 03bd 759f 813d fd94 75bd c2f8 e03b
00000100: 89ef 023d 4352 88bd 3625 3e3d f95a 943c
00000110: 0ade b43d bbff 913d 58af 9c3c 097f d73c
00000120: 1aed 7fbd e431 db3d 0815 273d 31cd c53d
00000130: ab72 12bd 049a 3d3d 1f40 783d ea55 bcbd
00000140: a2d8 9cbc a740 40bc 1b2f 783d b7bb fc3d
00000150: 5ade 7f3d 695a 0dbe 7b8c 01be 1bc4 25bd
00000160: a248 adbd 1c4d bb3d 6e49 3ebe cfaa e8bd
00000170: 5b03 93bd 5d8a dc3b c5b6 3dbd 5a4a 9fbd
00000180: 86b1 af3d 6e48 2a3d 1c50 523d 7c48 a0bd
00000190: a265 923d a362 4cbc 469d 6ebd 8e70 a63d
000001a0: 17c7 6c3d 45d8 c0bc 328b 183c b264 b83d
000001b0: 9590 77bd 5c56 a53d 5116 8b3d b29b 9a3c
000001c0: ba54 063e 314e d5bc 205c 1c3e 56f7 383d
000001d0: c1e3 babd 9b83 8fbd 0e88 56bc 76a2 c23c
000001e0: 3835 293c 506c bdbc 04f0 683d 9b6b b0bd
000001f0: bc87 b1bc e277 203b a38b 32bc d135 b1bd
00000200: 7b33 edbb f8e9 80bc 78d2 fd3c c81b 1abe
00000210: f67a 073d e5e8 d9bc 6c0e ce3d 0d48 103c
00000220: a8a1 6f3d de94 193d 1e88 463d f8a7 8fbd
00000230: 0e0a 853d 0cf3 49bd 9234 f23c 19c0 4f3d
00000240: 2714 8ebc 9450 d03c bd35 973c c662 5b3d
00000250: 2f93 3abd 52b8 183b 2bd1 d13d 3917 22bd
00000260: 454b ab3d 383b d43c 488d 89bd eadb 13bc
00000270: 94bc 0e3d 4b96 3ebd 7892 4e3d 8ee7 5dbd
00000280: 4a54 1e3d 2b1c cdbd 332d 6dbd a1ea a53d
00000290: 2ce7 eebd 5cb4 b03d 1cf2 9abd c01d 16bd
000002a0: bd59 8d3c e05d 0f3c 7380 213d 88e0 c63d
000002b0: e1c9 8d3d 39e2 653d ca92 3c3d 082c 79be
000002c0: cbf6 1ebe 64cf 063a e13d 473c 183b 113e
000002d0: 999f adbe fb50 2bbd 8c09 75bd 6707 753d
000002e0: 3d06 f73d a95a 06bd ec20 233d b45e 5cbd
000002f0: 91e1 0c3e d213 bc3d 8f79 edbd 79e4 cebd
00000300: c9d6 9fbc 2c39 9e3d fcf1 52bb 3c1d f5bb
00000310: 0d22 9b3d f4b6 a83d c800 523a 2d4d 023e
00000320: 61e2 ca3d c21e 493c 22dd 9a3d 0188 973b
00000330: d3d8 e1ba 1636 4dbd e95a 3fbc 1fc4 443d
00000340: 5590 a1bc d1a0 75bc bdf5 1ebc 43d0 513d
00000350: 3e9c 633c a558 7f3d b329 b1bd 7c41 ffba
00000360: 7d94 3d3d 8187 bcbc da90 99bd fad8 9f3d
00000370: 19a9 51bd 3fba 8b3d 7921 e23c 7c45 87bd
00000380: 44b1 bdbc 2adb cc3c 5fcf 1a3d 7f4f 40bd
00000390: a18e 99bc 7553 31bd e283 b5bb 8ca9 b4bd
000003a0: 0923 a93d 7f17 0d3b 2338 f73c a114 493d
000003b0: e00b 443b 591d 92bc d5b8 2dbd d031 b93d
000003c0: 215c 4d3d 3e8f 7fbc 6a73 7c3d 1aee 8c3d
000003d0: 7605 81bd 80fc abbc 0182 41bd 81cd 18bd
000003e0: bd70 043d cdd3 6fbd e447 3a3d 65b6 ba3d
000003f0: 5ae9 5f3d f874 183d 8fb8 51bd 560c 8b3d
-0.053941436 0.06395292 0.059447728 0.07605829 -0.0072430605 -0.022734823 0.016039789 0.12857567
-0.049992666 -0.011742265 -0.04726733 -0.0026884973 0.041204676 0.025574174 0.07860559 -0.070323296
0.051358383 -0.054240484 0.0060895677 -0.065848105 -0.097419985 -0.062700026 0.0733508 0.018317875
0.046932098 -0.09495793 -0.039489526 0.00047036324 -0.049864672 0.018510347 -0.069636896 0.038551312
0.06612551 -0.07931985 0.08950363 -0.024685556 -0.05429795 0.08027408 0.008318258 -0.06254681
0.056619544 0.0035522054 -0.08649528 0.056728963 -0.030964011 0.017329264 -0.041745022 -0.029199049
-0.10032712 0.043248102 0.010870701 0.0794591 0.014723082 0.063048884 0.01764376 0.0076077715
-0.03630574 0.02036935 0.00808382 0.012900339 -0.03209061 0.06329242 -0.05995654 0.0068655917
0.03196672 -0.06656315 0.046422206 0.018109785 0.08831413 0.07128855 0.01912658 0.026305692
-0.062481977 0.10702875 0.04079154 0.09658278 -0.035753887 0.04628946 0.060608026 -0.09196074
-0.019146267 -0.011734164 0.0605918 0.12340491 0.06246791 -0.1380402 -0.12651245 -0.040470224
-0.08461119 0.09145567 -0.18582699 -0.11360704 -0.071783744 0.0067303614 -0.04631688 -0.07777853
0.08578782 0.04157298 0.05134593 -0.07826325 0.07148291 -0.012474689 -0.058255456 0.08126937
0.057807054 -0.023540625 0.0093105305 0.09003581 -0.06044062 0.08073112 0.06791366 0.01887307
0.13118258 -0.026038261 0.15269518 0.045157753 -0.09125472 -0.070075236 -0.013093961 0.023759108
0.01032763 -0.023122936 0.05686952 -0.08614274 -0.021671169 0.0024485518 -0.01089755 -0.08652843
-0.007238803 -0.015736565 0.030984148 -0.1504966 0.03307625 -0.02660031 0.100613445 0.008806241
0.058503777 0.037495486 0.048469655 -0.07014459 0.064960584 -0.049304053 0.029566083 0.050720308
-0.017343594 0.025429048 0.018458242 0.053560995 -0.04555052 0.0023303223 0.10244974 -0.039572928
0.08363966 0.025907144 -0.067164004 -0.0090246 0.03484781 -0.04653005 0.050432652 -0.054175906
0.038654603 -0.10015138 -0.057904433 0.081013925 -0.11665186 0.08628151 -0.0756571 -0.036649466
0.017254705 0.008750409 0.03942914 0.09710795 0.06923271 0.056123946 0.046038426 -0.24333203
-0.15523832 0.0005142598 0.012160749 0.14182699 -0.33910826 -0.041825276 -0.059823558 0.059821513
0.12061737 -0.032801304 0.03982632 -0.053801253 0.13757922 0.09183468 -0.11595451 -0.101021715
-0.019511597 0.077257484 -0.003218769 -0.0074802916 0.07574854 0.082380205 0.00080109807 0.12724753
0.099064596 0.0122754 0.07561709 0.004624367 -0.0017230756 -0.05010041 -0.0116793895 0.0480386
-0.019722143 -0.014991955 -0.009702143 0.051224004 0.0138922315 0.062340397 -0.086505316 -0.0019474472
0.046284188 -0.023013832 -0.07498331 0.07805057 -0.051186655 0.06822633 0.027603852 -0.0660505
-0.023155816 0.02500685 0.03779542 -0.046950813 -0.018744769 -0.04329248 -0.0055394033 -0.08821401
0.082586356 0.0021528897 0.030178135 0.04909194 0.0029914305 -0.01783626 -0.042412598 0.09042704
0.05013669 -0.015598116 0.061633505 0.06881352 -0.0629987 -0.020994425 -0.047243122 -0.03730536
0.032334078 -0.0585516 0.045478716 0.0911682 0.0546659 0.037220925 -0.0512014 0.06789462

conv1.bias f4 [32]
00000000: bc38 10be efbd b9bd c25f 1f3e 8542 a7bd
00000010: 020f 08be 90fa 43bd 3cbc efbd f088 523d
00000020: 5348 c9bd 7a29 033e 26d7 59bd 7155 243e
00000030: 0fe7 da3d 63cb 17bc 3d45 b93c 893f 583e
00000040: 1647 3fbd 479f 5abe ad60 343e 3bc1 a6bd
00000050: 3b76 b23d e6fb 76be 39e1 65bd 218c 1f3e
00000060: 6f38 dfbc 3d5e 6dbe c121 a5bc beb3 08be
00000070: 9757 073e 7dd6 febd 8029 183d 8967 b23d
-0.14084142 -0.0906943 0.15563872 -0.081669845 -0.13286975 -0.047846377 -0.11705825 0.051400125
-0.09828248 0.12808791 -0.053183697 0.16048218 0.10688602 -0.0092648 0.022616023 0.21117987
-0.046698652 -0.21349822 0.17615004 -0.081423245 0.08713957 -0.24119529 -0.056122992 0.15580799
-0.02724859 -0.2318048 -0.020157697 -0.13349816 0.13217007 -0.12443254 0.037148952 0.08711154

conv2.weight f4 [64, 32, 5, 5]
00000000: 483a 223c d393 b6bc ae49 0fbc f4f4 fdbc
00000010: d672 06bd 08a6 e1bc 1b9c c33a e4fa 0dbd
00000020: cb5a c6bb 5fc6 1ebd 9e4c 88bc a5e8 2fbb
00000030: f15f d5bc 28e9 79bc 5c39 9a3c e250 1ebd
00000040: 6025 85bc ef5f c33b b3a3 22bd 8901 44bc
00000050: c187 8fbc 1c56 1bbd e331 94ba d99b edbb
00000060: a0d4 90bc 5d45 ec3c 6314 f5ba c620 c7bc
00000070: 1eee a2bc 6bbb 20bd 9626 03bc 3133 193c
00000080: eeb0 b2bc 902a b83c 4a1c 13bc 85a7 81bc
00000090: 5c6b 2bbb 8666 f33b 2f37 a03a 58d7 0fbc
000000a0: 55f2 14bd ba36 cd3c d035 09bd c2c3 ac3c
000000b0: 4b52 29bd 5c17 e03c dfef 3e3c b254 a4bc
000000c0: 2b4a e83c ea21 833c 768a 1bbd 6d87 c43c
000000d0: 031e 9dbb b030 a5bc a935 abbc 1d0b e2bc
000000e0: 7023 eabc 1806 a1bb 0e20 9cbc b586 c53b
000000f0: 79a6 8b3b 1dcd cc3c f9e2 563c 43f5 993b
00000100: 50d7 0c39 4168 08bd fa00 d63c 767a c0bb
00000110: 685c 4dbb f044 15bd 5b7d 87bc 1605 16bd
00000120: 5cac 143c c9f7 1cbd 93b3 40bc eb58 2b3c
00000130: 0837 73bb 2c91 c33c 9263 2a3c d9be 2bbc
00000140: 896a c63c a586 68bb 165b 28bd e1cc 133c
00000150: c53e e0bc 726c c6bc adc3 a9bc 129b 1cbd
00000160: e233 813c 104f 00bd 7c73 14bd 68c1 d4bc
00000170: 59f2 8f3b 8cfc 10ba ea4c 9b3a 5afc 67bc
00000180: 9047 413c 9d0a 78bc e925 4dbc c0fa ea3a
00000190: 2ae4 d1bc 3b4b 08bd b01a 58ba 51ef 3dbb
000001a0: 9571 b6bc 95f7 c0bc dbb3 01bc 07ce 92bc
000001b0: 8491 8e3c 4fbf 163c 6de3 a3bb 0c0d 87bc
000001c0: f6b3 bd3c 2d37 23bd e0d1 743c efaa 33bc
000001d0: 4fbc 1fbd e006 28bc 2426 05bd fed1 d5bc
000001e0: 7188 e13b f65a e7ba 3d62 8ebc 2807 903c
000001f0: 2c38 debc 6d50 b93a 335d 1abd 8aa2 c93c
00000200: f81b 04bd a75e e93b a035 01bd e5c6 603c
00000210: 5978 debc eb42 753c 5b09 02bd 2dd7 9ebc
00000220: 95a5 26bd c559 b8bc 35f8 093c 807d 493c
00000230: d057 213c 6530 bd3b a113 46bb 4610 b93a
00000240: 77fa fcbc ac2f 473c 7b61 603c 360c dcbb
00000250: 6367 1dbd 1fed c33c 2ab4 bd3c 3657 cdbc
00000260: 622b 24bd b518 a9bc 8f3f ab3c 70de 883b
00000270: b69f 0e3c 54e2 4ebb 2faa a0bb 9483 79bc
00000280: 5113 61b9 77ce 76bb 3e32 1abd 16c3 19bd
00000290: e720 c8bb 2127 5fbc 9ba9 f7bc 83ed 463b
000002a0: 0d6c 59bc e9a7 bb3c 841d 90bc 1591 883c
000002b0: 5e18 a3bc bc86 b0bc 15e6 91bc 918f fcbc
000002c0: 8551 97bc bc90 bebb 1012 c93c 14e0 c03c
000002d0: f1aa 0fbd 0f06 c13c 0aae a9bb 1651 27bd
000002e0: 12f8 733c 18c4 17bd 1d44 dfbc 3261 ad3c
000002f0: 9064 193c 6760 02bd 655b cebc a9ab 99bc
00000300: fd20 a63c 6aca 98bc 0503 c43a 94ca 0abd
00000310: 9bf8 e13c de1b 90bc 35d3 4dbb 02d6 93bb
00000320: 7f5e c73c 967e a8bc dbda 73bc 2cd4 8d38
00000330: faa2 0abb 13e0 d4bc cc43 793c 367e a33b
00000340: d482 49bc e2cb 92bb a077 e63c 0307 adbc
00000350: 497a c13c 9ff6 513c 0626 d6bc 1ea5 423c
00000360: c221 2c3c 2fd6 863c 0bdf 23bd b938 36bb
00000370: 72ba e7bc 74d4 19bd 2806 203c f6e8 6c3c
00000380: fd47 22bb 57fd c9bb 4731 b9bc 5fc4 933c
00000390: abde d53c e92e bcbb ef56 b53c 6467 8dbc
000003a0: 4105 903c 7696 7ebc 06e4 603c 60ff 5a3c
000003b0: 16a2 0fb9 9d28 0abd 3117 a6bc c3be 333c
000003c0: 677f bc3b 4bea 803c 13b6 1abc f989 c53a
000003d0: 1793 293c 3bca 883c fcbb 8d3c dd2a cabc
000003e0: 151a 25bc 519e c1bc 48f0 d93b 2c26 92bc
000003f0: 0daa ec3c 0d97 203c c26d 033c 0f15 1b3c
0.009901591 -0.022287285 -0.008745594 -0.031000592 -0.03282436 -0.02754499 0.0014923842 -0.034663096
-0.006053304 -0.0387634 -0.016638096 -0.0026841548 -0.026046725 -0.015253343 0.01882618 -0.038651355
-0.016253173 0.005962364 -0.039706897 -0.011963257 -0.017520787 -0.037923917 -0.0011306371 -0.0072512445
-0.017679513 0.028841669 -0.0018698092 -0.02430762 -0.019888934 -0.039241236 -0.008004805 0.009350584
-0.021812882 0.022481233 -0.008978913 -0.01582695 -0.002615652 0.007427993 0.0012223477 -0.008779369
-0.03636392 0.02505051 -0.033498585 0.021089438 -0.041338246 0.027354889 0.011653869 -0.020059917
0.028355679 0.016007382 -0.037973844 0.023990357 -0.0047948374 -0.020164818 -0.02089961 -0.02759319
-0.028581351 -0.0049140565 -0.019058254 0.006028021 0.0042617884 0.02500015 0.013115638 0.004698427
0.0001343165 -0.03330255 0.026123513 -0.0058739735 -0.0031335596 -0.036442697 -0.016539266 -0.036625944
0.009074297 -0.038322244 -0.011761564 0.010458211 -0.0037111659 0.023872934 0.010399716 -0.010482513
0.024220722 -0.0035480645 -0.04110249 0.009021015 -0.02737368 -0.024221633 -0.020723188 -0.038233824
0.01577181 -0.0313254 -0.036242947 -0.02597113 0.0043929038 -0.00055307965 0.0011848484 -0.014159286
0.011796847 -0.015139249 -0.0125212455 0.0017927513 -0.025621492 -0.03327487 -0.0008243723 -0.0028981755
-0.022270957 -0.023555556 -0.007916416 -0.017920507 0.017403372 0.009200885 -0.0050014765 -0.016485713
0.023157101 -0.03984754 0.014942616 -0.010966047 -0.038997944 -0.010255545 -0.032507077 -0.026101109
0.00688272 -0.001765101 -0.017380828 0.017581537 -0.027126394 0.0014138349 -0.037686538 0.024613637
-0.032253236 0.007121879 -0.03154528 0.013719295 -0.027156996 0.014969568 -0.031747203 -0.019389713
-0.040685255 -0.022503743 0.008420994 0.012297988 0.009847596 0.0057735913 -0.0030224102 0.001411923
-0.03088115 0.012157362 0.013695116 -0.006715323 -0.038428675 0.02391678 0.023157198 -0.025066
-0.040080436 -0.020641664 0.02090433 0.0041769072 0.00870507 -0.0031568008 -0.0049031 -0.015229125
-0.00021464868 -0.0037659684 -0.03764557 -0.037539564 -0.006107438 -0.013620169 -0.030232241 0.003035397
-0.01327039 0.022907214 -0.0175922 0.016670743 -0.01990908 -0.021548621 -0.017809907 -0.030830177
-0.018471489 -0.0058155935 0.024544746 0.023544349 -0.03507513 0.02356246 -0.005178218 -0.040848814
0.014890688 -0.037052244 -0.027254159 0.02116451 0.009362355 -0.031830218 -0.025190065 -0.018758612
0.020279402 -0.018651206 0.0014954513 -0.0338846 0.027584365 -0.017591413 -0.0031406407 -0.0045115957
0.024337051 -0.020568173 -0.014883722 6.762924e-05 -0.002115427 -0.025985753 0.015213918 0.0049894108
-0.012299258 -0.004479871 0.028133214 -0.021121508 0.02361788 0.012815147 -0.026141178 0.011880187
0.010506095 0.016459553 -0.040007632 -0.0027804805 -0.028287146 -0.037556127 0.009767093 0.014459839
-0.0024762147 -0.0061642337 -0.022606505 0.018037973 0.026107153 -0.005742897 0.02213618 -0.017261215
0.01758063 -0.015538802 0.01372624 0.01336655 -0.00013697924 -0.033730138 -0.02027473 0.010970774
0.005752492 0.01573672 -0.009442824 0.0015071026 0.01035001 0.016697994 0.017301552 -0.024678642
-0.010077019 -0.023635061 0.006650958 -0.017840467 0.02888968 0.009801638 0.008021774 0.00946547

conv2.bias f4 [64]
00000000: d5bb 023c f592 2ebc 023a c53c 9bd2 98bb
00000010: 910b b4bc 141a 10bd 902b 893d 566a 75bb
00000020: 492b a9bc 2247 9f39 fe1c abbc 27cd 1dbd
00000030: f723 08bd 6055 b0bd 3f64 b1bd 0b97 1abd
00000040: 9085 c3bc 12b6 1dbd ccf6 94bc 1d08 03bd
00000050: 5231 1fbc d7a0 e13c 4469 5bbc deed 0bbd
00000060: c4eb 353c d714 ac3b 95ce 08bb 8102 09bd
00000070: 692a 0cbd 43ec 9ebc 82db 25bb 007c 6bbd
00000080: 873b 3c3c 72d6 1b3c 31d3 f4bc eecc 1abd
00000090: 9e88 4d3c 2d52 f2bc 330b c0bc 4dd5 85bc
000000a0: 74d4 d23c a7e3 cebc d4ea 993c 9ff2 dabc
000000b0: 1e57 253c 2c4e f23b 47fe 57bd aa2b 4b3d
000000c0: dd1a 5fbc c650 583c 1397 9137 f368 d53b
000000d0: d9fe d53c f222 213c a9c0 debc 0704 ccbc
000000e0: 9b09 db3c a79c 15bc ab36 443b 76da 40bc
000000f0: b136 a9bc 3ba5 d73c fb04 a5bc 30b6 45bb
0.007979353 -0.0106551545 0.024075512 -0.004663778 -0.021978172 -0.03518112 0.06697762 -0.0037447414
-0.020650523 0.0003037984 -0.020887848 -0.038525727 -0.033237424 -0.08610034 -0.086616985 -0.037741702
-0.023867399 -0.038503714 -0.018184088 -0.03199016 -0.009716349 0.027542515 -0.0133917965 -0.034162395
0.011103574 0.0052515077 -0.0020875086 -0.033449654 -0.034220133 -0.019399768 -0.0025307839 -0.057491302
0.011488802 0.009511577 -0.02988586 -0.037793092 0.012544779 -0.0295802 -0.02344284 -0.016337061
0.025736071 -0.025255037 0.018788733 -0.026727019 0.010091571 0.0073945727 -0.052732732 0.04960219
-0.013617245 0.013202852 1.7355696e-05 0.006512755 0.026122497 0.009834992 -0.027191477 -0.024904264
0.026737979 -0.009131587 0.0029939811 -0.011770835 -0.020655962 0.026323905 -0.020143976 -0.0030168407

conv3.weight f4 [32, 64, 5, 5]
00000000: 9520 50bc e85d a0bc f37d 1b3b 4b97 d8bc
00000010: 9029 f93b afa3 3b3c b597 2c3c d41c f23b
00000020: 31e6 fdbb cba4 4d3b 4641 58bc 5347 82bb
00000030: 2394 453c e6df 4bbc a7fb eebc 33f3 323b
00000040: 78bf ae3b df5a 3bbb 9160 85bb ca36 303c
00000050: 57c2 9bbc c85d 723c 90b9 103b 8bbb ac3b
00000060: 821f 363c 783b 60bc d862 f8bb 5129 60bc
00000070: fdce e8bb 67bc 19bc bfd6 65bc 6627 afba
00000080: 26a5 d2bb 0cb5 283c 8af6 413c 3386 99bc
00000090: d925 843c 8a3d 8cbc 4b69 3a3c dc15 b3bc
000000a0: 8327 6a3c e7b5 6c3b 2917 2f3c 7f0a debc
000000b0: 8817 c2bc b168 193c f088 953c e66c 9a3c
000000c0: 0500 7e3c b9c3 14ba a006 703c 4726 313c
000000d0: b1a2 c5bc cfb9 62b9 4b37 41bc 96ae 053c
000000e0: e235 763c aacb 80bc 487c d1bb 9acb 073b
000000f0: e66e a5bc 4ca3 523b 5522 233c 4233 cdbc
00000100: e46c 4c3c 732c 59bc 6a75 1f3c c173 26bc
00000110: b25e 67bc 0396 343c 59fc bdbc c08d 9bbc
00000120: 607a b7bc ae2d 3abc 6003 fbbb 0249 873b
00000130: 3d64 53bc 6fbd 77bc f2d5 c1bc 940c 7f3c
00000140: dcf9 cebc 9344 b0bb 6364 bbbc 90fb c539
00000150: af0b 09bb 9cab 2a3c cb00 383b 877f 90bc
00000160: affd 3c3b 0967 b73b f5eb b1bc 93c5 633c
00000170: 26c8 c0bc 4ccc bc3b ed02 943b ee8f b13b
00000180: 01a1 9c3a 5f9f 7b3a 0114 0ebc af08 5c38
00000190: 8e85 723c 60db e8bc a16a c6bc 1f67 7d3c
000001a0: 5f1d 6ebb 0370 fdbc f8ff ceba 8b02 48bc
000001b0: 9a12 a6bc ba4a 483b 1c5d 863c 0ce9 64bc
000001c0: fc8c 95bc 4aa4 5bbc d586 94bc 7ded 053c
000001d0: 0ff4 b1bc a63b 503c e697 12bb 29ff e3bc
000001e0: e7b1 9ebc b9bf 3c3c 82aa 3a3c bfad 8e3c
000001f0: 592f c5bb 776c 3e3b f538 9abc 6903 e5bc
00000200: 22ab 0a3c 4721 673c 6d16 093c e922 18bc
00000210: 6643 933c 0d31 aabc 2c01 50bc b9b4 833b
00000220: 3e51 773c 4c44 c03b efd0 8cbc 7e4a 41bc
00000230: 7d21 53bc 4197 c03b add1 333c 9a9f 6b3c
00000240: 9fc4 943c 7954 733c bf4f 82b9 462d 1cbc
00000250: 5874 b63b 1852 82bc 3197 b2bc 94cc 62bc
00000260: 608e 7abc 4799 2abd de5a 10bd 75c4 933c
00000270: 680a f0bc 1e24 d4bc 9d2a cebb b352 efbc
00000280: 9cd3 893a 081c d83b c9f8 b9bc 973d ddbb
00000290: b19a 61bc 41c2 4c3d 7602 3c3d 3c32 02bd
000002a0: fd9e f3bb 52e5 08bd 12ec 3b3c 8295 9cbc
000002b0: 0bb5 8fbc b3d0 0fbd c2e8 b2bb e435 c9bc
000002c0: 3431 8e3b f231 9dbb 974a 0abc 7959 963c
000002d0: 0939 a13b 028d 74bc 01a9 eebc d1cb 913c
000002e0: 5810 163c 2f8d e9ba def3 d63b 6903 0abc
000002f0: 1655 3bbb ef0c c7bb bf87 c7bc ff78 3a3c
00000300: ca45 183c d3ed 3f3c 6c0b 233c f511 e6bc
00000310: 3518 c739 5a89 ce3a f99e 8b3b 0a11 d93b
00000320: dabf e9bb 12c1 b3bb 9561 9e3b 51d2 1fbb
00000330: f528 853c e89b a6bc 6349 7039 6772 f8bc
00000340: 6de1 5dbc 781b c43b a179 483c 4e91 cebc
00000350: 697b 903a b9d7 22bc 303c 883c 7759 4ebb
00000360: dd42 833c 5ec6 873b dd04 cabc 8daa b7b9
00000370: bb9b 66bb 66fb ffbb ef57 44bc dd29 a43b
00000380: 6c88 dcbc 2891 09bb 0848 983c 5675 afbc
00000390: 7624 23bc 8dba 243c 7906 f63b 93cf 3b3b
000003a0: 9163 fbbc 3a60 dcbb 086b 94bc 6c0f 4d3c
000003b0: 1be7 a8bc 8b79 9bbc 5ce9 873c 75ef 2dbc
000003c0: 120c d43a 8284 5abc abcf 33bc a2a7 3f39
000003d0: 22d6 1f3c 7dfb 383c f343 173c a8be 21bc
000003e0: 51c0 d5bc ab89 89bc e611 dabc 7cb5 ddbb
000003f0: 209a a2bb 60dd 10bc bdcc babc 3ceb 8c39
-0.012703081 -0.019576028 0.0023726195 -0.02643933 0.0076038316 0.011452599 0.010534217 0.0073886905
-0.007748388 0.0031378742 -0.013199156 -0.0039757877 0.012059244 -0.012443518 -0.029172732 0.0027305603
0.0053328834 -0.00285881 -0.0040703495 0.01075525 -0.019013567 0.014792867 0.002208326 0.0052713803
0.0111159105 -0.013686053 -0.0075801425 -0.013681726 -0.007104753 -0.0093832975 -0.01402825 -0.0013363182
-0.0064283786 0.010297071 0.011838565 -0.018740749 0.016131328 -0.017119188 0.011377643 -0.02186101
0.014291647 0.0036119164 0.010686674 -0.027104614 -0.023692861 0.009363339 0.018253773 0.018850755
0.015502934 -0.0005674917 0.014650017 0.010812349 -0.024125429 -0.00021622259 -0.011792968 0.0081593
0.015027495 -0.015722115 -0.0063929893 0.0020720721 -0.020194482 0.003214079 0.009956916 -0.025048856
0.012477133 -0.013255226 0.009732584 -0.010159434 -0.014121698 0.011022094 -0.023191618 -0.01898849
-0.02239722 -0.01136343 -0.0076603144 0.0041285763 -0.012902317 -0.015120848 -0.023661587 0.015566964
-0.025265627 -0.0053792684 -0.022875017 0.00037762197 -0.0020911505 0.010416891 0.0028076645 -0.017638935
0.002883773 0.0055969995 -0.021718958 0.013902086 -0.023532938 0.005761659 0.0045169503 0.005418769
0.0011949838 0.0009598638 -0.0086717615 5.2460175e-05 0.01480235 -0.028424919 -0.024220766 0.0154664805
-0.0036333425 -0.0309372 -0.0015792837 -0.012207638 -0.020272542 0.0030562119 0.01640182 -0.013971578
-0.018255703 -0.013405869 -0.0181307 0.008174297 -0.021722822 0.012709534 -0.002236837 -0.02783163
-0.01937194 0.01152032 0.011393191 0.017416833 -0.006017607 0.002905635 -0.018825987 -0.027955728
0.008463653 0.014107055 0.008367163 -0.009285667 0.017976474 -0.020775342 -0.012695592 0.0040193466
0.015095053 0.0058675166 -0.017189471 -0.0117975455 -0.012886402 0.005877406 0.010975284 0.014381314
0.018160162 0.014851683 -0.00024854948 -0.009532278 0.0055680685 -0.015908286 -0.02180061 -0.013842721
-0.015292734 -0.041650083 -0.035242908 0.018038014 -0.029301837 -0.025896128 -0.006291701 -0.029214239
0.0010515335 0.0065951385 -0.022701638 -0.006751727 -0.013769791 0.049989942 0.045900784 -0.03178619
-0.0074347244 -0.033421822 0.011469858 -0.01911426 -0.017542383 -0.03511114 -0.005459876 -0.02456183
0.0043393616 -0.0047972137 -0.008440635 0.01835321 0.004920129 -0.014926197 -0.029133322 0.017797383
0.00915917 -0.0017818565 0.006559833 -0.008423665 -0.002858465 -0.00607454 -0.024356721 0.011381387
0.009293983 0.011714417 0.009951454 -0.028084734 0.00037974273 0.0015757487 0.0042608944 0.0066243457
-0.007133466 -0.0054856623 0.00483341 -0.0024386833 0.016254881 -0.020338014 0.00022915522 -0.030327989
-0.013542515 0.00598472 0.01223603 -0.025215771 0.0011023107 -0.009939128 0.016630262 -0.003148643
0.016023094 0.0041435203 -0.024660522 -0.0003503155 -0.0035188037 -0.0078119515 -0.011983856 0.0050098733
-0.02692052 -0.002099106 0.018589035 -0.021418255 -0.009957423 0.010054243 0.007508096 0.002865766
-0.030687125 -0.0067253383 -0.018117443 0.012515884 -0.020618012 -0.018978855 0.016590767 -0.010616173
0.0016177914 -0.013337256 -0.010974805 0.00018277628 0.009755643 0.011290428 0.009232509 -0.009872116
-0.02609268 -0.016789278 -0.026619863 -0.0067660194 -0.004962221 -0.008841842 -0.022802705 0.00026878144

conv3.bias f4 [32]
00000000: 1fed 92bc 26bf 23bd 9717 debc 3e4f 98bc
00000010: 0cc4 99bc 22fe 9bbb 0711 24bd c94c bdbb
00000020: 3775 debb 2987 36bc 4a25 c83a e1e3 a4bc
00000030: 0552 50bd 4a34 a3bc 10be 2dbd 6750 fbbc
00000040: 8f1c edbc 3768 19bd c2d8 67bc 78f7 33bc
00000050: 049d edbc 5d5d b7bd 15bc 85bc 983b 793b
00000060: d0a3 37bd 93fb 3abc ef87 383b 9c96 83bd
00000070: 3559 8ebd 8e2b 59bb 8aed 0ebd 0a41 57bd
-0.017935334 -0.039977215 -0.027110858 -0.018592473 -0.01877024 -0.0047605196 -0.0400553 -0.005776976
-0.0067888754 -0.011140623 0.0015269902 -0.020128192 -0.05085947 -0.019922394 -0.042417586 -0.030677987
-0.028944282 -0.037452903 -0.0141508 -0.010984294 -0.029005535 -0.089533545 -0.016325036 0.0038029905
-0.04483396 -0.011412519 0.0028157195 -0.06425211 -0.06950609 -0.0033137533 -0.034894504 -0.05255226

conv4.weight f4 [1, 32, 5, 5]
00000000: 2e25 87bb 17c0 e7bc cda4 98bb 05a3 8ebc
00000010: 0a74 be3a 124b 17bd 55b2 363c 2801 02bd
00000020: c21e 983b a287 3f3c fa66 a9bc 1c9a 5e3b
00000030: a7b5 0dbd c666 17bc ee60 c53c 1184 eb3b
00000040: 5788 e3bc 491a a03b 7954 d1bc 90b4 d93b
00000050: 838e 25ba 1385 3d3c 4f25 07bc 463e d5bc
00000060: a32a bbbc 4d74 07bd 667b babb 6963 e1bc
00000070: 969d aabc 8619 54bc 79d4 ac3c abca 96bc
00000080: 6cf4 01bd c643 8ebc f2c8 44bc 7124 d33c
00000090: 5287 1cbc 6467 2b3b 064b 263c 0224 1fbd
000000a0: ec90 0d3d d82f 93bb 3ce6 f4ba b3df 033d
000000b0: 7f07 8abc aeb9 f4b9 e8aa 873c cd47 493b
000000c0: 2ce4 aa3c 6267 3d3b 4c6e 233b cf6c a83b
000000d0: 668b 923c 6d44 aebb 709b afbb caaa e337
000000e0: cc97 e5bc 4d68 0b39 c9c2 76bc cf35 d7bc
000000f0: 020b 0abd 9b13 2cbb 483d 023c 1cc6 60bc
00000100: f64c 983c 126e 02bd 2859 c53a 5cf2 60bc
00000110: b7eb 98bc c1ac dd3c a9f1 263c 0ec5 f13c
00000120: 7ccf eebc cf37 8b3c 590d 033d c8e3 383d
00000130: 3396 c8bc bafd 61bb af22 2dbd a574 29bd
00000140: 7745 6a3d 9249 34bb 683b d53c 9ea4 55bb
00000150: 6043 213d 4b32 603d dc47 d43b 2f26 b93c
00000160: c60f 813c 3b9c 653d 09ff 473d 1b1b d43c
00000170: aac4 9ebc 8072 97ba edba 5c3d 1e36 13bc
00000180: 97a3 943c e893 71bc a1ef 19bc 042f 9b3c
00000190: 048b 68bc 537a 81bc 72b7 c13c b51c da3c
000001a0: d88a 8cbc 1a76 d8bc f448 2abc 43f8 f0bc
000001b0: 364c 5f3b 29fa 16bc 6d61 c83c 3b4b 45bc
000001c0: 560e cbbb 4301 ba3c 2082 9b3b 27f5 bbbc
000001d0: b2b1 a4bc 794b 653c 3802 c2bc 1b1b e63c
000001e0: 9d1c b0bc fd5d 023c 851a cfbb ea29 30bb
000001f0: dc0b 02bd e3b3 18bb 03b9 dabb 92e6 f036
00000200: 0e61 d1bb 3cee 7a3b 63aa 68bc a0d4 81bb
00000210: 1fe9 463c 79fa bcbc efad 85ba 0338 12bd
00000220: ce69 29bd 8671 18bb bc1b 0abd edc7 febc
00000230: cec7 863d 4140 dabc 290e 1a3d e182 a13d
00000240: f77b a93c cefd eabc 2a43 2dbd d9a0 04bd
00000250: c3b2 a6bd bd6c 41bd 73a1 43bc a80b 2cbd
00000260: 845a 3dbd 6873 d8bd f558 8bbd de9e 68bd
00000270: 3450 84bd fa01 b9bc c68e 8abc 229b fcbc
00000280: 9801 8ebd 0ddf ee3b 2eac 583c c0d4 8abc
00000290: 4200 18bd 0248 543c 9ac1 a63c 3b70 1a3d
000002a0: caca d33c f757 98bc 7795 02bc c12b 133d
000002b0: 8c5e 863c 0182 183d 980f 2c3c 6465 343c
000002c0: dc19 2cbb 9584 303c 708a b2bc 287a eabc
000002d0: 88f8 173d a01f 1fbc d46b df3b 2eff c2bb
000002e0: 2ebc 61bd ee4b 3f3d c992 8f3c 87de 183c
000002f0: 79b0 fa3b 5bd6 d7bc a32f cc3c af11 923c
00000300: c256 50bd 120d 82bd 2d07 e6bc b972 e8bb
00000310: 5c61 7f3b 26d7 c7bc abdf 40bd 3448 acbc
00000320: 1af0 273c 23be 183c c80d 61bc 2d64 703b
00000330: 5c19 65bc d4b1 45bc f583 9abc 7a98 323c
00000340: f1f3 f03c 65b9 073d 3581 e83c 0276 96bb
00000350: 8c2f 40bc ba71 c3bb d2ce 86bc 074f 523a
00000360: 1780 e7bb 99ee acbc 5582 8b3b a65a 223d
00000370: 0f39 4fbc 2e3d a93c a484 5fbb 2974 ac3b
00000380: 2cab 8f3c 9bc6 c7bc d65c aebb ba92 71bc
00000390: 7a62 a9bc c092 0ebc c844 0fbc 962c e9bc
000003a0: 7e5c 6fbc f37f aa3c dd2d 803c 3b62 ab3c
000003b0: 3a57 6bbc 6ef9 f63c 7134 27bc f5ef b3bc
000003c0: dae2 98bb 719e e2bb 6506 693c dc11 3c3b
000003d0: c3a9 9a3b 9756 a5ba 8897 a0bc 7a5c 0f3d
000003e0: 9f09 183d 1edb a7ba 35dc 38bc a05d 0a3c
000003f0: c119 51bc 43f9 863c 7a02 07bc fcbd 50bb
-0.004124305 -0.028289838 -0.0046583177 -0.017411718 0.0014530432 -0.036936827 0.011150916 -0.031739384
0.0046423385 0.011690052 -0.020678986 0.0033966368 -0.034597065 -0.009240812 0.024094071 0.0071873744
-0.027774973 0.004885946 -0.025552975 0.006643839 -0.00063154864 0.011567372 -0.008248641 -0.02603067
-0.02284748 -0.033069897 -0.00569098 -0.027513223 -0.020827096 -0.012945538 0.021097409 -0.018407186
-0.03172724 -0.017366301 -0.0120108 0.025774213 -0.009553747 0.0026154155 0.010149723 -0.0388527
0.034562036 -0.0044917874 -0.0018684338 0.032195758 -0.016849278 -0.0004667765 0.016560987 0.0030712963
0.020860754 0.0028900732 0.0024937568 0.005139924 0.017888736 -0.0053182156 -0.0053591058 2.7140039e-05
-0.028026484 0.00013294928 -0.015061089 -0.026270775 -0.033701904 -0.0026256803 0.007949181 -0.013719108
0.018591385 -0.031843252 0.0015056478 -0.013729658 -0.018667085 0.027059915 0.010189452 0.029512908
-0.02915167 0.016994385 0.03199515 0.045139104 -0.024485683 -0.0034483508 -0.042269405 -0.041371007
0.057195153 -0.0027509672 0.026029304 -0.003259934 0.039370894 0.054735463 0.006478293 0.022601215
0.015754592 0.056057196 0.048827205 0.025891831 -0.019380886 -0.0011554509 0.053889204 -0.0089850705
0.018144412 -0.014744736 -0.009395511 0.018943317 -0.0141933 -0.015805399 0.023647044 0.026625017
-0.01715605 -0.026423503 -0.01039337 -0.029415255 0.0034072525 -0.009214916 0.024460519 -0.012041862
-0.0061967773 0.02270568 0.0047457367 -0.022944046 -0.020104263 0.013995045 -0.023682699 0.028089097
-0.021498019 0.007956979 -0.0063203 -0.0026880451 -0.03174959 -0.002330058 -0.006674887 7.1793993e-06
-0.0063897436 0.0038288971 -0.01420078 -0.0039621145 0.012140541 -0.023068653 -0.0010198931 -0.03569795
-0.04136067 -0.0023261025 -0.033717856 -0.031101191 0.065810785 -0.026641967 0.03761116 0.07886291
0.020688994 -0.028685477 -0.04230038 -0.03237996 -0.08139565 -0.04722284 -0.011940348 -0.042003304
-0.0462289 -0.10568887 -0.068040766 -0.056792133 -0.0646061 -0.02258395 -0.016913783 -0.030835692
-0.06933898 0.0072897733 0.013224645 -0.01694715 -0.03710962 0.012956621 0.020355988 0.037704688
0.025853533 -0.018596632 -0.0079702055 0.0359304 0.016402505 0.037233356 0.010501765 0.0110105015
-0.002626053 0.0107737975 -0.021794528 -0.028622702 0.037102252 -0.00971213 0.006818274 -0.00595083
-0.055111103 0.04670327 0.017526047 0.009330398 0.0076504317 -0.02634733 0.024925059 0.017830698
-0.05086399 -0.06350149 -0.028079594 -0.007093754 0.0038967943 -0.024394583 -0.047088306 -0.021030523
0.010250116 0.009322676 -0.013736196 0.0036680803 -0.013983097 -0.012066323 -0.01886175 0.010900611
0.029413195 0.03313579 0.028381923 -0.0045917043 -0.011730086 -0.005964485 -0.016456041 0.000802264
-0.00706483 -0.021109866 0.00425748 0.03963723 -0.012647881 0.020659056 -0.003410616 0.005262871
0.017537676 -0.024386695 -0.0053211255 -0.014744455 -0.02067684 -0.00870198 -0.008744426 -0.028463643
-0.014609454 0.020812964 0.01564687 0.020920863 -0.014364058 0.030148234 -0.010205374 -0.021965006
-0.0046657147 -0.0069158603 0.014222716 0.0028697168 0.004719944 -0.0012614307 -0.019603506 0.035000302
0.03711855 -0.0012806391 -0.01128297 0.0084451735 -0.012762488 0.01647628 -0.008240337 -0.003185152

As.0 f4 [1, 1, 32, 128]
00000000: 06c3 743f c76b 743f 4f4e 743f b1a7 743f
00000010: ee43 743f b90d 743f 554c 743f ef56 743f
00000020: 284f 743f f053 743f 9535 743f f105 743f
00000030: af28 743f 1b30 743f d651 743f 7a45 743f
00000040: fd60 743f 432c 743f 4b37 743f 1a41 743f
00000050: 4c2b 743f 773b 743f f651 743f 306a 743f
00000060: 2b38 743f a43a 743f cf11 743f f34a 743f
00000070: ae38 743f 9146 743f d64c 743f ac58 743f
00000080: d84b 743f 0540 743f 5267 743f 445d 743f
00000090: a453 743f 6e53 743f 492c 743f 0f32 743f
000000a0: ba1d 743f ef48 743f 1d50 743f 7049 743f
000000b0: ad49 743f 4954 743f e34a 743f 8976 743f
000000c0: 1646 743f 4533 743f a55d 743f 1550 743f
000000d0: b11a 743f fc26 743f 4145 743f 5c5e 743f
000000e0: 5041 743f 0f22 743f 9f55 743f e15d 743f
000000f0: 5efc 733f 2018 743f d34b 743f d51d 743f
00000100: 8a55 743f ac3f 743f c760 743f 6d48 743f
00000110: 044d 743f de2b 743f d164 743f 2656 743f
00000120: 7f28 743f ae1a 743f 7b4c 743f 5547 743f
00000130: a629 743f 1447 743f 3115 743f 0c37 743f
00000140: e057 743f 2046 743f 2d45 743f 1b32 743f
00000150: b54c 743f 4839 743f ed1b 743f 8858 743f
00000160: 5247 743f 9e4b 743f 5622 743f 3309 743f
00000170: 713e 743f 7e5d 743f 690e 743f a551 743f
00000180: 8c51 743f bd3a 743f 2d5e 743f bf28 743f
00000190: 8542 743f 4442 743f 5c36 743f 014d 743f
000001a0: a54b 743f 7a2e 743f 4615 743f 4131 743f
000001b0: eb2a 743f 7745 743f 4e40 743f 0147 743f
000001c0: 8c5e 743f 1956 743f 0348 743f 654c 743f
000001d0: fe19 743f 1b43 743f fd5e 743f c153 743f
000001e0: 3e48 743f 9157 743f 9649 743f 572a 743f
000001f0: 83c1 733f 4ea3 733f e4dd 733f 7c76 733f
00000200: a096 743f db1a 743f 99d9 743f f67f 743f
00000210: 2437 743f f915 743f 815e 743f 955b 743f
00000220: 5d63 743f b862 743f c93d 743f 9847 743f
00000230: 0a28 743f 1642 743f 5a5e 743f 3e39 743f
00000240: 134c 743f 8541 743f 544b 743f cf02 743f
00000250: 403f 743f 3b18 743f 9723 743f 5e19 743f
00000260: 593e 743f 543f 743f f24e 743f a316 743f
00000270: c967 743f 146c 743f 0a3c 743f ba38 743f
00000280: 704b 743f 7c58 743f c02f 743f 5e60 743f
00000290: be66 743f 6471 743f 6360 743f 902c 743f
000002a0: c632 743f f846 743f 3150 743f 5145 743f
000002b0: ee3f 743f 2e7a 743f 6a61 743f 853f 743f
000002c0: 191a 743f 465b 743f 333b 743f 2b1a 743f
000002d0: 8e41 743f 8d40 743f e235 743f 8c6e 743f
000002e0: 3a44 743f 2a28 743f c052 743f 096a 743f
000002f0: 5359 743f ed35 743f 0623 743f e663 743f
00000300: e93c 743f ec3f 743f a748 743f 9423 743f
00000310: 3845 743f cf3a 743f 4365 743f 0067 743f
00000320: 7d66 743f 7149 743f 0664 743f e744 743f
00000330: 2612 743f 2853 743f a859 743f 3557 743f
00000340: f653 743f 585b 743f bb61 743f 0158 743f
00000350: d847 743f 1246 743f 7243 743f 7b2e 743f
00000360: 7e4f 743f dc6b 743f 2408 743f 2611 743f
00000370: 1b52 743f d347 743f 112d 743f ab61 743f
00000380: a646 743f 0e4d 743f 7a62 743f d318 743f
00000390: 3743 743f bd4f 743f a73c 743f 8a44 743f
000003a0: 9950 743f 4a66 743f 2d58 743f 8e4e 743f
000003b0: b24e 743f 0f58 743f 5c40 743f 5d50 743f
000003c0: 652b 743f b05d 743f 577d 743f 3c36 743f
000003d0: a753 743f 2731 743f bd3d 743f 2c3a 743f
000003e0: 9149 743f 923a 743f a960 743f b0ff 733f
000003f0: 0309 743f 4b74 733f 3053 733f 96f8 733f
0.9561008 0.95476955 0.9543199 0.95568377 0.9541615 0.9533344 0.95428973 0.9544515
0.9543328 0.9544058 0.9539426 0.95321566 0.9537458 0.95385903 0.9543737 0.9541851
0.9546049 0.9538004 0.9539687 0.9541184 0.95378566 0.95403236 0.9543756 0.9547453
0.95398206 0.9540198 0.95339674 0.95426863 0.95398986 0.95420176 0.9542974 0.954478
0.9542823 0.95410186 0.95470154 0.9545481 0.95440125 0.95439804 0.95380074 0.95388883
0.9535786 0.9542379 0.95434743 0.95424557 0.9542492 0.9544111 0.9542677 0.9549337
0.9541944 0.9539073 0.9545539 0.95434695 0.9535323 0.95371985 0.95418173 0.9545648
0.9541216 0.9536447 0.9544315 0.9545575 0.95306957 0.9534931 0.954282 0.9535802
0.9544302 0.95409656 0.9546017 0.9542301 0.95430017 0.95379436 0.95466334 0.9544395
0.9537429 0.9535321 0.954292 0.95421344 0.9537605 0.95420957 0.95344836 0.95396495
0.95446587 0.954195 0.95418054 0.95388955 0.95429546 0.95399904 0.9535511 0.9544759
0.95421326 0.9542788 0.9536489 0.95326537 0.9540778 0.9545516 0.9533449 0.9543708
0.9543693 0.9540213 0.954562 0.95374674 0.95414 0.95413613 0.95395446 0.9543
0.95427924 0.9538342 0.9534496 0.95387655 0.9537799 0.95418495 0.9541062 0.95420843
0.9545677 0.95443875 0.9542238 0.9542907 0.9535216 0.95414895 0.9545744 0.954403
0.9542273 0.95446116 0.95424783 0.95377105 0.9521715 0.9517106 0.95260453 0.9510267
0.95542336 0.9535348 0.9564453 0.9550775 0.9539664 0.9534603 0.954567 0.95452243
0.95464116 0.9546313 0.95406777 0.95421743 0.95373595 0.9541334 0.9545647 0.95399845
0.9542858 0.95412475 0.9542744 0.95316786 0.9540901 0.9534947 0.95366806 0.9535121
0.95407635 0.9540913 0.9543296 0.9534704 0.95470864 0.95477414 0.9540411 0.9539906
0.9542761 0.95447516 0.9538536 0.95459545 0.9546927 0.9548552 0.95459574 0.95380497
0.95389974 0.9542079 0.9543486 0.9541827 0.9541005 0.9549893 0.9546114 0.95409423
0.9535232 0.9545177 0.9540283 0.9535243 0.9541253 0.95410997 0.9539472 0.9548118
0.95416605 0.95373785 0.95438766 0.95474297 0.954488 0.95394784 0.9536594 0.9546493
0.9540544 0.9541004 0.9542336 0.9536679 0.9541812 0.95402235 0.95467013 0.95469666
0.95468885 0.9542456 0.95465124 0.95417637 0.9534019 0.95439386 0.95449305 0.9544557
0.95440614 0.9545188 0.95461625 0.95446783 0.95422125 0.9541942 0.95415413 0.95383424
0.95433795 0.9547708 0.9532492 0.95338666 0.95437783 0.95422095 0.95381266 0.9546153
0.954203 0.95430076 0.95462763 0.9535038 0.9541506 0.9543417 0.9540505 0.9541708
0.9543548 0.9546858 0.95447046 0.95432365 0.9543258 0.95446867 0.95410705 0.95435125
0.95378715 0.95455456 0.95503753 0.95395255 0.95440143 0.953875 0.95406705 0.95401263
0.95424753 0.9540187 0.9545999 0.95312023 0.9532625 0.95099324 0.9504881 0.9530119
