cases/test/snaps_128_32_96_uflux6/plumePLRNN_2024-05-22_09-40.pth (torch, 138336 bytes, 6 tensors)

conv1.weight f4 [32, 4, 5, 5]
-0.031188155 -0.027360195 0.0678403 0.06687219 -0.062056616 0.06264741 -0.0016204984 -0.040080696
0.055060405 -0.03344175 -0.071981095 -0.0027804119 0.008533811 0.00010871678 -0.01821685 -0.012086887
-0.025853116 0.09271291 0.00698713 -0.0031528329 0.040985446 -0.0138775585 -0.023146976 -0.019265205
0.016122237 0.018783702 -0.06396891 0.027103694 0.08319767 -0.05902811 -0.037516866 0.029916182
-0.029280966 0.003613733 0.024516616 -0.010195993 0.015758315 0.012953946 0.022012968 -0.049562585
0.022216467 0.0382714 -0.01948793 -0.08017265 0.040196706 -0.0010090837 -0.04951481 0.07668082
-0.04628268 0.025521832 0.06074545 -0.024156675 -0.053559072 0.09498507 -0.009020283 -0.021812892
0.075981155 0.002343632 -0.015633091 -0.01330476 0.007568004 -0.05935342 -0.0394841 0.10734687
-0.038919352 0.06522389 -0.004548414 0.00043916987 -0.043964412 0.048037626 -0.006308011 0.0718291
-0.03683518 0.07173189 -0.071069285 -0.035861015 -0.0543614 0.006932145 -0.0054652174 0.020229457
-0.16665182 0.081494235 0.024940547 0.16408142 0.11003611 -0.12714599 0.0045823255 -0.111171536
-0.025748713 0.010252885 0.2766002 -0.031217273 -0.092570886 0.022274833 0.0048845136 0.3842721
0.14386584 0.06680815 0.019478923 -0.18590705 -0.010537035 0.03986503 -0.038929343 -0.011295944
0.0052729496 -0.050653733 -0.013045995 -0.022775497 0.026834305 -0.036410306 -0.021738471 0.0594723
0.040030684 -0.041967534 -0.008860105 0.02315287 -0.033534948 0.021415219 -0.050102275 0.06713948
-0.006538182 0.11303761 -0.0854244 0.048069376 -0.00688683 0.036344722 -0.0392399 0.03349879
-0.016250107 -0.041949593 0.00661884 -0.03804367 -0.019030688 0.057874765 -0.03253674 0.038279213
-0.02662449 -0.026241792 0.008954778 -0.03185915 0.014841106 -0.09372127 0.0591687 -0.0044629495
0.052648015 0.006794765 0.057138998 0.011909366 -0.03230561 0.005921324 0.03893544 -0.029399356
0.019347621 -0.03541258 0.018884666 -0.042611312 0.07065009 -0.03420488 -0.005393581 -0.00021551437
-0.03757532 0.02944824 -0.0032792967 -0.015129584 0.033356044 0.019573698 0.07413021 -0.060850646
-0.022648647 0.0072732624 -0.036756665 0.020634698 0.070519015 -0.051277973 0.068149164 0.058740377
-0.047938596 0.008947518 -0.049141973 -0.04106804 0.18221505 0.03755314 0.073470935 -0.06983048
-0.14358947 0.27904627 -0.0075904364 -0.10513352 -0.059645846 0.054100797 0.09909917 -0.010176247
-0.09416711 -0.042083353 -0.06807306 -0.012583767 0.037396573 0.11983134 -0.0025911399 0.018218774
0.032698262 0.016610615 -0.040254842 -0.03236131 0.091903605 0.010473337 0.079073645 -0.1023122
0.012674386 0.016650364 -0.0072996365 -0.009837087 0.009482557 0.024103979 0.024445012 -0.011358135
0.012770411 -0.0058876583 0.02671597 -0.012830568 -0.00059963396 -0.04291103 0.046799026 -0.0038875546
0.0050170356 -0.08195691 0.07028519 -0.061231274 -0.049751792 0.04551472 0.032195393 -0.038254198
0.03834776 0.12718162 -0.039438803 0.0042827115 -0.049347926 -0.017760273 -0.024453409 -0.016285459
0.07014598 -0.063892946 0.07282498 -0.0050527384 0.026793102 -0.033874985 0.012894497 0.056610342
-0.043565802 0.04003789 -0.008785316 -0.020156333 -0.0045202053 0.025973033 -0.016220314 0.022854222
00000000: 4d7e ffbc 7d22 e0bc dbef 8a3d 49f4 883d
00000010: 142f 7ebd 494d 803d e766 d4ba a82b 24bd
00000020: 0587 613d 37fa 08bd d36a 93bd 9237 36bb
00000030: 66d1 0b3c e0fe e338 813b 95bc 1408 46bc
00000040: eac9 d3bc 44e0 bd3d 4bf4 e43b c29f 4ebb
00000050: 5be0 273d b35e 63bc ba9e bdbc 10d2 9dbc
00000060: c812 843c 47e0 993c 2202 83bd 9108 de3c
00000070: 8a63 aa3d 76c7 71bd 49ab 19bd c812 f53c
00000080: a3de efbc 61d4 6c3b 12d7 c83c 180d 27bc
00000090: 9517 813c ca3c 543c 8a54 b43c 2302 4bbd
000000a0: 4fff b53c 79c2 1c3d 27a5 9fbc 8f31 a4bd
000000b0: 4da5 243d 3b43 84ba 0bd0 4abd d50a 9d3d
000000c0: e892 3dbd 2913 d13c 39d0 783d 38e4 c5bc
000000d0: c260 5bbd 8887 c23d cfc9 13bc f3b0 b2bc
000000e0: 029c 9b3d 9f97 193b f810 80bc 35fc 59bc
000000f0: 05fd f73b 921c 73bd 14ba 21bd add8 db3d
00000100: e669 1fbd 1a94 853d dd0a 95bb 6240 e639
00000110: 0714 34bd 1ac3 443d 6eb3 cebb 231b 933d
00000120: 7ce0 16bd 2be8 923d c68c 91bd 00e3 12bd
00000130: 0faa 5ebd 0c27 e33b 9115 b3bb 3fb8 a53c
00000140: c6a6 2abe 73e6 a63d 1e50 cc3c f604 283e
00000150: 9d5a e13d 8f32 02be 5527 963b e7ad e3bd
00000160: f7ee d2bc b7fb 273c 8b9e 8d3e 5ebb ffbc
00000170: ce95 bdbd b679 b63c 450e a03b 50bf c43e
00000180: 9151 133e b6d2 883d 4392 9f3c 6b5e 3ebe
00000190: 87a3 2cbc 8449 233d 6074 1fbd a012 39bc
000001a0: b5c8 ac3b 4a7a 4fbd debe 55bc ae93 babc
000001b0: 9ed3 db3c f922 15bd e114 b2bc 3a99 733d
000001c0: 37f7 233d 26e6 2bbd f929 11bc 16ab bd3c
000001d0: f15b 09bd f86e af3c 0b38 4dbd 6c80 893d
000001e0: 3f3e d6bb 4380 e73d fdf2 aebd 65e4 443d
000001f0: ebaa e1bb 34de 143d 04ba 20bd 0736 093d
00000200: f21e 85bc 56d3 2bbd dbe2 d83b aed3 1bbd
00000210: 3fe6 9bbc 170e 6d3d 3f45 05bd aaca 1c3d
00000220: 9a1b dabc 07f9 d6bc 10b7 123c bd7e 02bd
00000230: 1c28 733c f0f0 bfbd e15a 723d ef3d 92bb
00000240: 72a5 573d 9fa6 de3b 950a 6a3d 801f 433c
00000250: e352 04bd aa07 c23b c57a 1f3d ebd6 f0bc
00000260: e77e 9e3c c80c 11bd 04b4 9a3c 3389 2ebd
00000270: ffb0 903d 6b1a 0cbd a3bc b0bb b3fb 61b9
00000280: 94e8 19bd 6f3d f13c 78e9 56bb 13e2 77bc
00000290: 59a0 083d 0559 a03c 94d1 973d 873e 79bd
000002a0: a889 b9bc 8c54 ee3b 288e 16bd 190a a93c
000002b0: 466c 903d da08 52bd ca91 8b3d c099 703d
000002c0: 435b 44bd 9c98 123c 1849 49bd f636 28bd
000002d0: 9596 3a3e 52d1 193d ee77 963d 4803 8fbd
000002e0: 1e09 13be 27df 8e3e 32b9 f8bb 3e50 d7bd
000002f0: 344f 74bd cc98 5d3d 81f4 ca3d 46ba 26bc
00000300: b0da c0bd 985f 2cbd e369 8bbd 252c 4ebc
00000310: 262d 193d 226a f53d 1dd0 29bb 8a3f 953c
00000320: 9dee 053d fc12 883c 43e2 24bd 4b8d 04bd
00000330: f537 bc3d 5c98 2b3c 5df1 a13d 0f89 d1bd
00000340: 3aa8 4f3c 5866 883c ca31 efbb bc2b 21bc
00000350: ba5c 1b3c b575 c53c e840 c83c 7917 3abc
00000360: fc3a 513c 42ed c0bb 73db da3c 4d37 52bc
00000370: c130 1dba 7ac3 2fbd 56b0 3f3d 58c6 7ebb
00000380: f265 a43b 06d9 a7bd aff1 8f3d a5cd 7abd
00000390: 89c8 4bbd a56d 3a3d 51df 033d 6fb0 1cbd
000003a0: 8a12 1d3d e63b 023e 958a 21bd fd55 8c3b
000003b0: 0d21 4abd fe7d 91bc 8452 c8bc 1569 85bc
000003c0: b2a8 8f3d 4eda 82bd 4325 953d 7191 a5bb
000003d0: 357d db3c 7fc0 0abd 7143 533c 3fe0 673d
000003e0: 0e72 32bd c5fe 233d 49f0 0fbc e51e a5bc
000003f0: 3b1e 94bb 66c5 d43c 77e0 84bc c738 bb3c

conv1.bias f4 [32]
0.10851402 0.12703997 0.07029235 0.16321717 -0.044428937 0.07876418 -0.09295942 -0.30680686
0.13251352 0.07802331 0.17176612 0.09105747 -0.23963085 -0.13322665 0.12860033 0.27447036
-0.00019244946 0.11583185 -0.24927981 0.0087084975 -0.009810133 0.01019671 0.25142026 -0.55233085
-0.33315343 -0.018512646 0.073725745 -0.3696167 -0.09948144 -0.016818954 -0.18714428 -0.10962714
00000000: 993c de3d c416 023e 70f5 8f3d 6722 273e
00000010: 1efb 35bd 1d4f a13d 8261 bebd ca15 9dbe
00000020: a0b1 073e afca 9f3d 75e3 2f3e 577c ba3d
00000030: ca61 75be 916c 08be ceaf 033e 6187 8c3e
00000040: 42cc 49b9 4039 ed3d 3543 7fbe 16ae 0e3c
00000050: aeba 20bc 1a10 273c 28ba 803e 8e65 0dbf
00000060: 1693 aabe d5a7 97bc 86fd 963d 663e bdbe
00000070: edbc cbbd e7c7 89bc c0a2 3fbe 3284 e0bd

conv2.weight f4 [32, 32, 5, 5]
-0.02116282 -0.01885599 -0.015550057 -0.003600363 -0.0031843153 -0.016736297 -0.030671524 -0.03658657
0.019920567 0.010029857 -0.004417126 -0.036572587 -0.035089105 -0.019821445 0.019698123 0.0010385348
0.0009741878 0.029843604 0.0013407152 -0.037196048 -0.032803874 -0.0022631015 -0.016714616 -0.016847685
0.02757606 0.008630295 -0.012959351 -0.01005611 0.023221273 -0.030749043 0.009358014 -0.03737415
-0.009866832 -0.03477686 -0.03604808 0.002682408 0.02764602 -0.010856584 0.026447585 -0.02826829
-0.035817064 -0.03783693 -0.015721234 -0.03608601 -0.025949042 0.016426684 -0.012957579 0.014802666
-0.0031562839 -0.008009544 -0.028087188 0.026645431 -0.013960017 0.002129494 0.0221293 0.0051954235
0.022122372 -0.0248342 0.02209192 0.0046696193 -0.014322744 -0.0062492946 -0.0053663044 0.0106245475
0.010558187 -0.0012967683 -0.032633442 -0.024018766 0.024449615 -0.014120052 -0.0137593625 -0.032885626
-0.024864793 -0.019200249 -0.020477444 0.028248992 -0.010123824 0.014052795 0.011442808 -0.037517536
-0.027396483 0.009335926 0.01931944 -0.010673764 -0.039413862 -0.013765717 0.0028189674 -0.004016695
0.01869645 -0.012651831 0.00072091364 0.011938069 -0.010329679 -0.031348646 -0.030537765 -0.0048154998
-0.026066221 0.008443015 0.028110739 -0.0048324545 0.009286978 0.023000672 0.008561702 -0.023950249
0.025961755 -0.028659929 -0.040369876 -0.025920667 0.020562569 -0.007817722 0.002570319 -0.008164255
-0.007361287 -0.022853334 0.026022222 -0.0036035518 -0.011777622 0.018476103 0.0056015467 -0.03879118
0.016544081 0.0071485336 -0.032928947 -0.0369336 0.011861857 -0.037083443 -0.033992805 -0.0017849671
-0.014471111 -0.0053192885 -0.016596893 0.023987308 -0.0027833316 -0.025024207 -0.016291726 0.020186769
-0.023861693 0.008298979 0.027133092 0.022292916 -0.02248759 -0.010976613 0.005648776 -0.004346832
0.026116112 -0.029258637 0.009976862 -0.03561247 0.022577202 -0.038543653 0.010045211 -0.019429166
-0.018726159 -0.023958547 0.006704201 -0.014835746 -0.009332026 -0.014962543 0.025041332 0.017792497
0.02435999 0.016786745 0.0062796846 0.001635244 0.019064127 0.01429361 -0.023957686 -0.01989206
-0.027825229 0.0036874113 0.015688678 -0.021688286 -0.023343274 0.015653215 -0.03822086 -0.029033285
-0.0384981 -0.017010223 -0.016132504 -0.03294859 0.008805637 -0.007287863 0.0031442898 0.00033964467
-0.032353282 -0.02252895 -0.023593338 0.0152031705 0.02663142 -0.016678259 0.0079732835 -0.0126898615
0.023893207 -0.0014691085 -0.031437773 -0.036412757 -0.028119808 -0.032019924 -0.0020922057 -0.030233124
-0.0035106712 0.015380489 -0.0056389086 0.011098505 -0.031184537 -0.026567588 0.0010070484 0.013820718
0.022589697 -0.0143054165 0.024807068 0.01926337 -0.03504634 -0.0061402656 0.007515445 -0.023142578
-0.021841832 -0.021864355 -0.016995361 0.028680384 -0.03516143 0.00042081092 0.009053856 0.0067701386
-0.02352686 -0.03937077 -0.022768462 -0.009658581 -0.038925108 0.015200195 -0.019331895 0.0048143254
0.026125401 0.010502253 -0.024123607 0.016633093 0.020156365 0.024011042 0.030211559 0.009261422
-0.0065137423 -0.006279475 -0.03709957 -0.0013464438 -0.002031959 0.012333384 0.002925907 0.0286504
0.029763896 0.020530272 0.0032267524 -0.0045130462 0.025915418 -0.021080665 -0.03490766 -0.02992509
00000000: a65d adbc e177 9abc abc5 7ebc 11f4 6bbb
00000010: f2af 50bb 8f1a 89bc d942 fbbc cddb 15bd
00000020: 7530 a33c 4554 243c 8abd 90bb 23cd 15bd
00000030: 98b9 0fbd 9560 a2bc f55d a13c 721f 883a
00000040: a360 7f3a 937a f43c f0ba af3a e25a 18bd
00000050: 5b5d 06bd 8b50 14bb 17ed 88bc 2804 8abc
00000060: 30e7 e13c 1566 0d3c 7553 54bc 62c2 24bc
00000070: 8a3a be3c 6be5 fbbc 5b52 193c a315 19bd
00000080: 7ea8 21bc 2e72 0ebd 27a7 13bd 57cb 2f3b
00000090: e879 e23c d0df 31bc 9ba8 d83c e792 e7bc
000000a0: eab4 12bd e6fa 1abd d1c9 80bc edce 13bd
000000b0: 1693 d4bc 4191 863c 074c 54bc e286 723c
000000c0: a8d9 4ebb 763a 03bc 1a17 e6bc 8547 da3c
000000d0: 8eb8 64bc fb8e 0b3b 8148 b53c 5f3e aa3b
000000e0: fa39 b53c 1871 cbbc 1dfa b43c 9b03 993b
000000f0: f1a9 6abc e2c6 ccbb d3d7 afbb 9512 2e3c
00000100: 3ffc 2c3c 53f8 a9ba a5aa 05bd 01c3 c4bc
00000110: 8f4a c83c ca57 67bc f36e 61bc 14b3 06bd
00000120: 40b1 cbbc d749 9dbc 50c0 a7bc 6e6a e73c
00000130: 65de 25bc b23d 663c 9e7a 3b3c fdab 19bd
00000140: 976e e0bc b6f5 183c cd43 9e3c 03e1 2ebc
00000150: 6e70 21bd 9a89 61bc 6dbe 383b 7b9e 83bb
00000160: 4c29 993c a049 4fbc b2fb 3c3a e497 433c
00000170: d03d 29bc 7067 00bd 562a fabc 57cb 9dbb
00000180: d488 d5bc 9254 0a3c 7e48 e63c 9159 9ebb
00000190: 6928 183c e86b bc3c 6246 0c3c 5033 c4bc
000001a0: bfad d43c 3ac8 eabc e25a 25bd 9457 d4bc
000001b0: d572 a83c e715 00bc cc72 283b 5ec3 05bc
000001c0: f336 f1bb ea36 bbbc 8e2c d53c 9129 6cbb
000001d0: edf6 40bc 325b 973c 2e8d b73b 80e3 1ebd
000001e0: 7487 873c 3f3e ea3b 81e0 06bd b047 17bd
000001f0: 3c58 423c cfe4 17bd 0a3c 0bbd 8ff5 e9ba
00000200: 3d18 6dbc 6d4d aebb 35f6 87bc 0881 c43c
00000210: 8e68 36bb 91ff ccbc 3a76 85bc b95e a53c
00000220: 9979 c3bc 71f8 073c 3846 de3c a29f b63c
00000230: e537 b8bc 40d7 33bc 5e19 b93b df6f 8ebb
00000240: 75f1 d53c cfaf efbc fe75 233c 62de 11bd
00000250: d3f3 b83c f3df 1dbd ab94 243c ea29 9fbc
00000260: 9a67 99bc b744 c4bc eaae db3b a111 73bc
00000270: 5be5 18bc 7425 75bc 7b23 cd3c 92c1 913c
00000280: 9a8e c73c 5b84 893c d0c5 cd3b af55 d63a
00000290: 5f2c 9c3c bf2f 6a3c e942 c4bc acf4 a2bc
000002a0: bcf1 e3bc 7fa8 713b 8b85 803c a2ab b1bc
000002b0: 653a bfbc 2c3b 803c 7a8d 1cbd 36d7 edbc
000002c0: 2fb0 1dbd 0659 8bbc 5028 84bc 1af5 06bd
000002d0: 8545 103c 07cf eebb 6e10 4e3b 5612 b239
000002e0: e084 04bd a28e b8bc d146 c1bc b816 793c
000002f0: 232a da3c d8a0 88bc 60a2 023c 23e9 4fbc
00000300: b0bb c33c 1a8f c0ba e5c4 00bd 8b25 15bd
00000310: 835b e6bc 5327 03bd 631d 09bb 75ab f7bc
00000320: 4a13 66bb 72fe 7b3c 98c6 b8bb 81d6 353c
00000330: b776 ffbc 45a4 d9bc f0fe 833a 4b70 623c
00000340: 070e b93c 4461 6abc 3138 cb3c 37ce 9d3c
00000350: c08c 0fbd 4834 c9bb 1f44 f63b 8195 bdbc
00000360: a4ed b2bc e01c b3bc db39 8bbc 20f3 ea3c
00000370: 6e05 10bd 49a0 dc39 a056 143c 0ad8 dd3b
00000380: 67bb c0bc 3f43 21bd ed84 babc 063f 1ebc
00000390: ef6f 1fbd 3d0a 793c ec5d 9ebc 7dc1 9d3b
000003a0: f004 d63c a411 2c3c df9e c5bc 2042 883c
000003b0: f61e a53c ceb2 c43c 3b7e f73c 38bd 173c
000003c0: 3b71 d5bb 0ec4 cdbb b8f5 17bd 287b b0ba
000003d0: 9d2a 05bb f611 4a3c 93c0 3f3b 3eb4 ea3c
000003e0: 6ad3 f33c 1a2f a83c ec77 533b 2de2 93bb
000003f0: 924c d43c 5cb1 acbc 56fb 0ebd 7625 f5bc

conv2.bias f4 [32]
0.016076958 0.006499947 -0.0069890204 -0.007153854 -0.022871116 0.023761708 0.0065455516 -0.034678854
0.022331608 -0.030729482 -0.019440677 -0.027711324 0.012746071 -0.0050228024 -0.030484555 -0.00063249347
0.023960074 0.019568138 -0.029597338 -0.018750269 0.021282997 -0.010319195 0.041698787 0.007394528
0.029244566 0.0014813268 0.009769724 -0.038897227 0.0029485966 -0.040285707 -0.025731845 -0.03429906
00000000: d3b3 833c 82fd d43b 2704 e5bb e06a eabb
00000010: 355c bbbc eaa7 c23c 117c d63b 6a0b 0ebd
00000020: c7f0 b63c 65bc fbbc 0e42 9fbc dc02 e3bc
00000030: e6d4 503c 5296 a4bb bfba f9bc ebcd 25ba
00000040: eb47 c43c 5c4d a03c 1e76 f2bc 2a9a 99bc
00000050: ae59 ae3c d711 29bc 59cc 2a3d cc4d f23b
00000060: 4d92 ef3c 1429 c23a 3111 203c b352 1fbd
00000070: 3e3d 413b a002 25bd 97cb d2bc 2c7d 0cbd

conv4.weight f4 [1, 32, 5, 5]
-0.013274708 -0.017627226 -0.030763114 -0.009294122 -0.01999068 0.011295281 0.019029586 -0.010505172
0.027187068 0.026224483 -0.020020217 -0.01532091 0.027815 -0.0014907442 0.026887655 -0.0019506031
-0.011986571 -0.006594697 0.008262237 0.017350383 0.02251923 0.013530152 -0.030609526 -0.03274304
0.004382831 0.016506355 0.030861223 0.01606171 0.0077046053 0.0072468943 -0.003231174 0.0026620547
-0.004258949 -0.0056227394 -0.008154399 0.00039179865 0.025423644 -0.014121319 0.023514612 -0.029345118
-0.019828536 -0.0014223 -0.0048932643 0.02158658 -0.0033933423 0.011911134 -0.026310489 -0.029552056
0.010381406 -0.006863279 -0.024873024 -0.006689366 0.010580344 0.017892202 0.027675042 -0.016301505
0.03074772 -0.02302523 -0.02024621 0.0071843294 0.0028310842 -0.021758974 -0.011013666 -0.0039208215
0.021369833 0.028854994 -0.014490881 -0.016595485 0.037665572 0.037492283 -0.01976814 -0.023467712
0.0086634 0.0005956248 -0.018263297 -0.025704766 0.02669866 0.026990635 0.016089972 -0.022054913
0.031396363 0.012405329 -0.029603807 -0.027472736 -0.009557528 0.0070240074 -0.010136926 5.437952e-05
-0.01043694 0.0052388464 0.01908594 0.026670419 -0.009012576 -0.014117864 -0.016001483 0.030301524
0.0077923266 0.031260796 -0.014909036 0.03673452 -0.03333149 -0.026944915 0.017471213 0.03174011
0.023594469 -0.017374266 -0.0035917438 0.031549882 -0.03340156 0.026268082 -0.0005509307 -0.030617971
-0.0074798963 -0.022885798 -0.019477874 0.022310687 0.005040663 0.025769772 0.020367097 -0.028430099
-0.030138977 0.032062247 -0.0011040479 0.023535443 -0.01491945 0.015895253 -0.008834087 0.025584236
0.028045766 -0.028734796 0.028206082 0.021167193 -0.029265504 -0.0042048236 0.011706039 -0.033672955
0.0062110727 -0.024894847 -0.015924891 0.0007565398 -0.0027409766 0.013780778 0.026787473 0.003179747
0.014437437 0.0025888903 0.0022036121 -0.019170752 -0.026596375 -0.007295867 -0.010890315 -0.010793575
-0.010625406 -0.0078338105 0.011361892 0.018914713 -0.0034327942 -0.0003300468 -0.0074048657 0.02552288
0.020515176 -0.016146159 -0.029018102 0.025852509 0.0140192155 -0.013570109 0.00082924444 -0.007596148
-0.03260752 0.0053647766 0.021718973 -0.031416167 0.0063231494 0.017310264 -0.019265292 -0.02322397
0.002014615 0.028742477 0.026852915 -0.026063928 -0.01593188 -0.011365599 -0.02796531 0.016960964
-0.023278197 -0.02894346 0.010862707 0.03754317 0.0125529375 -0.017891884 -0.020488355 0.013859915
-0.016385455 0.014372374 -0.0016826756 0.017469052 0.016975317 -0.014331735 0.011355404 -0.024637187
-0.022944411 0.011550955 0.031414833 -0.022155458 -0.02633592 0.015594661 -0.020747177 0.01071554
-0.028740373 -0.013232016 0.037963104 0.03405185 -0.00894332 -0.023798099 0.03271371 0.008599962
-0.005246407 0.038094677 0.01641084 0.02872648 0.0004190407 -0.021144707 0.015408834 -0.029280888
-0.014926243 0.001746052 0.0055839214 -0.033915628 -0.004318995 -0.031207433 0.007410764 -0.021832393
0.029087154 0.0098442165 -0.03761165 -0.025297012 0.004897351 0.027150175 0.027035479 0.0150695825
0.00793822 0.023604576 -0.016201777 -0.026681468 0.0082419785 -0.008071027 -0.013643681 -0.031599827
-0.021905629 0.0037592263 0.030971417 -0.004774727 -0.006121215 0.015554584 0.02144062 0.011013107
00000000: 297e 59bc f966 90bc ed02 fcbc 6046 18bc
00000010: 7fc3 a3bc d80f 393c efe3 9b3c e31d 2cbc
00000020: 6ab7 de3c bad4 d63c 7001 a4bc 8e04 7bbc
00000030: 48dc e33c 1365 c3ba 8043 dc3c 61ab ffba
00000040: 5363 44bc 5418 d8bb 555e 073c 6422 8e3c
00000050: 407a b83c 92ad 5d3c d4c0 fabc 911d 06bd
00000060: da9d 8f3b 5638 873c add0 fc3c d993 833c
00000070: ea76 fc3b 5b77 ed3b 1bc2 53bb de75 2e3b
00000080: a78e 8bbb f53e b8bb 079a 05bc 536a cd39
00000090: 3f45 d03c 1b5d 67bc b7a1 c03c 2c65 f0bc
000000a0: 746f a2bc 786c baba ad57 a0bb 57d6 b03c
000000b0: d662 5ebb eb26 433c 1889 d7bc 2717 f2bc
000000c0: c616 2a3c 5be5 e0bb 83c2 cbbc 7832 dbbb
000000d0: 2e59 2d3c ab92 923c c5b6 e23c bc8a 85bc
000000e0: a4e2 fb3c 689f bcbc 61db a5bc 866a eb3b
000000f0: b689 393b e03f b2bc aa72 34bc 3c7a 80bb
00000100: ca0f af3c 4f61 ec3c 296b 6dbc 41f3 87bc
00000110: 3747 1a3d 8291 193d cbf0 a1bc 5c3f c0bc
00000120: eff0 0d3c b423 1c3a e99c 95bc cd92 d2bc
00000130: 26b7 da3c 771b dd3c 1ecf 833c 81ac b4bc
00000140: 7999 003d b93f 4b3c af83 f2bc 810e e1bc
00000150: 2e97 1cbc a529 e63b 5915 26bc 9115 6438
00000160: b3ff 2abc a1aa ab3b 1e5a 9c3c ec7b da3c
00000170: 7ca9 13bc 9d4e 67bc 8b15 83bc e73a f83c
00000180: c656 ff3b 520b 003d 0845 74bc f076 163d
00000190: 9a86 08bd 95bb dcbc ca1f 8f3c eb01 023d
000001a0: 3049 c13c 7a54 8ebc 7663 6bbb 733a 013d
000001b0: 13d0 08bd 2930 d73c 556c 10ba 8ad2 fabc
000001c0: eb19 f5bb ff7a bbbc 1090 9fbc e7c4 b63c
000001d0: 252c a53b 211b d33c e6d8 a63c 3de6 e8bc
000001e0: 04e6 f6bc b453 033d b3b5 90ba 67cd c03c
000001f0: b570 74bc c336 823c d9bc 10bc 0896 d13c
00000200: 3cc0 e53c 3c65 ebbc 7110 e73c d266 ad3c
00000210: 36be efbc 9ec8 89bb b0ca 3f3c a7ec 09bd
00000220: 4186 cb3b 47f0 cbbc eb74 82bc 8752 463a
00000230: f5a1 33bb c6c8 613c 6771 db3c 4d63 503b
00000240: 008b 6c3c 5faa 293b 7a6a 103b fb0b 9dbc
00000250: a4e0 d9bc 2b12 efbb 4b6d 32bc 89d7 30bc
00000260: 2f16 2ebc 6259 00bc 3b27 3a3c 07f3 9a3c
00000270: bbf8 60bb 220a adb9 84a4 f2bb 5c15 d13c
00000280: 710f a83c f344 84bc 5fb7 edbc a4c8 d33c
00000290: dab0 653c 2a55 5ebc a761 593a 1ce9 f8bb
000002a0: 778f 05bd 02cb af3b fdeb b13c 3dae 00bd
000002b0: 6c32 cf3b 41ce 8d3c 3fd2 9dbc 3240 bebc
000002c0: a207 043b 5875 eb3c a5fa db3c 0584 d5bc
000002d0: 9383 82bc c736 3abc 8117 e5bc b8f1 8a3c
000002e0: ebb1 bebc d61a edbc 7ff9 313c dec6 193d
000002f0: d6aa 4d3c 0092 92bc 32d7 a7bc b214 633c
00000300: ca3a 86bc 1b7a 6b3c 398d dcba 421b 8f3c
00000310: d20f 8b3c a7cf 6abc 040c 3a3c edd3 c9bc
00000320: ebf5 bbbc 3740 3d3c d7ac 003d 5d7f b5bc
00000330: 6dbe d7bc c080 7f3c fcf5 a9bc 3b90 2f3c
00000340: ee70 ebbc 19cb 58bc 337f 1b3d f479 0b3d
00000350: 0187 12bc 3bf4 c2bc d0fe 053d dbe6 0c3c
00000360: 0dea abbb 2a09 1c3d 0770 863c cc53 eb3c
00000370: b1b2 db39 aa37 adbc 5675 7c3c 79de efbc
00000380: 338d 74bc c8db e43a 54f9 b63b 1deb 0abd
00000390: 5b86 8dbb bba6 ffbc ffd5 f23b d9d9 b2bc
000003a0: 2f48 ee3c a349 213c ac0e 1abd ae3b cfbc
000003b0: f579 a03b 0b6a de3c 8279 dd3c 69e6 763c
000003c0: 4f0f 023c 625e c13c 97b9 84bc 1893 dabc
000003d0: 5d09 073c 573c 04bc bf89 5fbc d26e 01bd
000003e0: 6f73 b3bc 5a5d 763b c5b7 fd3c 5075 9cbb
000003f0: 7994 c8bb a7d8 7e3c 3da4 af3c 5270 343c

As.0 f4 [1, 1, 32, 128]
1.0038878 1.0034975 0.9768111 0.98307425 0.9567743 0.96832496 0.99806136 0.99868226
0.99816245 0.99795514 0.9978839 0.99792004 0.99823296 0.9977776 0.9985699 0.9978992
0.9978995 0.9978468 0.9978889 0.9981482 0.9980367 0.9983125 0.9981294 0.9973676
0.9978842 0.99803394 0.99788344 0.9984447 0.9983489 0.9978723 0.9983939 0.9979642
0.9983306 0.998343 0.99787027 0.9982041 0.99797946 0.9984322 0.99853694 0.9979485
0.9982391 0.9980538 0.9978092 0.9979727 0.99808985 0.9984442 0.99791986 0.9979523
0.9981399 0.99814326 0.9974946 0.9973563 0.9984279 0.9979327 0.9981811 0.9983644
0.9981196 0.9981457 0.998047 0.9981338 0.99833924 0.99759156 0.9980386 0.99792784
0.9979954 0.9977995 0.9983798 0.9978313 0.9979797 0.9979261 0.9983636 0.9977953
0.99804676 0.9982878 0.998105 0.9982719 0.9978313 0.99796426 0.9984152 0.99762625
0.9980095 0.9983062 0.997933 0.9977407 0.99773186 0.9973891 0.99785113 0.99789983
0.99849075 0.9979468 0.9983801 0.9979533 0.9976291 0.9979469 0.99830765 0.9980929
0.9975926 0.99747807 0.9977193 0.9983462 0.9983276 0.99742484 0.9977917 0.9978409
0.9977007 0.9982122 0.9981669 0.99806666 0.9977719 0.99805486 0.99789155 0.9979499
0.9980622 0.99793017 0.99786246 0.99821156 0.99800044 0.997425 0.9977709 0.99831533
0.99754006 0.9984806 0.9978765 0.99773395 0.9976973 0.99798113 0.9970033 0.99866086
1.0278877 1.0469954 1.1271722 1.080685 1.1460936 1.0984169 0.99790156 0.9979101
0.9979587 0.99791646 0.99833846 0.9983453 0.9976049 0.9983532 0.9976234 0.99777275
0.9980581 0.9982596 0.9981224 0.9979866 0.99789697 0.99834055 0.99854046 0.9976258
0.99751204 0.99792844 0.9976294 0.99781847 0.9980434 0.99803925 0.9985803 0.9982411
0.99803644 0.99759036 0.99741566 0.9985331 0.99809974 0.9983611 0.99777794 0.99753577
0.9984183 0.99802005 0.9979215 0.99782026 0.99745154 0.99752986 0.99804395 0.9981973
0.99855846 0.99812335 0.99827564 0.9977514 0.9975183 0.99799323 0.9973653 0.9978433
0.9984784 0.99848855 0.99786997 0.9976311 0.99792427 0.9973562 0.9983803 0.9979325
0.99749804 0.9979199 0.9977056 0.998292 0.99790597 0.99804884 0.99791425 0.9977304
0.99738544 0.99793893 0.99820656 0.9983927 0.9976175 0.9981549 0.9982685 0.9981127
0.99788547 0.99779767 0.9980644 0.9973081 0.9979851 0.99814725 0.9982218 0.9980788
0.99854815 0.99848074 0.99787915 0.9979079 0.9976541 0.9979232 0.99792403 0.9978985
0.9980296 0.9978113 0.99784726 0.9980053 0.99780947 0.9978032 0.99842334 0.99826586
0.9980579 0.9974728 0.9979361 0.99789584 0.9978359 0.9982728 0.99824464 0.9981462
0.99777865 0.99802834 0.9979334 0.9982131 0.99820656 0.99823815 0.99811953 0.9974255
0.99768513 0.998218 0.99764776 0.9984967 0.99849886 0.9969912 0.99647397 0.9949868
00000000: 657f 803f 9b72 803f 4b10 7a3f c1aa 7b3f
00000010: 29ef 743f 25e4 773f f380 7f3f a4a9 7f3f
00000020: 9387 7f3f fd79 7f3f 5275 7f3f b077 7f3f
00000030: 328c 7f3f 5a6e 7f3f 47a2 7f3f 5276 7f3f
00000040: 5776 7f3f e372 7f3f a675 7f3f a486 7f3f
00000050: 557f 7f3f 6891 7f3f 6985 7f3f 7c53 7f3f
00000060: 5775 7f3f 277f 7f3f 4a75 7f3f 129a 7f3f
00000070: cb93 7f3f 8f74 7f3f be96 7f3f 957a 7f3f
00000080: 9892 7f3f 6893 7f3f 6d74 7f3f 4e8a 7f3f
00000090: 957b 7f3f 4199 7f3f 1ea0 7f3f 8e79 7f3f
000000a0: 998c 7f3f 7480 7f3f 6c70 7f3f 247b 7f3f
000000b0: d182 7f3f 0a9a 7f3f ad77 7f3f cd79 7f3f
000000c0: 1986 7f3f 5186 7f3f ce5b 7f3f be52 7f3f
000000d0: f998 7f3f 8478 7f3f cc88 7f3f cf94 7f3f
000000e0: c484 7f3f 7a86 7f3f 0280 7f3f b285 7f3f
000000f0: 2993 7f3f 2962 7f3f 757f 7f3f 3378 7f3f
00000100: a07c 7f3f ca6f 7f3f d295 7f3f df71 7f3f
00000110: 997b 7f3f 1678 7f3f c294 7f3f 836f 7f3f
00000120: fe7f 7f3f ca8f 7f3f cf83 7f3f bf8e 7f3f
00000130: df71 7f3f 967a 7f3f 2398 7f3f 6f64 7f3f
00000140: 8d7d 7f3f ff90 7f3f 8978 7f3f ef6b 7f3f
00000150: 5b6b 7f3f e454 7f3f 2c73 7f3f 5d76 7f3f
00000160: 179d 7f3f 7179 7f3f d795 7f3f de79 7f3f
00000170: 9f64 7f3f 7379 7f3f 1791 7f3f 0483 7f3f
00000180: 3b62 7f3f b95a 7f3f 886a 7f3f 9e93 7f3f
00000190: 6692 7f3f 3c57 7f3f 476f 7f3f 8072 7f3f
000001a0: 5069 7f3f d68a 7f3f de87 7f3f 4c81 7f3f
000001b0: fb6d 7f3f 8680 7f3f d275 7f3f a579 7f3f
000001c0: 0181 7f3f 5a78 7f3f ea73 7f3f cb8a 7f3f
000001d0: f57c 7f3f 3f57 7f3f ea6d 7f3f 9891 7f3f
000001e0: c95e 7f3f 6d9c 7f3f d674 7f3f 7e6b 7f3f
000001f0: 1769 7f3f b17b 7f3f 9c3b 7f3f 3da8 7f3f
00000200: d391 833f f203 863f 2e47 903f e353 8a3f
00000210: 32b3 923f ed98 8c3f 7a76 7f3f 0977 7f3f
00000220: 397a 7f3f 7477 7f3f 1c93 7f3f 8f93 7f3f
00000230: 0963 7f3f 1394 7f3f 3f64 7f3f 096e 7f3f
00000240: bc80 7f3f f18d 7f3f f384 7f3f 0d7c 7f3f
00000250: 2d76 7f3f 3f93 7f3f 59a0 7f3f 6864 7f3f
00000260: f35c 7f3f 3d78 7f3f a464 7f3f 0871 7f3f
00000270: c67f 7f3f 807f 7f3f f5a2 7f3f bb8c 7f3f
00000280: 517f 7f3f 1562 7f3f a256 7f3f de9f 7f3f
00000290: 7783 7f3f 9894 7f3f 606e 7f3f 815e 7f3f
000002a0: 5798 7f3f 3e7e 7f3f c977 7f3f 2671 7f3f
000002b0: fc58 7f3f 1e5e 7f3f cf7f 7f3f dc89 7f3f
000002c0: 87a1 7f3f 0385 7f3f fe8e 7f3f a36c 7f3f
000002d0: 5c5d 7f3f 7c7c 7f3f 5553 7f3f a972 7f3f
000002e0: 489c 7f3f f29c 7f3f 6874 7f3f c064 7f3f
000002f0: f777 7f3f bc52 7f3f da95 7f3f 8178 7f3f
00000300: 085c 7f3f ae77 7f3f a269 7f3f 1190 7f3f
00000310: c476 7f3f 2180 7f3f 4f77 7f3f 426b 7f3f
00000320: a754 7f3f ed78 7f3f 778a 7f3f aa96 7f3f
00000330: dc63 7f3f 1487 7f3f 868e 7f3f 5084 7f3f
00000340: 6c75 7f3f ab6f 7f3f 2681 7f3f 954f 7f3f
00000350: f47b 7f3f 9486 7f3f 778b 7f3f 1882 7f3f
00000360: daa0 7f3f 6f9c 7f3f 0275 7f3f e476 7f3f
00000370: 4266 7f3f e577 7f3f f377 7f3f 4776 7f3f
00000380: de7e 7f3f 9070 7f3f eb72 7f3f 467d 7f3f
00000390: 7170 7f3f 0870 7f3f ac98 7f3f 5a8e 7f3f
000003a0: b980 7f3f 615a 7f3f be78 7f3f 1a76 7f3f
000003b0: 2c72 7f3f ce8e 7f3f f68c 7f3f 8286 7f3f
000003c0: 6c6e 7f3f c97e 7f3f 9078 7f3f e58a 7f3f
000003d0: 778a 7f3f 898c 7f3f c384 7f3f 4757 7f3f
000003e0: 4b68 7f3f 378b 7f3f d865 7f3f 7b9d 7f3f
000003f0: 9f9d 7f3f d13a 7f3f eb18 7f3f 74b7 7e3f
