cases/test/snaps_128_32_96_uflux6/PlumePLRNN_2024-05-31_13-15-36.pt (torch, 464522 bytes, 13 tensors)

convW f4 [1, 1, 32, 128]
0.87345153 0.8604316 0.90026253 0.8748309 0.8412587 0.8301998 0.8305739 0.83434004
0.841581 0.84747565 0.8490724 0.8516249 0.85375017 0.8560159 0.8579732 0.86016
0.86081475 0.85966563 0.86158407 0.86156195 0.86216086 0.860575 0.8599419 0.8594774
0.8603552 0.86136085 0.86187965 0.86119694 0.859655 0.8581626 0.85786223 0.85787225
0.85642624 0.857465 0.8595403 0.8611971 0.8600313 0.85934806 0.8577805 0.85851634
0.85903436 0.8607785 0.86178225 0.86067754 0.8598444 0.8582992 0.8575921 0.85797787
0.85764146 0.8576813 0.8552438 0.8534966 0.85382634 0.85288256 0.8515448 0.8519207
0.85288876 0.8554559 0.85700744 0.8596435 0.8603324 0.85938174 0.8582116 0.856509
0.8564164 0.85505325 0.85413915 0.85424757 0.85584104 0.85634494 0.8550706 0.85352015
0.8507948 0.84912163 0.85065717 0.85191613 0.85285103 0.8524182 0.84999853 0.8492068
0.84794194 0.84656096 0.84650505 0.847925 0.8495987 0.8514436 0.8513283 0.8510544
0.8500565 0.84999573 0.85256165 0.8543067 0.8540792 0.854148 0.8531325 0.85286385
0.8517257 0.850744 0.8523945 0.85386425 0.85072273 0.8509678 0.8509139 0.8503456
0.85086536 0.85099524 0.8510918 0.8527677 0.85282785 0.8541007 0.85295624 0.8527613
0.851134 0.85025775 0.84658724 0.8439629 0.84267974 0.8422725 0.8419106 0.8426058
0.8443179 0.8466927 0.84900063 0.8460662 0.83812314 0.83054906 0.82527924 0.8274453
0.8145617 0.8257892 0.82705235 0.8290979 0.837307 0.8401516 0.84278315 0.8486166
0.85728383 0.86550844 0.868733 0.8687431 0.8660902 0.86568636 0.8675299 0.871464
0.872913 0.8749983 0.87529516 0.875313 0.87421906 0.8719163 0.871819 0.8725342
0.87431705 0.87619376 0.8765594 0.8745753 0.8728811 0.8726058 0.87335193 0.8742178
0.87550145 0.8750613 0.8739924 0.873254 0.87253225 0.87241656 0.8718879 0.8719453
0.87244517 0.873459 0.8747479 0.87434906 0.8737489 0.8699104 0.86817616 0.8680999
0.8688364 0.8703233 0.8720402 0.8711979 0.86857307 0.86601126 0.86692 0.867006
0.86762166 0.86758083 0.8687283 0.87007475 0.87038606 0.86925495 0.87024635 0.8703262
0.8688358 0.86884147 0.86726755 0.8650878 0.8641141 0.8640393 0.8639253 0.86182946
0.8605074 0.8610602 0.859599 0.859195 0.86067855 0.8612192 0.8611319 0.86051685
0.8600183 0.85879767 0.8590394 0.8603494 0.8631322 0.86510134 0.8661164 0.8653935
0.8639531 0.8633049 0.8634995 0.864833 0.86590797 0.86756754 0.8691904 0.8695084
0.8678459 0.86487377 0.864028 0.86249614 0.86267775 0.8634354 0.8645798 0.8637829
0.8634197 0.86280876 0.86271524 0.86439395 0.8666515 0.8656285 0.86778045 0.8669383
0.8657694 0.86403567 0.86141104 0.8610397 0.8602785 0.8583192 0.8585191 0.8559907
0.8553677 0.8575651 0.86304224 0.86654544 0.86342037 0.86675715 0.85715103 0.8510797
00000000: 859a 5f3f 3f45 5c3f 9b77 663f ebf4 5f3f
00000010: bb5c 573f f987 543f 7ea0 543f 4f97 553f
00000020: da71 573f 2af4 583f cf5c 593f 1704 5a3f
00000030: 5f8f 5a3f dc23 5b3f 22a4 5b3f 7233 5c3f
00000040: 5b5e 5c3f 0c13 5c3f c690 5c3f 538f 5c3f
00000050: 93b6 5c3f a54e 5c3f 2725 5c3f b606 5c3f
00000060: 3d40 5c3f 2582 5c3f 25a4 5c3f 6777 5c3f
00000070: 5a12 5c3f 8bb0 5b3f dc9c 5b3f 849d 5b3f
00000080: c03e 5b3f d482 5b3f d50a 5c3f 6a77 5c3f
00000090: 032b 5c3f 3cfe 5b3f 8197 5b3f bac7 5b3f
000000a0: ade9 5b3f fb5b 5c3f c39d 5c3f 5d55 5c3f
000000b0: c31e 5c3f 7fb9 5b3f 288b 5b3f 70a4 5b3f
000000c0: 648e 5b3f 0091 5b3f 42f1 5a3f c17e 5a3f
000000d0: 5d94 5a3f 8356 5a3f d7fe 593f 7a17 5a3f
000000e0: eb56 5a3f 28ff 5a3f d764 5b3f 9911 5c3f
000000f0: bf3e 5c3f 7100 5c3f c1b3 5b3f 2c44 5b3f
00000100: 1b3e 5b3f c5e4 5a3f dda8 5a3f f8af 5a3f
00000110: 6618 5b3f 6c39 5b3f e8e5 5a3f 4c80 5a3f
00000120: b0cd 593f 0960 593f abc4 593f 2d17 5a3f
00000130: 7254 5a3f 1438 5a3f 8199 593f 9e65 593f
00000140: b912 593f 38b8 583f 8eb4 583f 9d11 593f
00000150: 4d7f 593f 35f8 593f a7f0 593f b3de 593f
00000160: 4e9d 593f 5299 593f 7b41 5a3f d8b3 5a3f
00000170: efa4 5a3f 71a9 5a3f e466 5a3f 4955 5a3f
00000180: b20a 5a3f 5cca 593f 8736 5a3f d996 5a3f
00000190: f7c8 593f 07d9 593f 7ed5 593f 40b0 593f
000001a0: 50d2 593f d3da 593f 27e1 593f fc4e 5a3f
000001b0: ed52 5a3f 58a6 5a3f 575b 5a3f 914e 5a3f
000001c0: ebe3 593f 7eaa 593f f1b9 583f f40d 583f
000001d0: dcb9 573f 2c9f 573f 7487 573f 04b5 573f
000001e0: 3825 583f dac0 583f 1b58 593f cb97 583f
000001f0: 3d8f 563f dd9e 543f 8045 533f 75d3 533f
00000200: 1e87 503f ec66 533f b4b9 533f c33f 543f
00000210: c059 563f 2d14 573f a3c0 573f f03e 593f
00000220: f476 5b3f f691 5d3f 4965 5e3f f365 5e3f
00000230: 16b8 5d3f 9f9d 5d3f 7116 5e3f 4418 5f3f
00000240: 3a77 5f3f e3ff 5f3f 5813 603f 8314 603f
00000250: d2cc 5f3f e835 5f3f 882f 5f3f 675e 5f3f
00000260: 3ed3 5f3f 3c4e 603f 3266 603f 2be4 5f3f
00000270: 2375 5f3f 1863 5f3f fe93 5f3f bdcc 5f3f
00000280: dd20 603f 0404 603f f7bd 5f3f 938d 5f3f
00000290: 465e 5f3f b156 5f3f 0c34 5f3f cf37 5f3f
000002a0: 9158 5f3f 029b 5f3f 7aef 5f3f 57d5 5f3f
000002b0: 02ae 5f3f 73b2 5e3f cb40 5e3f cc3b 5e3f
000002c0: 106c 5e3f 82cd 5e3f 073e 5f3f d306 5f3f
000002d0: ce5a 5e3f eab2 5d3f 78ee 5d3f 1bf4 5d3f
000002e0: 741c 5e3f c719 5e3f fa64 5e3f 38bd 5e3f
000002f0: 9fd1 5e3f 7e87 5e3f 77c8 5e3f b3cd 5e3f
00000300: 066c 5e3f 656c 5e3f 3f05 5e3f 6576 5d3f
00000310: 9536 5d3f ae31 5d3f 352a 5d3f dba0 5c3f
00000320: 374a 5c3f 716e 5c3f ae0e 5c3f 34f4 5b3f
00000330: 6e55 5c3f dd78 5c3f 2473 5c3f d54a 5c3f
00000340: 292a 5c3f 2ada 5b3f 02ea 5b3f dc3f 5c3f
00000350: 3bf6 5c3f 4877 5d3f ceb9 5d3f 6e8a 5d3f
00000360: 082c 5d3f 8d01 5d3f 4e0e 5d3f b265 5d3f
00000370: 25ac 5d3f e818 5e3f 4383 5e3f 1a98 5e3f
00000380: 262b 5e3f 5e68 5d3f f030 5d3f 8ccc 5c3f
00000390: 73d8 5c3f 1a0a 5d3f 1a55 5d3f e020 5d3f
000003a0: 1309 5d3f 09e1 5c3f e8da 5c3f ec48 5d3f
000003b0: dfdc 5d3f d499 5d3f dc26 5e3f abef 5d3f
000003c0: 10a3 5d3f 7131 5d3f 6f85 5c3f 196d 5c3f
000003d0: 363b 5c3f cfba 5b3f e8c7 5b3f 3522 5b3f
000003e0: 61f9 5a3f 6389 5b3f 56f0 5c3f ecd5 5d3f
000003f0: 1e09 5d3f cce3 5d3f 406e 5b3f 5ce0 593f

convs.0.weight f4 [32, 4, 5, 5]
0.0945991 -0.02461551 -0.050209958 -0.063223094 -0.025016824 -0.015748119 0.019856887 0.062488478
0.070524246 0.07887304 -0.0037207853 -0.021901736 0.003746308 -0.004042957 0.069716446 0.04034019
-0.03356893 0.058301996 -0.0445792 -0.06249606 0.041952573 0.085218295 0.03830309 0.0709055
-0.061455086 0.036302313 -0.012735314 0.0077029997 -0.024598073 -0.010980197 0.04299948 -0.07369654
0.06177333 -0.042766005 -0.074158505 0.04656789 0.046694353 -0.015674317 0.003716987 0.003952116
-0.09187521 0.06372958 -0.0494231 -0.0071513606 -0.0017869029 -0.004950822 -0.0590132 0.0026835967
0.06581562 0.04492937 0.100863345 0.02660718 -0.026826449 -0.049616165 0.06322778 0.024526082
0.04605791 0.044955984 0.038678337 0.015092363 -0.076624684 0.059114646 -0.089591905 0.021580273
0.051419433 0.058258753 0.07300382 0.038820196 -0.048287734 0.08554089 -0.0052903593 0.04864844
-0.00027731498 0.012601541 0.02673662 -0.1022934 0.072516866 -0.056899853 -0.06651955 0.022231083
-0.030769132 -0.088769324 0.023395604 0.041024946 -0.0021433567 -0.0046141925 0.069251604 0.00038976048
0.022362517 0.01312363 0.020405477 -0.026960641 0.017651474 0.07508884 0.04623276 -0.011361005
-0.06841298 0.02887308 0.042221244 0.00685971 -0.040878683 -0.0657815 0.0140666645 0.024477841
0.03544754 -0.009564967 0.014541361 0.04457275 0.07788025 -0.00031432096 -0.034120586 0.062873475
-0.01625195 -0.08325443 0.06092935 -0.004229759 0.03836201 -0.034219705 -0.055208806 0.075954445
0.09900317 0.018778514 0.007047608 0.015066177 0.034026667 -0.021388285 0.028155537 -0.028421847
0.023452207 -0.03819912 0.022442607 0.016984548 -0.0139300525 -0.04341472 0.0012636911 0.047596805
-0.035131887 -0.09217357 0.073403284 0.023740876 -0.08942369 0.0400938 -0.017637393 0.0067809112
0.061317783 0.06762305 0.07926713 -0.037906777 0.057417106 -0.06411468 0.044990577 -0.048286073
0.030225556 -0.06064568 0.008873796 0.056863204 0.01688726 0.08882373 -0.060514934 -0.01887098
0.06047191 0.024197785 -0.035937976 -0.065791264 0.032591365 0.05293026 0.034443267 0.012714354
-0.053557605 -0.029770387 -0.01117545 -0.025931781 0.026599195 0.062109616 0.04706264 0.11268483
-0.07153495 0.0005852389 0.034327675 -0.07395635 -0.04601708 -0.042701147 -0.107479006 -0.07638459
0.10604605 -0.0884762 0.03883765 -0.01131863 -0.049821343 0.089362025 -0.027729353 0.053931583
-0.06437707 0.0528297 -0.05831968 -0.0472183 -0.03260513 0.042684942 0.033705372 0.12701899
0.061071612 0.06540225 -0.021989534 0.05462625 0.0389108 0.06446218 -0.10075866 0.012711691
-0.10179139 -0.09396819 -0.011592124 0.0069647445 0.089369155 -0.06900637 -0.003883307 0.0003952419
-0.049762685 0.010255748 0.046177693 -0.010740033 0.008544538 0.0059948154 0.06957732 -0.008245996
-0.06311521 0.0062132645 0.10215632 0.08103572 0.08919733 0.08118079 -0.056808352 -0.03873799
-0.034047298 0.049007647 -0.089356735 0.0048999577 -0.095552266 0.014512334 -0.052200537 -0.018345883
0.0075578196 0.013455931 0.09413225 -0.004317684 -0.06250256 0.07453299 -0.06123688 0.0315973
-0.07130568 0.037651617 -0.0560249 -0.0047106156 -0.08623138 0.028525192 0.0474648 -0.080368094
00000000: 2cbd c13d 77a6 c9bc f5a8 4dbd 1c7b 81bd
00000010: 15f0 ccbc 3302 81bc e9aa a23c ebf3 7f3d
00000020: 046f 903d 3088 a13d 6bd8 73bb 456b b3bc
00000030: 9e84 753b c87a 84bb 7fc7 8e3d c13b 253d
00000040: 937f 09bd 13ce 6e3d ae98 36bd defb 7fbd
00000050: 76d6 2b3d ee86 ae3d b3e3 1c3d e736 913d
00000060: 54b8 7bbd bcb1 143d c7a7 50bc 7269 fc3b
00000070: e681 c9bc 49e6 33bc 3920 303d 36ee 96bd
00000080: 0806 7d3d 682b 2fbd 6ae0 97bd f9bd 3e3d
00000090: 9442 3f3d 6d67 80bc b298 733b c080 813b
000000a0: 1229 bcbd a784 823d e06f 4abd f655 eabb
000000b0: 8336 eaba 813a a2bb d3b7 71bd 48df 2f3b
000000c0: 57ca 863d dc07 383d 7191 ce3d 4df7 d93c
000000d0: 24c3 dbbc 523a 4bbd 917d 813d ecea c83c
000000e0: 38a7 3c3d c423 383d 2d6d 1e3d f545 773c
000000f0: 67ed 9cbd 3322 723d f67b b7bd 1dc9 b03c
00000100: 2f9d 523d bba0 6e3d 0783 953d ed01 1f3d
00000110: 5cc9 45bd 1030 af3d c05a adbb 9643 473d
00000120: 9664 91b9 b276 4e3c c206 db3c 347f d1bd
00000130: b983 943d d20f 69bd 673b 88bd f61d b63c
00000140: 8c0f fcbc b1cc b5bd 23a8 bf3c c609 283d
00000150: 8f77 0cbb a732 97bb c9d3 8d3d c458 cc39
00000160: 9931 b73c 7e04 573c 6329 a73c 90dc dcbc
00000170: d399 903c 2ec8 993d 905e 3d3d 8223 3abc
00000180: 1b1c 8cbd 3d87 ec3c 2ff0 2c3d 6bc7 e03b
00000190: 6870 27bd 73b8 86bd de77 663c c185 c83c
000001a0: 7131 113d 61b6 1cbc e33e 6e3c ea91 363d
000001b0: ae7f 9f3d 72cb a4b9 07c2 0bbd cfc3 803d
000001c0: cf22 85bc 4c81 aabd 0e91 793d ca99 8abb
000001d0: 7c21 1d3d f629 0cbd a122 62bd 018e 9b3d
000001e0: 2dc2 ca3d 66d5 993c 9fef e63b 20d8 763c
000001f0: 8c5f 0b3d 7c36 afbc 71a6 e63c efd4 e8bc
00000200: d81e c03c ae76 1cbd 8fd9 b73c 2e23 8b3c
00000210: e03a 64bc a2d3 31bd 70a2 a53a def4 423d
00000220: 74e6 0fbd 7fc5 bcbd 7654 963d 3a7c c23c
00000230: c523 b7bd 6539 243d 4b7c 90bc 6832 de3b
00000240: 5b28 7b3d f47d 8a3d ce56 a23d 2344 1bbd
00000250: 332e 6b3d 8f4e 83bd 0a48 383d 9ec7 45bd
00000260: 969b f73c 9b67 78bd 6663 113c 64e9 683d
00000270: 2757 8a3c 37e9 b53d 82de 77bd 5097 9abc
00000280: 65b1 773d 6f3a c63c b333 13bd 92bd 86bd
00000290: 867e 053d 66cd 583d 6214 0d3d de4f 503c
000002a0: 385f 5bbd 07e1 f3bc 3c19 37bc e36e d4bc
000002b0: 8ee6 d93c a766 7e3d c1c4 403d 4ec7 e63d
000002c0: ea80 92bd b86a 193a 2d9b 0c3d 6d76 97bd
000002d0: 687c 3cbd 66e7 2ebd f41d dcbd 866f 9cbd
000002e0: ac2e d93d 0333 b5bd 3a14 1f3d c671 39bc
000002f0: 7711 4cbd 7003 b73d ab28 e3bc 5de7 5c3d
00000300: 20d8 83bd f563 583d 9ee0 6ebd fa67 41bd
00000310: f58c 05bd 68d6 2e3d a50e 0a3d 4411 023e
00000320: 3a26 7a3d 9df1 853d 6523 b4bc c6bf 5f3d
00000330: ee60 1f3d bf04 843d 8e5a cebd b244 503c
00000340: 0178 d0bd 6572 c0bd e4ec 3dbc 8338 e43b
00000350: 2d07 b73d 3653 8dbd 157f 7ebb 7838 cf39
00000360: f5d3 4bbd ba07 283c d224 3d3d f7f6 2fbc
00000370: 64fe 0b3c 2870 c43b 8e7e 8e3d 371a 07bc
00000380: 8c42 81bd a498 cb3b 5537 d13d 0ef6 a53d
00000390: 17ad b63d 1d42 a63d e0af 68bd baab 1ebd
000003a0: 2e75 0bbd 3ebc 483d aa00 b7bd d38f a03b
000003b0: e8b0 c3bd 24c5 6d3c 3bd0 55bd 1b4a 96bc
000003c0: 96a7 f73b 4476 5c3c 69c8 c03d 5c7b 8dbb
000003d0: 5801 80bd c1a4 983d 86d3 7abd 2c6c 013d
000003e0: b608 92bd 9538 1a3d 5e7a 65bd 825b 9abb
000003f0: 149a b0bd aaad e93c 736a 423d 0798 a4bd

convs.0.bias f4 [32]
-0.051485464 0.047607165 -0.06577201 0.020202378 0.10347333 -0.057839394 0.048822332 0.06984671
0.004982252 0.10886344 0.075573504 -0.0103325285 0.0027395035 -0.037388712 0.028960768 0.073725864
0.06354005 -0.07796795 -0.0015343048 -0.085972734 0.039709173 -0.078639574 -0.039934356 -0.060677074
-0.067062885 0.08951057 0.032972794 -0.057711165 0.009736732 -0.013577612 0.028688245 0.06657016
00000000: 6ce2 52bd bbff 423d 7ab3 86bd 757f a53c
00000010: d3e9 d33d 00e9 6cbd edf9 473d cb0b 8f3d
00000020: 2942 a33b ccf3 de3d 48c6 9a3d c449 29bc
00000030: 3e89 333b e824 19bd 223f ed3c 96fd 963d
00000040: 4921 823d a9ad 9fbd ba1a c9ba 7912 b0bd
00000050: 16a6 223d c90d a1bd 3592 23bd 8688 78bd
00000060: 4458 89bd 5151 b73d 7b0e 073d 8b62 6cbd
00000070: d086 1f3c a274 5ebc 9c03 eb3c f055 883d

convs.1.weight f4 [32, 32, 5, 5]
0.030201862 0.039225552 -0.010564011 0.016009364 0.04273706 0.018487483 -0.016783742 0.023120806
0.028890984 -0.01656907 0.0038151767 -0.009290126 0.0016820759 -0.020006228 -0.013710152 0.028017014
0.038591303 0.0032744065 0.01397497 0.0038604387 -0.010713121 -0.017670909 0.0022564812 -0.030304205
0.020194294 -0.026506841 -0.033348117 -0.006530524 0.014618705 -0.05103588 0.034356005 -0.0026689533
0.0066324705 -0.051497344 -0.019398624 -0.015169176 -0.035777498 -0.031325735 -0.041006435 -0.028310297
-0.0037529212 -0.0014389125 -0.014712501 -0.024162607 -0.010820822 -0.014024634 0.0049795336 -0.005793336
0.035264816 -0.026603144 -0.035617422 0.02748085 -0.0018575311 -0.016338952 0.00016553861 0.0011840785
0.018531494 0.0134025775 0.021796118 -0.005832685 0.015585438 -0.033954117 -0.03001841 0.001350394
0.025378494 0.0042998544 0.017731098 -0.0214654 -0.0040073935 -0.035422847 0.0033891338 0.0026180577
-0.05022987 0.011735189 -0.039585102 0.0024227444 -0.017738026 -0.027171595 -0.012745894 -0.051650885
0.00038888014 -0.0017842198 -0.025521269 0.0060813413 -0.025053293 0.0016868958 0.028390018 -0.008674717
0.026581671 -0.0063324887 0.010994224 -0.027148226 0.015115741 0.012253887 0.0068432824 0.015023625
-0.046859935 -0.012408266 -0.023025263 -0.017920265 0.027656974 -0.012753057 -0.010684709 0.038890824
-0.009549132 0.0074611604 -0.021243235 -0.0034785653 0.031294063 0.036950115 -0.021848079 0.004345799
0.0009581346 0.016739793 0.013940902 -0.00041526146 -0.0056922543 -0.014245856 0.04648419 0.008221685
0.026855385 0.008383811 0.007457055 0.014483507 0.030984974 0.0055793114 0.017642219 0.016027413
0.010269529 0.0038029966 0.019204108 -0.0025509966 0.0048387074 0.017744772 0.0101476945 -0.01843937
0.012390109 0.039399885 0.033682242 0.0468231 0.005721251 -0.028547399 -0.033536054 0.0266253
-0.0003272464 0.024323933 -0.025137387 -0.0014075916 0.022894034 0.025390042 -0.0044682864 0.0037189787
0.00424331 -0.013466052 0.036302425 0.0064959936 -0.005147715 0.03191722 -0.0058670477 0.034467395
0.025654608 0.019642884 -0.01076708 0.037252504 0.036872886 -0.0046921675 -0.008768286 -1.6299608e-06
0.037689816 -0.0012875013 -0.031912606 0.015296996 -0.018745448 0.03462818 0.031425532 -0.045197435
-0.032166712 -0.04628013 -0.01732181 0.008205325 -0.0086694965 -0.02397919 -0.0068653217 -0.020428894
0.030437345 0.018008165 0.031709947 0.0027246692 0.03478409 0.022672648 0.03403149 -0.02933479
0.010546262 0.018654354 -0.006296817 -0.028505102 0.0008286538 0.00031227438 0.030172776 -0.013751344
-0.027590137 -0.040059824 -0.023875108 -0.012521525 -0.0021618349 0.012173129 -0.021693371 -0.033992752
-0.0010954895 -0.021479366 0.039875723 0.007637979 0.015780173 0.024108311 0.038365487 0.013488238
-0.011110575 0.0049244505 0.01588649 -0.029105173 -0.00018552413 -0.012056625 0.0072170096 0.013161818
0.0074153226 -0.039502617 0.02778292 -0.021421693 -0.02525523 0.046532024 -0.016725345 0.0030893842
-0.014818616 0.01938985 -0.020723647 0.00031730262 0.038207684 -0.013838472 0.010414756 -0.0015212289
0.025449596 -0.023614703 -0.003956943 0.028310254 -0.016998542 0.000554898 -0.009970464 0.013884055
-0.033945993 -0.01596532 -0.006130301 -0.009193177 -0.020244285 0.013513097 -0.018396283 0.0044729332
00000000: e569 f73c f9aa 203d ac14 2dbc 1226 833c
00000010: 0e0d 2f3d 1073 973c 0f7e 89bc d867 bd3c
00000020: c9ac ec3c dcbb 87bc 0b08 7a3b 9d35 18bc
00000030: 1a79 dc3a 1ae4 a3bc 8ca0 60bc f083 e53c
00000040: ea11 1e3d 6d97 563b 46f7 643c 6aff 7c3b
00000050: 1686 2fbc 95c2 90bc 79e1 133b 8640 f8bc
00000060: 816e a53c e024 d9bc 0998 08bd 02fe d5bb
00000070: 4b83 6f3c 000b 51bd e2b8 0c3d 9be9 2ebb
00000080: 3255 d93b e1ee 52bd dde9 9ebc 2388 78bc
00000090: 6d8b 12bd 6a4f 00bd 5df6 27bd ffea e7bc
000000a0: 92f3 75bb e499 bcba b40c 71bc a9f0 c5bc
000000b0: d149 31bc 94c7 65bc 5b2b a33b 06d6 bdbb
000000c0: d771 103d d6ee d9bc 93e3 11bd 851f e13c
000000d0: 6778 f3ba 44d9 85bc 6f94 2d39 1533 9b3a
000000e0: 5ccf 973c 7c96 5b3c c68d b23c 1c20 bfbb
000000f0: 115a 7f3c 7913 0bbd 2be9 f5bc b4ff b03a
00000100: 8fe6 cf3c cbe5 8c3b cf40 913c 35d8 afbc
00000110: 7450 83bb 8c17 11bd 3b1c 5e3b b893 2b3b
00000120: d6bd 4dbd f344 403c fd23 22bd e8c6 1e3b
00000130: 564f 91bc f796 debc 27d4 50bc e18f 53bd
00000140: 9ce2 cb39 7bdc e9ba fb11 d1bc fd45 c73b
00000150: 903c cdbc d51a dd3a 2f92 e83c 6620 0ebc
00000160: cec1 d93c c480 cfbb 1e21 343c f565 debc
00000170: 03a8 773c 87c4 483c 9d3d e03b a725 763c
00000180: 34f0 3fbd 0a4c 4bbc 7a9f bcbc 85cd 92bc
00000190: e190 e23c 33f2 50bc eb0e 2fbc fc4b 1f3d
000001a0: f673 1cbc c07c f43b 4b06 aebc a4f8 63bb
000001b0: 342e 003d 0159 173d befa b2bc 3467 8e3b
000001c0: 532b 7b3a e421 893c 6268 643c 73b7 d9b9
000001d0: 1786 babb 7367 69bc 3566 3e3d 3fb4 063c
000001e0: d3ff db3c 415c 093c 505a f43b 3b4c 6d3c
000001f0: 33d4 fd3c a8d2 b63b 6a86 903c ec4b 833c
00000200: 8741 283c b23b 793b ef51 9d3c 9f2e 27bb
00000210: 058e 9e3b 7c5d 913c 8442 263c 290e 97bc
00000220: e2ff 4a3c c661 213d 64f6 093d 94c9 3f3d
00000230: 5579 bb3b 3cdc e9bc 1a5d 09bd 4d1d da3c
00000240: 4592 abb9 fc42 c73c ecec cdbc f07e b8ba
00000250: 458c bb3c c7fe cf3c b46a 92bb 1cba 733b
00000260: 770b 8b3b b7a0 5cbc dab1 143d 58dc d43b
00000270: 2aae a8bb a2bb 023d 5d40 c0bb af2d 0d3d
00000280: 9d29 d23c 1dea a03c 6868 30bc 1596 183d
00000290: 0608 173d c1c0 99bb dba8 0fbc 07c5 dab5
000002a0: a360 1a3d 60c1 a8ba cbb6 02bd 40a0 7a3c
000002b0: 0e90 99bc 47d6 0d3d 0fb8 003d f220 39bd
000002c0: 3ec1 03bd 3c90 3dbd 78e6 8dbc a16f 063c
000002d0: 810a 0ebc 0270 c4bc 7ef6 e0bb 7f5a a7bc
000002e0: bd57 f93c dc85 933c 4ae2 013d 5d90 323b
000002f0: c379 0e3d fdbb b93c 9b64 0b3d 834f f0bc
00000300: 3bca 2c3c 04d1 983c 8855 cebb 8883 e9bc
00000310: 043a 593a c2b8 a339 e62c f73c 514d 61bc
00000320: b604 e2bc c515 24bd bb95 c3bc 1527 4dbc
00000330: 92ad 0dbb ce71 473c 4cb6 b1bc fc3b 0bbd
00000340: 8796 8fba 7ff5 afbc ba54 233d 0348 fa3b
00000350: 6c45 813c cb7e c53c 2125 1d3d c5fd 5c3c
00000360: 2109 36bc 495d a13b 6224 823c f96d eebc
00000370: 4189 42b9 2789 45bc aa7c ec3b aaa4 573c
00000380: 3cfc f23b 7fcd 21bd 0299 e33c 8c7c afbc
00000390: 0ee4 cebc 5d98 3e3d 9703 89bc 4477 4a3b
000003a0: c8c9 72bc 76d7 9e3c a3c4 a9bc a35b a639
000003b0: a97f 1c3d c2ba 62bc a7a2 2a3c f963 c7ba
000003c0: ac7b d03c 9f73 c1bc 3ea9 81bb e8ea e73c
000003d0: 8740 8bbc 9376 113a 285b 23bc f379 633c
000003e0: f40a 0bbd b4c9 82bc b1e0 c8bb fb9e 16bc
000003f0: 58d7 a5bc 0966 5d3c cdb3 96bc af91 923b

convs.1.bias f4 [32]
-0.0155952545 -0.009571593 0.03051478 0.02085957 -0.019728929 0.018161938 0.017285226 -0.042642426
0.021984255 -0.02997387 0.036847465 -0.036228877 -0.019089947 0.04303761 -0.03787986 0.01675983
-0.0008082419 0.030294668 -0.03548016 0.029103199 -0.028618308 0.021063536 -0.034819786 -0.03455146
0.04854887 -0.015826667 -0.018719463 0.023051191 0.025688736 -0.027159909 -0.015506789 0.0030560638
00000000: 3d83 7fbc 2cd2 1cbc 22fa f93c b0e1 aa3c
00000010: 909e a1bc 58c8 943c bf99 8d3c d3a9 2ebd
00000020: 5318 b43c c38b f5bc 5eed 163d bb64 14bd
00000030: 8562 9cbc 3448 303d e927 1bbd e94b 893c
00000040: 32e0 53ba 862c f83c a553 11bd d569 ee3c
00000050: f170 eabc 708d ac3c 319f 0ebd d585 0dbd
00000060: 2edb 463d eda6 81bc 8f59 99bc dad5 bc3c
00000070: 2f71 d23c 757e debc 3010 7ebc 3e48 483b

convs.2.weight f4 [32, 32, 5, 5]
-0.022557907 0.01574221 -0.024266379 -0.032838635 0.024103766 -0.019457238 0.024102831 -0.0073587564
0.02885011 0.023825612 0.019062687 -0.0067130597 -0.008561036 -0.012308208 -0.00029544916 -0.04425753
-0.006839783 -0.031935036 -0.023423038 0.003975045 0.025974143 -0.02317743 -0.018655745 0.034846667
0.017126588 -0.06778478 -0.048753772 -0.009811223 -0.06499338 -0.023323609 0.016327577 -0.043799467
0.0016428027 0.015574227 -0.04379593 0.0024443162 -0.030803142 -0.026352424 0.020728873 -0.021630729
-0.03764171 -0.01353279 -0.008119092 0.015472048 -0.029274127 0.03670408 0.035425223 0.0039620595
-0.028623063 -0.0048903814 -0.0066143055 -0.009141021 0.020057531 -0.01302927 -0.023639312 -0.02014648
0.010804994 -0.03484091 -0.025170656 -0.04220638 0.023565453 -0.008706123 -0.020049904 -0.0032644868
0.0019722185 -0.027527334 -0.00011923207 0.015560087 -0.008402698 -0.043624103 0.018350756 -0.016055835
-0.040973324 0.00582804 -0.020573243 -0.0067266165 -0.028935764 -0.018247105 -0.012817476 0.018760718
0.01218485 -0.0024311098 -0.010168569 0.020963363 -0.0002951083 0.002727233 -0.019339217 -0.04431766
0.010546567 0.0010375726 -0.007827049 0.008035284 -0.0033514476 0.005228238 -0.010431369 0.014635388
-0.007652046 -0.023820264 0.011864709 -0.035977617 0.03678683 0.04462478 0.011423418 -0.026427696
-0.023120694 -0.025022162 -0.0044847 -0.0037677377 0.0031719825 -0.0024127276 0.00898708 -0.0054028914
0.007241622 0.019355604 0.009334916 -0.03328649 0.014888301 0.0140641285 0.03371533 0.01123423
-0.03320648 -0.021428064 0.02426874 -0.016534358 -0.03244471 -0.029235769 0.0013200378 -0.025199046
-0.012043036 0.01033357 0.0064769355 0.012165896 -0.0094915405 -0.008014096 0.0013013167 0.0018908334
-0.03445934 -0.0070982906 -0.038620654 -0.039717276 0.008267942 -0.01762696 -0.01542492 0.017243603
0.006869963 0.034158945 0.021952586 0.0037359616 0.021751456 -0.043687686 0.017771656 0.016254185
-0.0119211925 -0.008316169 -0.015517909 -0.02435305 0.026499761 0.03626471 -0.028362919 0.028318407
-0.030889638 -0.007529677 -0.026342135 -0.032349646 0.024270412 -0.027027283 -0.020053657 -0.028770216
-0.00039470076 0.035695296 0.032120634 0.031547256 -0.0036338002 -0.002520193 -0.0209299 0.016287226
-0.019254874 0.020018771 0.016811917 0.014124563 -0.046050888 0.011929199 -0.008536301 0.021024982
0.042999353 -0.0016831452 -0.0075823297 -0.008905043 0.004099479 0.008425082 -0.020529952 0.0013876234
-0.009044777 -0.0021758482 0.016374303 0.009467889 -0.007051928 0.001609758 -0.02215262 -0.028689003
0.0010256468 -0.014184793 0.023282504 0.002527245 0.0009447091 -0.013278833 0.01952788 -0.026642088
0.0034242359 -0.020758169 0.030054156 -0.027970025 -0.012805105 -0.03473204 -0.01341862 0.015029186
-0.022344671 0.01174776 -0.03685327 -0.025300136 0.027544914 -0.02632909 -0.007347259 -0.011293531
0.010707083 0.010255254 -0.02404924 0.026798347 -0.001057738 -0.008160459 -0.0026736727 0.025477065
-0.012445385 0.026689434 0.015604852 -0.020270364 -0.017725741 0.02746812 -0.013738228 -0.03435173
-0.0045881635 0.014707461 0.015954202 0.03661514 -0.010631346 -0.029875567 -0.018406969 -0.015473056
0.02185266 0.020736868 -0.032251555 -0.018108703 -0.025335746 -0.014751654 -0.042399608 -0.01000051
00000000: 5ccb b8bc cff5 803c 49ca c6bc ce81 06bd
00000010: 4375 c53c c964 9fbc 4d73 c53c b921 f1bb
00000020: 1157 ec3c ee2d c33c 5a29 9c3c 3af9 dbbb
00000030: 9643 0cbc 5ea8 49bc 84e6 9ab9 6247 35bd
00000040: 4220 e0bb 50ce 02bd ace1 bfbc 1841 823b
00000050: bac7 d43c 98de bdbc efd3 98bc 61bb 0e3d
00000060: 0f4d 8c3c bfd2 8abd 09b2 47bd 40bf 20bc
00000070: 401b 85bd 2711 bfbc 69c1 853c 1267 33bd
00000080: 5053 d73a 0b2b 7f3c 5c63 33bd d230 203b
00000090: df56 fcbc 0ae1 d7bc 99cf a93c ed32 b1bc
000000a0: 322e 1abd a3b8 5dbc f105 05bc 797e 7d3c
000000b0: 4bd0 efbc 0457 163d 0a1a 113d 2ad4 813b
000000c0: ea7a eabc 7e3f a0bb d1bc d8bb 39c4 15bc
000000d0: b14f a43c b878 55bc 3ba7 c1bc 3b0a a5bc
000000e0: 6e07 313c 58b5 0ebd b132 cebc 99e0 2cbd
000000f0: 560c c13c 20a4 0ebc b23f a4bc 00f1 55bb
00000100: 5640 013b 0181 e1bc 3b0c fab8 bcef 7e3c
00000110: 78ab 09bc 30af 32bd 5354 963c 8787 83bc
00000120: a5d3 27bd 25f9 be3b 3889 a8bc f36a dcbb
00000130: b20a edbc f47a 95bc 6400 52bc 14b0 993c
00000140: f7a2 473c 4153 1fbb 129a 26bc 5cbb ab3c
00000150: c4b8 9ab9 61bb 323b 476d 9ebc 6f86 35bd
00000160: 82cb 2c3c 29ff 873a 063d 00bc 6ca6 033c
00000170: f6a3 5bbb a451 ab3b 55e8 2abc 44c9 6f3c
00000180: 04be fabb b722 c3bc 3264 423c 445d 13bd
00000190: c9ad 163d 79c8 363d 4a29 3b3c e57e d8bc
000001a0: 9c67 bdbc 47fb ccbc 64f4 92bb 26ec 76bb
000001b0: 09e1 4f3b da1e 1ebb 8c3e 133c bd0a b1bb
000001c0: 214b ed3b a58f 9e3c 7af1 183c 6a57 08bd
000001d0: 0fee 733c 3b6d 663c 1619 0a3d c70f 383c
000001e0: 8503 08bd e889 afbc 3dcf c63c 1073 87bc
000001f0: bfe4 04bd da7f efbc 1e05 ad3a 3b6e cebc
00000200: 2750 45bc 224e 293c 793c d43b 7753 473c
00000210: 6882 1bbc 8e4d 03bc f190 aa3a d7d5 f73a
00000220: 3d25 0dbd c798 e8bb b130 1ebd 95ae 22bd
00000230: 4376 073c 6a66 90bc ceb8 7cbc 7542 8d3c
00000240: 6d1d e13b 40ea 0b3d e9d5 b33c 09d7 743b
00000250: 1c30 b23c dcf1 32bd dd95 913c 7f27 853c
00000260: 1b51 43bc 8a40 08bc d43e 7ebc 0c80 c7bc
00000270: 0716 d93c 4e8a 143d 5a59 e8bc 01fc e73c
00000280: 440c fdbc 82bb f6bb 76cb d7bc 1081 04bd
00000290: bed2 c63c 5268 ddbc 9147 a4bc 84af ebbc
000002a0: d7ef ceb9 3b35 123d ed90 033d b237 013d
000002b0: 0d25 6ebb d329 25bb 2f75 abbc ca6c 853c
000002c0: 66bc 9dbc 68fe a33c 25b9 893c b66a 673c
000002d0: db9f 3cbd b072 433c d7db 0bbc 953c ac3c
000002e0: 1720 303d fb9c dcba 3175 f8bb 75e6 11bc
000002f0: ec54 863b 5b09 0a3c 6e2e a8bc eae0 b53a
00000300: 8b30 14bc ad98 0ebb 6723 863c 341f 1b3c
00000310: dc13 e7bb 84fe d23a 6979 b5bc 3305 ebbc
00000320: ff6e 863a 5667 68bc f3ba be3c 23a0 253b
00000330: 5ba6 773a 768f 59bc eff8 9f3c 8240 dabc
00000340: 2569 603b 090d aabc 2234 f63c 6521 e5bc
00000350: 81cc 51bc 2f43 0ebd c6d9 5bbc fa3c 763c
00000360: 2c0c b7bc ad79 403c 74f3 16bd 3b42 cfbc
00000370: dfa5 e13c 1bb0 d7bc 47c1 f0bb 8108 39bc
00000380: c36c 2f3c a705 283c e902 c5bc 3588 db3c
00000390: cca3 8aba 72b3 05bc c938 2fbb 47b5 d03c
000003a0: bae7 4bbc cda3 da3c 7eab 7f3c 090e a6bc
000003b0: 9335 91bc d304 e13c 4e16 61bc 66b4 0cbd
000003c0: 4e58 96bb 90f7 703c 63b2 823c c2f9 153d
000003d0: 192f 2ebc 9bbd f4bc 36ca 96bc b382 7dbc
000003e0: 5a04 b33c 5de0 a93c 351a 04bd b458 94bc
000003f0: e98c cfbc ecb0 71bc 36ab 2dbd 2ed9 23bc

convs.2.bias f4 [32]
-0.019153172 -0.0022595066 0.01843322 0.031217102 -0.040057298 -0.010929828 0.0071041356 -0.050983813
0.0066389637 -0.02332199 0.0021556106 0.017255573 -0.0024020756 -0.011745514 0.023585878 0.0013040431
0.021791708 -0.040856417 0.027039506 0.0055407705 0.041116077 -0.010421454 0.009665645 -0.0066476767
0.0077950456 0.0047752853 0.016848192 -0.022016002 0.003085606 -0.027346916 -0.022528922 -0.039027307
00000000: 1de7 9cbc 3b14 14bb 4401 973c 02bb ff3c
00000010: 1f13 24bd 0513 33bc cfc9 e83b 67d4 50bd
00000020: aa8b d93b c20d bfbc 2545 0d3b 8f5b 8d3c
00000030: 246c 1dbb 4270 40bc 2c37 c13c 6dec aa3a
00000040: 8684 b23c 0f59 27bd f481 dd3c 5a8f b53b
00000050: 5569 283d bfbe 2abc a75c 1e3c c1d4 d9bb
00000060: 956d ff3b ff79 9c3b 3805 8a3c e75a b4bc
00000070: e137 4a3b a406 e0bc 938e b8bc 19db 1fbd

convs.3.weight f4 [32, 32, 5, 5]
-0.0029522502 0.0019916804 -0.014983461 -0.005870022 0.02369851 0.030582719 -0.011566658 -0.018264316
0.037758257 0.04984564 0.0007194609 -0.001293009 0.04040965 0.011349983 -0.01880493 0.01640317
0.019052679 0.027711516 0.00041385586 0.018176628 -0.00686544 0.04722362 0.031346783 0.016605556
-0.0015352479 0.005438419 -0.0062845987 0.024158582 -0.044381484 -0.03942202 0.027000966 0.011208243
-0.0020814366 0.0024147753 -0.05070828 -0.029835932 -0.0428081 -0.040804967 0.002529888 -0.004278553
-0.01166257 0.017008761 -0.024119673 -0.013299651 -0.021146066 -0.030986082 -0.0024620688 0.014694815
0.018673494 -0.021472365 -0.010923446 0.010380068 -0.0084417015 0.01762699 -0.0039895894 0.0075654336
0.019820884 -0.017407224 -0.00511987 0.04589829 -0.007474308 0.00092689187 0.007965854 0.04331957
-0.017771456 0.03395412 -0.019548202 0.004092405 0.045732632 -0.010178909 0.03668383 -0.01674916
0.015253385 0.03343068 -0.017432231 -0.025546145 -0.0004825752 -0.010839213 -0.0005249563 -0.024549456
0.024958048 0.002667929 -0.028703338 -0.00877799 0.010305475 0.0009615216 0.0027833031 0.0048920373
0.034940492 0.016563207 0.028486032 0.03261164 -0.004047517 -0.008372793 0.024433125 0.035682883
-0.0122380275 -0.0010131547 -0.0013355827 -0.009606873 -0.02696906 -0.0013436435 0.028657058 -0.033162583
0.014946482 -0.030634817 -0.011305516 -0.009325208 0.029808631 -0.0022607557 0.015572675 0.019132419
0.002822746 -0.034562074 0.0023694744 0.035100423 -0.024497459 -0.008627159 -0.032368828 -0.015316205
0.016596174 0.02462842 0.004980889 0.007423429 0.0101675885 0.024616804 0.020535508 0.0035794734
0.026971726 0.048425406 0.012753243 0.023760596 0.004697556 -0.021713817 0.020160902 0.038427867
0.021176595 -0.012814371 -0.029816119 -0.0015899774 0.027181672 0.009724428 0.020421602 -0.026864821
0.037128836 0.023314126 0.024919089 0.025843564 -0.012438711 0.010507979 -4.0355455e-05 -0.0143215265
0.025943153 -0.0045758076 0.03545979 0.00022866046 -0.01268311 0.03873292 -0.012584384 0.046941977
-0.03186542 -0.020133816 -0.0011449046 0.03590613 -0.0033066468 -0.012049751 0.022664955 0.03218362
0.011649626 -0.005708452 0.016769083 0.028429216 0.02323848 -0.0011701552 0.018369572 0.035932954
0.014638906 0.002345506 0.039359346 0.014418203 0.026264897 -0.023096 0.0046194615 0.0034368716
0.0032449707 0.0066417977 0.034537736 0.012327823 0.022913579 -0.035694707 0.02755177 0.029816857
0.0065603335 0.030375322 -0.014080174 0.028000044 0.024453914 0.02894306 0.0039680745 -0.022803236
-0.028255703 -0.021810709 0.022355087 -0.012228667 -0.0023116954 0.037626687 0.023398113 -0.025545944
0.019802064 0.035296902 0.010907742 -2.5892161e-05 -0.0046838094 -0.022875935 -0.01866792 -0.003234388
0.036342952 0.040711984 0.044628955 0.048034873 -0.009697275 -0.0042941407 -0.020027505 -0.0017182643
0.02883355 0.0031026045 -0.02514837 -0.012259701 0.00905265 0.02333176 -0.010937642 0.020404106
0.032592494 0.00619767 0.026834514 0.028836451 -0.024561474 -0.013119139 0.0023062308 -0.023179945
0.026981056 -0.0257197 0.01353507 0.0080320295 -0.0023413189 -0.017988538 0.032858178 0.03215645
0.012045733 0.038224693 -0.0021370454 -0.018309137 0.0097627845 -0.0008074736 0.046896964 0.005231103
00000000: 8a7a 41bb da86 023b 317d 75bc 5059 c0bb
00000010: 6123 c23c 9c88 fa3c 1482 3dbc 0c9f 95bc
00000020: 67a8 1a3d f12a 4c3d 349a 3c3a 2f7a a9ba
00000030: 9784 253d 47f5 393c cc0c 9abc f15f 863c
00000040: 5d14 9c3c 4303 e33c cbfa d839 27e7 943c
00000050: 7cf7 e0bb 8e6d 413d 7c65 003d 6008 883c
00000060: 5f3a c9ba c434 b23b 09ef cdbb 38e8 c53c
00000070: 5cc9 35bd fc78 21bd 2131 dd3c c7a2 373c
00000080: b668 08bb 3541 1e3b 7cb3 4fbd 7c6a f4bc
00000090: 8c57 2fbd 1c23 27bd 7acc 253b 1b33 8cbb
000000a0: 5d14 3fbc f555 8b3c 9f96 c5bc c8e6 59bc
000000b0: 843a adbc 86d6 fdbc a95a 21bb 85c2 703c
000000c0: 28f9 983c d0e6 afbc 41f8 32bc 2911 2a3c
000000d0: 104f 0abc 7a66 903c 1abb 82bb 75e7 f73b
000000e0: 685f a23c 9899 8ebc 95c4 a7bb d8ff 3b3d
000000f0: 0aeb f4bb a9fa 723a 3783 023c dd6f 313d
00000100: 7295 91bc 7a13 0b3d 8d23 a0bc 9519 863b
00000110: 2452 3b3d 70c5 26bc c941 163d 8935 89bc
00000120: 55e9 793c 9cee 083d 0ace 8ebc 2646 d1bc
00000130: 2602 fdb9 f496 31bc 399d 09ba f11b c9bc
00000140: d274 cc3c 6cd8 2e3b 4323 ebbc 8fd1 0fbc
00000150: 4cd8 283c 9f0e 7c3a 1468 363b 624d a03b
00000160: c31d 0f3d 90af 873c 8a5b e93c c893 053d
00000170: 09a1 84bb 0a2e 09bc fa27 c83c 3728 123d
00000180: 0282 48bc d5cb 84ba b80e afba 2566 1dbc
00000190: 38ee dcbc 321d b0ba 35c2 ea3c 7dd5 07bd
000001a0: 17e2 743c def5 fabc c53a 39bc c2c8 18bc
000001b0: 3b31 f43c 3029 14bb 8824 7f3c 97bb 9c3c
000001c0: d2fd 383b f690 0dbd 2f49 1b3b 76c5 0f3d
000001d0: e5ae c8bc ed58 0dbc 2d95 04bd d2f0 7abc
000001e0: b3f4 873c 8ac1 c93c ba36 a33b 3c40 f33b
000001f0: f595 263c 2ea9 c93c 153a a83c 9995 6a3b
00000200: cff3 dc3c b859 463d faf2 503c 95a5 c23c
00000210: f5ed 993b 2de1 b1bc 7a28 a53c 8a66 1d3d
00000220: 8a7a ad3c 5ef3 51bc ef40 f4bc ca66 d0ba
00000230: 19ac de3c 3553 1f3c 344b a73c 9d13 dcbc
00000240: 6814 183d 44fd be3c 1e23 cc3c e2b5 d33c
00000250: bccb 4bbc a929 2c3c 5743 29b8 d6a4 6abc
00000260: bc86 d43c a8f0 95bb 493e 113d 93c4 6f39
00000270: d2cc 4fbc 69a6 1e3d bb2e 4ebc 3b46 403d
00000280: 5185 02bd acef a4bc a010 96ba 4e12 133d
00000290: 54b4 58bb 526c 45bc dbab b93c f9d2 033d
000002a0: 13de 3e3c f70d bbbb 515f 893c 63e4 e83c
000002b0: a05e be3c e55f 99ba c97b 963c 6f2e 133d
000002c0: 06d8 6f3c 10b7 193b 4437 213d 543a 6c3c
000002d0: 7b29 d73c d333 bdbc da5e 973b 233d 613b
000002e0: 93a9 543b 70a3 d93b 7177 0d3d a3fa 493c
000002f0: 42b5 bb3c 9d34 12bd 40b4 e13c 7b42 f43c
00000300: 11f8 d63b abd5 f83c 88b0 66bc 5960 e53c
00000310: 9353 c83c ff19 ed3c 9f06 823b dacd babc
00000320: 8178 e7bc 5fac b2bc 0422 b73c bf5a 48bc
00000330: d07f 17bb 711e 1a3d 66ad bf3c ba45 d1bc
00000340: f037 a23c 7c93 103d 63b6 323c fe32 d9b7
00000350: a47a 99bb 5066 bbbc 77ed 98bc 07f8 53bb
00000360: 59dc 143d 9cc1 263d dacc 363d 37c0 443d
00000370: 52e1 1ebc ddb5 8cbb b910 a4bc 6237 e1ba
00000380: 5634 ec3c 1155 4b3b f403 cebc eadc 48bc
00000390: 9151 143c 3f22 bf3c cc33 33bc 8326 a73c
000003a0: b57f 053d d315 cb3b 0ed4 db3c 6c3a ec3c
000003b0: 2535 c9bc a8f1 56bc 2224 173b dee3 bdbc
000003c0: 6007 dd3c 1fb2 d2bc 33c2 5d3c c698 033c
000003d0: d070 19bb b35c 93bc 4c96 063d 7bb6 033d
000003e0: 775b 453c 7f91 1c3d ac0d 0cbb 0bfd 95bc
000003f0: 16f4 1f3c a3ac 53ba 0817 403d ac69 ab3b

convs.3.bias f4 [32]
-0.01020754 -0.028959842 0.02217796 0.020812461 -0.02292175 0.016100327 0.032055512 -0.02634587
-0.001691691 0.015120043 -0.021559456 0.0109553775 0.035651416 0.012566929 -0.01523918 -0.04012671
0.033406418 -0.01730965 0.05445974 -0.030950675 -0.093874805 0.026897557 -0.044291828 0.013030964
0.009290504 0.0051128347 -0.03820264 -0.010946207 -0.022571787 -0.004453917 -0.031455547 -0.00912362
00000000: 873d 27bc 313d edbc 8eae b53c e57e aa3c
00000010: 65c6 bbbc d5e4 833c a44c 033d 4bd3 d7bc
00000020: bbbb ddba 0fba 773c 759d b0bc 2f7e 333c
00000030: 3807 123d 85e5 4d3c c1ad 79bc e85b 24bd
00000040: 2bd5 083d f8cc 8dbc 2d11 5f3d 458c fdbc
00000050: 6f41 c0bd 4458 dc3c 596b 35bd d37f 553c
00000060: 3337 183c 9189 a73b 5f7a 1cbd b857 33bc
00000070: 78e8 b8bc 2af2 91bb 88d7 00bd 3c7b 15bc

convs.4.weight f4 [32, 32, 5, 5]
-0.01717026 -0.020014832 -0.0379891 -0.008287818 -0.045824897 -0.034028765 -0.0024212343 0.019895988
-0.0145432465 -0.05385182 0.022326274 0.021887435 -0.03672952 -0.039645344 0.0019287725 -0.025090035
0.011981877 0.018854968 -0.0061073983 0.0036739458 0.023405025 0.0037863005 -0.006575872 -0.0448239
0.0033416688 -0.026532797 0.00810276 0.016801143 0.001135956 -0.008770116 -0.02542391 -0.037448656
0.014838292 -0.038727283 -0.013423883 0.017775673 0.021846304 -0.0019724793 0.005266766 -0.011201099
-0.039108045 -0.012538572 0.010175444 0.01933292 -0.029872004 0.0071623623 0.011504184 -0.030440029
-0.013543119 -0.044800002 -0.05023426 -0.09800312 -0.048226524 -0.059721954 -0.026937157 -0.060899436
-0.029415619 -0.05131052 -0.038063 -0.034993127 -0.008388629 -0.01629795 -0.013429645 -0.01857476
0.0016192555 -0.021235127 -0.029889287 -0.0270291 0.0017168089 -0.00687932 -0.04097704 -0.032602705
0.013951161 -0.0340473 -0.03526268 0.0073376712 0.03972328 0.041383743 0.0404511 0.016462877
0.03934404 0.036347587 0.0017064818 -0.0077541634 -0.004218215 0.021078518 0.027241273 0.0386145
0.012503206 -0.0033460471 0.012158034 -0.009284342 0.017543156 -0.024250466 0.00869525 0.012678957
-0.011906705 -0.048171006 -0.03658067 -0.03634052 -0.016114267 0.011752612 -0.026140453 0.0037722045
-0.0007809265 -0.004947054 -0.033027627 -0.031030266 0.023729786 -0.004213895 -0.012397551 0.036749657
0.021394942 0.034034505 0.006318835 0.024625674 0.0019801012 -0.017123029 0.015776938 0.020449897
0.03256511 -0.010658376 0.0062425775 -0.027114745 0.015834674 0.0083936425 0.014696269 0.0006124862
-0.0012232349 -0.021396222 0.016835548 -0.00492077 0.001532098 -0.042766757 -0.0035923154 -0.039613012
-0.035357073 -0.011769279 -0.0443582 -0.048821025 -0.011366213 -0.01293834 -0.051635064 -0.045137472
-0.03457793 -0.032003358 -0.034790505 -0.036973782 -0.028137498 0.020403793 0.022359958 -0.011486609
-0.013069591 -0.059692334 -0.063936524 0.0036758622 -0.03406947 -0.048809487 -0.035587125 -0.057118006
-0.011862011 -0.02267134 -0.038455624 -0.052915853 -0.0725619 0.010501387 0.022036685 0.0012847651
-0.021713927 -0.06738581 0.046109393 0.002425389 0.043106195 -0.002232228 0.018562652 -0.021881714
0.012948463 0.02087692 -0.038613517 0.025330713 -0.036803443 -0.001024744 -0.04285418 -0.037597694
-0.045158796 -0.029682864 -0.02939616 -0.029443704 -0.018048069 -0.029465873 -0.033301055 -0.024534311
-0.025232049 -0.028610555 -0.02019785 -0.062003795 -0.04515362 -0.050580062 -0.028373802 -0.017039897
-0.02424671 -0.0006276015 -0.027426312 -0.04203923 0.009040031 -0.016325643 0.018209146 -0.0004636862
-0.009270392 -0.0036273762 -0.046618745 -0.022672107 -0.006086874 -0.020506509 -0.03662402 -0.036520794
-0.038952846 -0.028528541 -0.0024087585 -0.03325427 -0.012790379 -0.018039342 0.0022468513 0.0019779124
-0.03242798 0.025499085 0.01762516 -0.013670409 0.021148939 -0.022591097 -0.015799237 0.004535079
0.012739409 0.0030819362 -0.011458198 -0.020095095 0.0039053324 -0.030055286 0.017440248 0.0013516785
-0.03913308 -0.039672434 -0.040728383 0.006375711 -0.057128232 -0.008098344 -0.028205553 -0.020744506
-0.03356562 -0.045266405 -0.037086338 -0.018253047 -0.03690084 0.00085563236 0.01087549 -0.021204146
00000000: a5a8 8cbc 25f6 a3bc 759a 1bbd a1c9 07bc
00000010: e3b2 3bbd bf61 0bbd 92ad 1ebb e9fc a23c
00000020: cc46 6ebc ba93 5cbd 97e5 b63c 474d b33c
00000030: b171 16bd 2863 22bd dece fc3a 9e89 cdbc
00000040: a24f 443c bc75 9a3c 9220 c8bb 95c6 703b
00000050: e5bb bf3c 9523 783b 6a7a d7bb 4499 37bd
00000060: e6ff 5a3b 4f5b d9bc 70c1 043c 8da2 893c
00000070: 5ce4 943a 88b0 0fbc ce45 d0bc c363 19bd
00000080: 4f1c 733c 80a0 1ebd d9ef 5bbc 4a9e 913c
00000090: 05f7 b23c b644 01bb d694 ac3b d084 37bc
000000a0: c22f 20bd 956e 4dbc e8b6 263c 1260 9e3c
000000b0: 22b6 f4bc 40b2 ea3b 0c7c 3c3c 5e5d f9bc
000000c0: f5e3 5dbc 3580 37bd 70c2 4dbd dcb5 c8bd
000000d0: 2d89 45bd 029f 74bd 50ab dcbc b071 79bd
000000e0: 06f9 f0bc fb2a 52bd f3e7 1bbd f454 0fbd
000000f0: 7670 09bc 4783 85bc 0408 5cbc 182a 98bc
00000100: 333d d43a 4af5 adbc 61da f4bc 226c ddbc
00000110: 8c06 e13a eb6b e1bb 8ad7 27bd 6a8a 05bd
00000120: 6993 643c 2f75 0bbd 9a6f 10bd d970 f03b
00000130: e1b4 223d 0082 293d 0db0 253d 28dd 863c
00000140: 3727 213d 35e1 143d 07ac df3a a316 febb
00000150: f438 8abb dbac ac3c 1729 df3c 3d2a 1e3d
00000160: 3fda 4c3c 5b49 5bbb 7e32 473c 5a1d 18bc
00000170: aab6 8f3c eaa8 c6bc 8676 0e3c 66bb 4f3c
00000180: 5714 43bc f64e 45bd 9dd5 15bd ccd9 14bd
00000190: 1102 84bc 078e 403c 8124 d6bc 1737 773b
000001a0: 17b7 4cba e61a a2bb fa47 07bd 2f33 febc
000001b0: f864 c23c b714 8abb 191f 4bbc cf86 163d
000001c0: 7244 af3c c467 0b3d 3b0e cf3b c8bb c93c
000001d0: 96c4 013b 9845 8cbc a33e 813c 8b86 a73c
000001e0: fe62 053d 78a0 2ebc 898e cc3b be1f debc
000001f0: b8b7 813c 7d85 093c 9fc8 703c 418f 203a
00000200: f454 a0ba 2147 afbc b4ea 893c 693e a1bb
00000210: aed0 c83a 322c 2fbd 0d6d 6bbb 4141 22bd
00000220: 94d2 10bd efd3 40bc f2b0 35bd 8ef8 47bd
00000230: 5a39 3abc 55fb 53bc 4a7f 53bd 12e2 38bd
00000240: 96a1 0dbd f415 03bd 7d80 0ebd d271 17bd
00000250: 9c80 e6bc db25 a73c 3b2c b73c 5432 3cbc
00000260: d621 56bc f37f 74bd 27f1 82bd bce6 703b
00000270: 6e8c 0bbd 75ec 47bd cec3 11bd 92f4 69bd
00000280: e158 42bc 3fb9 b9bc a583 1dbd 4bbe 58bd
00000290: 559b 94bd 020e 2c3c 4786 b43c 9065 a83a
000002a0: 68e1 b1bc 9201 8abd 34dd 3c3d 46f3 1e3b
000002b0: 1f90 303d 924a 12bb b410 983c 4841 b3bc
000002c0: ca25 543c 1306 ab3c 3529 1ebd 5b82 cf3c
000002d0: 35bf 16bd b450 86ba dd87 2fbd 0a00 1abd
000002e0: 6ef8 38bd 7a29 f3bc 37d0 f0bc ec33 f1bc
000002f0: 8bd9 93bc 6a62 f1bc b066 08bd 2efc c8bc
00000300: 71b3 cebc af60 eabc f675 a5bc b1f7 7dbd
00000310: 01f3 38bd 0a2d 4fbd 2d70 e8bc 4197 8bbc
00000320: 09a1 c6bc a085 24ba 25ad e0bc 5431 2cbd
00000330: a31c 143c 5bbd 85bc 592b 953c e91a f3b9
00000340: d8e2 17bc 46b9 6dbb 4cf3 3ebd dbba b9bc
00000350: 6674 c7bb 44fd a7bc 1203 16bd d496 15bd
00000360: 058d 1fbd b0b4 e9bc 43dc 1dbb a135 08bd
00000370: bd8e 51bc 3ec7 93bc e93f 133b dd9f 013b
00000380: 34d3 04bd 75e3 d03c a462 903c daf9 5fbc
00000390: 8a40 ad3c f710 b9bc 676d 81bc 009b 943b
000003a0: f4b8 503c 4ffa 493b 2abb 3bbc 789e a4bc
000003b0: 9bf0 7f3b 8136 f6bc dade 8e3c ce2a b13a
000003c0: 024a 20bd 907f 22bd ced2 26bd 57eb d03b
000003d0: 4bff 69bd ebae 04bc 550f e7bc 62f0 a9bc
000003e0: 1b7c 09bd 4469 39bd d8e7 17bd 6a87 95bc
000003f0: 5625 17bd 844c 603a 1c2f 323c 51b4 adbc

convs.4.bias f4 [32]
-0.025216546 -0.0008090816 0.02913178 -0.025757968 0.019989546 0.026677271 0.0021619322 -0.011382168
0.0064459397 -0.02945293 -0.01818627 0.01635924 0.019367322 -0.018547723 -0.009274164 0.004297416
-0.008013332 0.013110806 -0.00607204 0.01212521 -0.021427752 -0.016240058 0.020713188 0.006091943
-0.02247554 -0.04002805 0.007339679 -0.04738034 -0.015477861 -0.0054363892 -0.036016844 -0.008315568
00000000: ee92 cebc 8c18 54ba c5a5 ee3c 6002 d3bc
00000010: 1ec1 a33c 4b8a da3c 34af 0d3b 467c 3abc
00000020: 7638 d33b 4547 f1bc 5ffb 94bc d003 863c
00000030: 38a8 9e3c 65f1 97bc aaf2 17bc 57d1 8c3b
00000040: 5a4a 03bc b5ce 563c f7f7 c6bb d1a8 463c
00000050: 4189 afbc df09 85bc b4ae a93c ec9e c73b
00000060: a01e b8bc 74f4 23bd b181 f03b e311 42bd
00000070: db96 7dbc bd23 b2bb 6686 13bd 053e 08bc

convs.5.weight f4 [1, 32, 5, 5]
0.016031574 -0.0036563168 -0.017102625 -0.024420213 -0.01660581 -0.01669235 0.0066252416 -0.017603789
0.0007976693 0.0088470355 -0.0202716 0.03431044 0.0005864527 0.0075357845 0.0010277359 -0.03946688
0.013037902 -0.009976679 0.009633355 0.006372029 -0.0048635285 -0.030065881 0.00048095066 -0.010495129
0.0062936624 0.024761371 -0.011493054 0.028517742 -0.0018092585 -0.018643321 -0.009378967 0.008737817
0.04856915 0.03982821 0.021774162 0.016507586 -0.008940244 0.010790901 0.039732255 0.0040377486
0.02716362 0.02291699 0.026080698 0.03231334 0.03706182 -0.0063227993 0.010891624 0.034244712
-0.0060553527 -0.012657061 0.015284914 0.0064946157 -0.045423217 -0.015489763 -0.04021011 -0.0009108325
-0.006104299 -0.03913395 -0.050681863 -0.053172264 0.0034820994 0.013667267 0.012132392 0.011923782
0.010549159 0.029985502 0.025333455 0.021503266 -0.0060543404 -0.04722342 -0.0399311 0.012743711
-0.026418425 -0.023393469 0.0019441134 0.029186295 0.00031037335 0.006905454 -0.008955839 -0.003242054
-0.0004492004 -0.0060178046 0.015508356 -0.021762934 -0.022628017 -0.01090997 -0.03369948 -0.0025369686
-0.012825273 0.016492404 -0.031031266 -0.036190394 -0.04474322 -0.032733038 -0.0037072047 -0.03110064
0.012634298 -0.013200632 -0.022056278 -0.00925229 -0.0100969095 0.012678023 -0.014037588 -0.034758568
-0.033719584 -0.013432866 -0.021187808 -0.010003755 0.012100992 -0.045642074 -0.011169928 -0.018032739
0.00079075526 -0.0313174 -0.042826746 -0.039638653 -0.034487676 -0.02248489 -0.017069798 -0.02382751
-0.035027325 -0.010322557 -0.004283305 -0.00622098 -0.036402788 -0.02168169 -0.042488404 0.021681616
-0.005393951 -0.030807829 -0.032397904 0.020856343 0.004604645 0.0074332366 -0.0076383967 -0.035754774
-0.027306689 -0.045269605 -0.038129903 0.023492234 -0.03379937 -0.008923225 -0.04003698 -0.041119836
-0.029502185 -0.039593916 -0.046466798 0.013110758 -0.017291093 -0.007000324 -0.020477714 0.04023394
-0.0014528143 -0.0040778285 0.02822877 -0.017950874 -0.0048267087 -0.011438018 -0.0032680603 -0.02779066
0.034859523 0.0044579715 0.025893614 0.0069805393 0.001745316 -0.018768594 -0.0145685915 0.027414255
0.012008076 -0.00033831625 0.010438257 0.002363494 -0.0065701087 -0.02752477 -0.02108925 0.008864135
-0.038968246 -0.039359804 -0.04030295 0.015752103 -0.023933284 0.01762305 0.024430227 -0.009891977
0.0019994488 0.015822437 0.009374034 -0.010556206 -0.023438664 -0.03795012 0.01892208 -0.040467955
-0.017392041 -0.019467851 0.007626061 -0.050323486 -0.0025330442 -0.027643384 -0.00499722 -0.0041374965
0.004038094 0.014703206 0.015931293 0.021383274 -0.028536383 -0.024171669 -0.0047383383 -0.037290633
-0.026988039 -0.038480796 0.026123343 -0.017714994 -0.00261993 -0.00398414 -0.0036108424 0.019190414
0.022247987 -0.024494465 -0.031496808 -0.018767675 -0.058244426 -0.02512705 -0.037389625 -0.0112817865
0.0025419309 -0.013747693 -0.008937694 -0.04519536 -0.022026533 -0.00212498 -0.030721132 0.015988458
0.009929019 0.0042778202 -0.047509115 -0.042400643 0.004167168 -0.0332822 -0.029624961 -0.013115617
0.0033257701 0.026176993 -0.02186005 0.014488009 -0.013941264 0.015098078 0.025470687 -0.03310353
-0.039271276 0.0012902117 -0.011056895 0.008031596 0.016239362 -0.015217766 -0.03555146 -0.005687302
00000000: a654 833c d19e 6fbb ce1a 8cbc e60c c8bc
00000010: e808 88bc 65be 88bc 8e18 d93b d235 90bc
00000020: ae1a 513a 28f3 103c a010 a6bc 1b89 0c3d
00000030: 2dbc 193a beee f63b 18b5 863a 06a8 21bd
00000040: ed9c 553c 3a75 23bc 38d5 1d3c 74cc d03b
00000050: 3c5e 9fbb b94c f6bc 1b28 fc39 c3f3 2bbc
00000060: 113b ce3b 5cd8 ca3c 5d4d 3cbc 0a9e e93c
00000070: a424 edba e1b9 98bc 3daa 19bc 1029 0f3c
00000080: 72f0 463d e822 233d ba5f b23c eb3a 873c
00000090: 1a7a 12bc 52cc 303c 4abe 223d 174f 843b
000000a0: 3d86 de3c 69bc bb3c 30a7 d53c fe5a 043d
000000b0: 23ce 173d 7c2f cfbb c872 323c 2f44 0c3d
000000c0: fb6b c6bb 905f 4fbc 936d 7a3c c9d0 d43b
000000d0: b20d 3abd c6c8 7dbc 5bb3 24bd efc4 6eba
000000e0: 9206 c8bb ec4a 20bd c997 4fbd 29cb 59bd
000000f0: ef33 643b acec 5f3c f1c6 463c f75b 433c
00000100: 61d6 2c3c 28a4 f53c 1b88 cf3c 9e27 b03c
00000110: 7d63 c6bb 586d 41bd cb8e 23bd ffca 503c
00000120: 746b d8bc a9a3 bfbc 9fd1 fe3a 1918 ef3c
00000130: 9bb9 a239 2647 e23b 83bb 12bc a478 54bb
00000140: a882 ebb9 0131 c5bb c216 7e3c 2e48 b2bc
00000150: 645e b9bc bbbf 32bc 7708 0abd 4543 26bb
00000160: 1821 52bc 141b 873c 4835 febc 613c 14bd
00000170: ab44 37bd 1413 06bd 93f4 72bb c5c6 febc
00000180: 1600 4f3c 7747 58bc 5eaf b4bc eb96 17bc
00000190: 826d 25bc 7cb7 4f3c e9fd 65bc 005f 0ebd
000001a0: 8c1d 0abd 8615 5cbc 0e92 adbc cae6 23bc
000001b0: 3d43 463c 2ff3 3abd 1302 37bc 65b9 93bc
000001c0: b04a 4f3a ad46 00bd 196b 2fbd 245c 22bd
000001d0: f342 0dbd 3b32 b8bc f6d5 8bbc e931 c3bc
000001e0: d078 0fbd f11f 29bc f75a 8cbb 5dd9 cbbb
000001f0: 171b 15bd cd9d b1bc 5208 2ebd a59d b13c
00000200: bebf b0bb b360 fcbc aab3 04bd ecda aa3c
00000210: 90e2 963b 8292 f33b 844b fabb 9973 12bd
00000220: 47b2 dfbc 9f6c 39bd 1a2e 1cbd c972 c03c
00000230: 3571 0abd b832 12bc d1fd 23bd 466d 28bd
00000240: 91ae f1bc 3b2d 22bd f853 3ebd 81ce 563c
00000250: 0da6 8dbc f962 e5bb e1c0 a7bc 58cc 243d
00000260: 5c6c beba 4e9f 85bb 0540 e73c b60d 93bc
00000270: 5e29 9ebb 8666 3bbc f42c 56bb 3da9 e3bc
00000280: dcc8 0e3d 2d14 923b d81e d43c 02bd e43b
00000290: 16c3 e43a 98c0 99bc 1ab1 6ebc dc93 e03c
000002a0: 85bd 443c 0a60 b1b9 3905 2b3c d9e4 1a3b
000002b0: 114a d7bb a07b e1bc 5dc3 acbc e03a 113c
000002c0: 2b9d 1fbd bf37 21bd b514 25bd 8e0a 813c
000002d0: bc0f c4bc 375e 903c e621 c83c f511 22bc
000002e0: 2f09 033b 0e9e 813c 8c95 193c f0f3 2cbc
000002f0: 7102 c0bc 9671 1bbd 7a02 9b3c bac1 25bd
00000300: c179 8ebc 0b7b 9fbc 09e4 f93b 0020 4ebd
00000310: 6e01 26bb 6174 e2bc b8bf a3bb d693 87bb
00000320: fd51 843b b7e5 703c 5882 823c fa2b af3c
00000330: 22c5 e9bc aa03 c6bc 1044 9bbb 10be 18bd
00000340: 0516 ddbc 0a9e 1dbd 9f00 d63c 091f 91bc
00000350: 22b3 2bbb 648d 82bb e2a3 6cbb 3735 9d3c
00000360: 6941 b63c 9ea8 c8bc cc02 01bd abbe 99bc
00000370: b591 6ebd 3ed7 cdbc dd25 19bd 3ed7 38bc
00000380: 8696 263b 013e 61bc 686f 12bc c51e 39bd
00000390: fd70 b4bc 4043 0bbb e2aa fbbc 3afa 823c
000003a0: 53ad 223c f52c 8c3b eb98 42bd 4cac 2dbd
000003b0: bd8c 883b eb52 08bd 0cb0 f2bc e3e2 56bc
000003c0: 2af5 593b 2271 d63c d913 b3bc 1d5f 6d3c
000003d0: e669 64bc ee5d 773c e7a7 d03c 9197 07bd
000003e0: ebda 20bd 521c a93a fb27 35bc f596 033c
000003f0: 6908 853c f053 79bc 689e 11bd 8c5c babb
