cases/test/snaps_128_32_96_uflux6/PlumePLRNN_2024-05-31_13-18-39.pt (torch, 464522 bytes, 13 tensors)

convW f4 [1, 1, 32, 128]
000000 11 85 5f 3f 77 24 58 3f bc 88 58 3f f3 9e 57 3f
       0.8731242 0.8443064 0.8458364 0.8422691
000010 46 46 56 3f 89 ba 57 3f d6 68 5c 3f 9e 19 61 3f
       0.8370098 0.84269005 0.86097467 0.87929714
000020 8f 5a 61 3f ce a9 61 3f 53 ad 61 3f fa bc 61 3f
       0.88028806 0.88149726 0.88155097 0.8817898
000030 d8 bb 61 3f eb f8 61 3f c7 26 62 3f b1 63 62 3f
       0.8817725 0.88270444 0.8834042 0.88433367
000040 b5 7c 62 3f 41 ce 62 3f 03 09 63 3f 0e 12 63 3f
       0.8847154 0.8859597 0.88685626 0.88699424
000050 81 04 63 3f 15 09 63 3f 2a a6 62 3f 97 96 62 3f
       0.8867875 0.88685733 0.88534796 0.8851103
000060 a0 9e 62 3f 41 87 62 3f 52 38 62 3f 68 29 62 3f
       0.8852329 0.8848763 0.8836719 0.8834443
000070 b3 20 62 3f 94 2b 62 3f e9 25 62 3f b2 3e 62 3f
       0.88331145 0.88347745 0.88339096 0.88376915
000080 86 25 62 3f b4 fb 61 3f e0 1e 62 3f 24 fb 61 3f
       0.88338506 0.88274693 0.8832836 0.88273835
000090 f9 e6 61 3f 0d d1 61 3f 51 ea 61 3f 1e 09 62 3f
       0.8824306 0.8820961 0.88248163 0.8829516
0000a0 47 f5 61 3f 2a f7 61 3f d6 08 62 3f 61 18 62 3f
       0.8826489 0.8826777 0.8829473 0.8831845
0000b0 31 1c 62 3f a3 22 62 3f 08 30 62 3f 8b 08 62 3f
       0.88324267 0.883341 0.8835454 0.88294286
0000c0 cc f8 61 3f c2 ef 61 3f ee e5 61 3f c1 e4 61 3f
       0.8827026 0.88256466 0.8824147 0.88239676
0000d0 46 ef 61 3f 5b ff 61 3f 8e 0c 62 3f b0 0a 62 3f
       0.8825573 0.88280267 0.88300407 0.8829756
0000e0 81 0e 62 3f 4e ee 61 3f 75 bc 61 3f e3 7d 61 3f
       0.8830338 0.8825425 0.8817819 0.8808271
0000f0 eb 33 61 3f 54 3e 61 3f dd 61 61 3f 28 64 61 3f
       0.87969846 0.8798573 0.8803995 0.8804345
000100 c1 66 61 3f 93 84 61 3f 69 90 61 3f e3 65 61 3f
       0.88047415 0.8809292 0.8811098 0.8804609
000110 73 4e 61 3f dd 4a 61 3f aa 32 61 3f b0 1e 61 3f
       0.8801033 0.8800486 0.8796793 0.8793745
000120 a3 0b 61 3f 48 fe 60 3f 1d ec 60 3f 3e fe 60 3f
       0.8790838 0.87888 0.8786028 0.8788794
000130 c2 20 61 3f 34 4c 61 3f 59 3d 61 3f a8 40 61 3f
       0.8794061 0.880069 0.87984234 0.8798928
000140 2b 42 61 3f e9 41 61 3f 35 38 61 3f 23 44 61 3f
       0.8799159 0.87991196 0.8797639 0.87994593
000150 65 46 61 3f fa 35 61 3f d8 38 61 3f 50 50 61 3f
       0.8799804 0.87972987 0.8797736 0.8801317
000160 c6 2b 61 3f 33 31 61 3f 97 46 61 3f 61 49 61 3f
       0.8795742 0.879657 0.87998337 0.8800259
000170 9c 0a 61 3f c6 f6 60 3f c8 2d 61 3f d8 6c 61 3f
       0.87906814 0.87876546 0.8796048 0.8805671
000180 2e 6d 61 3f ce 6e 61 3f 0b 6c 61 3f 6c 80 61 3f
       0.8805722 0.880597 0.88055485 0.8808658
000190 c8 81 61 3f 29 77 61 3f ef 52 61 3f 0d 56 61 3f
       0.88088655 0.8807245 0.8801717 0.8802193
0001a0 52 42 61 3f 55 4a 61 3f 27 18 61 3f 6e 08 61 3f
       0.8799182 0.88004047 0.8792748 0.8790349
0001b0 28 cb 60 3f 0c d2 60 3f 4c c7 60 3f d8 a6 60 3f
       0.8780999 0.87820506 0.878041 0.87754583
0001c0 70 81 60 3f cb 8e 60 3f e6 c6 60 3f a0 c7 60 3f
       0.87697506 0.87717885 0.87803495 0.87804604
0001d0 de c8 60 3f d0 9c 60 3f f4 8c 60 3f a2 52 60 3f
       0.878065 0.87739277 0.8771508 0.8762609
0001e0 ea 13 60 3f d0 ee 5f 3f 2e 31 60 3f 9c 4d 60 3f
       0.87530386 0.87473774 0.8757504 0.8761842
0001f0 d1 78 60 3f b0 6f 60 3f e6 80 60 3f 2e 96 64 3f
       0.8768435 0.8767042 0.87696683 0.89291656
000200 2f 80 5c 3f 18 40 5b 3f c2 5c 42 3f 51 67 0e 3f
       0.8613309 0.85644674 0.7592279 0.556264
000210 40 b6 07 3f 16 82 17 3f e2 bc 3c 3f 27 04 59 3f
       0.53012466 0.5918287 0.7372571 0.8477196
000220 06 44 60 3f a4 4a 61 3f cd a0 61 3f 73 f4 61 3f
       0.87603796 0.8800452 0.8813599 0.88263625
000230 3b 46 62 3f be b5 62 3f 88 02 63 3f 9d 0e 63 3f
       0.88388413 0.88558567 0.8867574 0.88694173
000240 0b 6e 63 3f ab 52 63 3f f2 97 63 3f bb b9 63 3f
       0.8883979 0.88798016 0.88903725 0.8895528
000250 48 f5 63 3f 00 04 64 3f 2f d4 63 3f f8 95 63 3f
       0.89046144 0.89068604 0.8899564 0.8890071
000260 ef 21 63 3f af c2 62 3f 5c 74 62 3f c4 85 62 3f
       0.88723654 0.88578314 0.884588 0.8848536
000270 fd 8c 62 3f 1e c1 62 3f ad e0 62 3f ee 26 63 3f
       0.8849638 0.88575923 0.8862408 0.88731277
000280 d6 e4 62 3f a7 d2 62 3f 64 76 62 3f d5 5e 62 3f
       0.88630426 0.8860268 0.884619 0.8842595
000290 72 18 62 3f 41 64 62 3f 01 7c 62 3f ca ce 62 3f
       0.8831855 0.88434225 0.88470465 0.88596785
0002a0 02 2e 63 3f be ee 62 3f 8a 01 63 3f 6f 2e 63 3f
       0.8874208 0.8864554 0.88674223 0.8874273
0002b0 b9 36 63 3f ad 34 63 3f ae 49 63 3f 20 36 63 3f
       0.88755375 0.8875225 0.887843 0.88754463
0002c0 2b fc 62 3f 2f f7 62 3f c8 f3 62 3f f7 24 63 3f
       0.8866603 0.8865842 0.8865323 0.8872828
0002d0 c4 f4 62 3f ff 09 63 3f 00 00 63 3f e3 e2 62 3f
       0.8865473 0.8868713 0.88671875 0.8862745
0002e0 0c a8 62 3f 0d 54 62 3f 8a 0e 62 3f 5d bf 61 3f
       0.8853767 0.884095 0.88303435 0.8818262
0002f0 ac 79 61 3f ef 81 61 3f 88 90 61 3f f3 ee 61 3f
       0.8807628 0.8808889 0.8811116 0.8825523
000300 a5 eb 61 3f b3 1e 62 3f 80 fc 61 3f 4d e9 61 3f
       0.8825019 0.88328093 0.8827591 0.88246614
000310 8a e0 61 3f b7 a1 61 3f aa 8c 61 3f 99 43 61 3f
       0.88233244 0.8813738 0.8810526 0.8799377
000320 c6 14 61 3f d7 00 61 3f 9f 1d 61 3f 12 1b 61 3f
       0.8792232 0.87891906 0.87935823 0.8793193
000330 8b 2f 61 3f b4 6b 61 3f 78 65 61 3f bd 5e 61 3f
       0.8796317 0.88054967 0.88045454 0.88035184
000340 69 64 61 3f 7e 52 61 3f 58 9e 61 3f 06 40 61 3f
       0.8804384 0.880165 0.8813224 0.87988317
000350 61 43 61 3f df b7 60 3f ef b5 60 3f 18 83 60 3f
       0.8799344 0.87780565 0.8777761 0.87700033
000360 2d 76 60 3f 57 b2 60 3f ff e2 60 3f bd d9 60 3f
       0.8768032 0.87772125 0.8784637 0.8783224
000370 1d f0 60 3f 9d 04 61 3f 5a 1d 61 3f ec 46 61 3f
       0.87866384 0.87897664 0.8793541 0.87998843
000380 bb 76 61 3f 92 89 61 3f 48 5b 61 3f e1 31 61 3f
       0.88071793 0.8810054 0.8802991 0.87966734
000390 94 0a 61 3f 69 39 61 3f 5e 0a 61 3f 40 37 61 3f
       0.87906766 0.87978226 0.87906444 0.8797493
0003a0 fe 10 61 3f 89 fb 60 3f 11 da 60 3f fe bd 60 3f
       0.87916553 0.8788381 0.8783274 0.87789905
0003b0 ba 67 60 3f 38 18 60 3f 32 02 60 3f 2a 13 60 3f
       0.87658274 0.87536955 0.8750335 0.8752924
0003c0 de e5 5f 3f 11 e4 5f 3f e0 db 5f 3f b3 fe 5f 3f
       0.87460124 0.87457377 0.8744488 0.87498015
0003d0 35 06 60 3f 1e b9 5f 3f 7b 92 5f 3f 57 3f 5f 3f
       0.8750947 0.8739184 0.87332886 0.87206024
0003e0 49 c7 5e 3f 75 23 5e 3f 5b 3b 5e 3f 07 3c 5e 3f
       0.87022835 0.86772853 0.8680932 0.86810344
0003f0 8e 74 5f 3f ea 6f 61 3f 0b 6d 5f 3f cd c1 60 3f
       0.87287223 0.8806139 0.8727576 0.87795717

convs.0.weight f4 [32, 4, 5, 5]
000000 69 f5 d8 bc 97 8e 8d bd f1 62 a9 bc 5a 46 ae bc
       -0.026484208 -0.069119625 -0.020677062 -0.02127378
000010 7a 11 37 3d 57 39 33 3d de 9f 51 bd 71 ea 40 3d
       0.0446944 0.043755855 -0.05117785 0.04709858
000020 61 dd 8b 3c 4f 37 4c bd dd b2 8d 3d 2b 86 a8 bd
       0.017073335 -0.049857434 0.06918881 -0.082287155
000030 e9 13 74 3d 72 8d 32 bc b5 c8 a2 3d b3 ff a3 bb
       0.0595893 -0.010897981 0.07948438 -0.005004847
000040 8a 42 34 3a 6b 18 75 3b 0b 83 d3 bd 20 06 50 3d
       0.000687637 0.0037398587 -0.10327729 0.05078709
000050 04 a0 15 bd ea d5 d8 3c e9 42 d3 b9 6c a2 18 bb
       -0.036529556 0.02646919 -0.00040294908 -0.002329017
000060 4b 33 24 3c 1c 47 bc bc 1f f0 4c 3d aa 1e 1a 3c
       0.010021995 -0.022983126 0.050033685 0.009406725
000070 20 ac a3 bc de 49 93 3b ae f4 3b bd 1e 62 b3 bc
       -0.019979537 0.0044948896 -0.04588764 -0.021897372
000080 a1 55 04 3d 30 ab 5c bc 8b bd 0d bd 0d 30 8a bd
       0.032308225 -0.013468549 -0.03460459 -0.06747446
000090 98 5d 26 bd 38 e5 55 3d 70 88 0b bd 77 0e 0c 3d
       -0.0406166 0.052220553 -0.034065664 0.034193482
0000a0 f4 b3 16 3c 6a 39 1b 3d d3 5f 84 3d 94 a9 4a bd
       0.009198178 0.03789655 0.064635895 -0.04947813
0000b0 99 e2 4c 39 95 2b d8 3c 4c 33 c5 3c 27 44 a9 3c
       0.0001953937 0.026387969 0.024072312 0.02066238
0000c0 76 f3 e6 bd 8f ca a4 3d 09 be e3 bc 5f 98 e0 3c
       -0.11276905 0.080464475 -0.027800577 0.027416406
0000d0 8a 2e b6 3c 68 e7 d8 3c 63 38 89 3c 49 43 46 3d
       0.022238988 0.02647753 0.01675052 0.048404012
0000e0 1b 55 55 bd b8 1e d6 bb d7 20 1e bd 40 f1 8b 3d
       -0.052083116 -0.0065344237 -0.038605537 0.06833124
0000f0 4a 03 a5 bd d2 4f 0a 3d 69 16 67 bd de c1 ec bc
       -0.08057268 0.03376753 -0.056417856 -0.028901037
000100 56 53 69 3d ee b1 f2 3c d8 2d 43 3d bb 77 4d bd
       0.05696424 0.02962586 0.047651142 -0.050163012
000110 28 9f 98 3d 83 42 b4 3c 1b 1b 5c 3d 01 23 60 bd
       0.07452232 0.022004372 0.053736787 -0.054720882
000120 38 46 91 bd 6a e1 f3 3c f1 b0 17 bc b5 55 2f 3c
       -0.07093471 0.029770572 -0.009258495 0.0107015865
000130 9d 35 ef bc ea dd 8c 3c 1f 55 89 3d d8 28 88 bd
       -0.02920037 0.01719566 0.06705689 -0.06648415
000140 58 0f 9d 3d b4 1d 8a 3d 5d 6f c0 3d 39 bd f3 bc
       0.07668942 0.06743947 0.09396241 -0.029753314
000150 15 de be bd 4f 34 82 bd f1 53 83 3d 96 1c 7e bd
       -0.093197025 -0.06357633 0.06412495 -0.06203898
000160 53 f0 7d bd 10 d5 9e bd f1 f0 34 3d eb cf 6d bd
       -0.06199677 -0.07755482 0.044175092 -0.058059614
000170 35 b9 a1 3d 02 d8 92 3c c0 b7 6a 3d 4d 43 97 3d
       0.078966536 0.017925266 0.057304144 0.073858835
000180 64 4f a8 3d b3 45 75 3d 8b ef db 3d 3b cf 4a 3d
       0.082182676 0.059880923 0.107390486 0.049514037
000190 3f df b0 3c db ea 38 3d 3e 6d 42 bd c7 3b 56 3d
       0.021590827 0.04514585 -0.047467463 0.052303102
0001a0 a9 7a a8 bc a6 63 cd 3c 58 2c cd bd ab 08 a1 3d
       -0.020566301 0.02507193 -0.100182235 0.078629814
0001b0 ab 25 29 bd 2e 12 44 bd b9 97 0d 3c ba 01 16 3d
       -0.04129569 -0.0478689 0.0086421305 0.03662274
0001c0 d3 89 62 3d 32 85 63 bd 5a f1 64 bd 56 9e 4e bd
       0.05530722 -0.055546947 -0.055894233 -0.05044397
0001d0 fd 4f 92 3d 64 a6 e4 bd a3 68 70 3d a2 41 52 3d
       0.07144163 -0.11164549 0.05869354 0.051332124
0001e0 be 26 0b bd b2 99 c5 3d 16 cd c0 bc f1 e9 35 3d
       -0.033972494 0.09648456 -0.023535293 0.044412557
0001f0 d3 a7 92 3c 2c 77 34 bd c8 f9 f0 bc 69 5e df bc
       0.01790229 -0.044058964 -0.02941598 -0.027266698
000200 ee 51 04 3d 82 98 08 bc 38 f5 0c 3c ab 38 a7 3d
       0.032304697 -0.008337142 0.008603387 0.081651054
000210 b1 5c 24 3c 47 ab 2f 3c 68 da 86 bd f4 ec a0 3c
       0.010031865 0.010721988 -0.065846264 0.019644238
000220 82 e5 94 3d 40 e2 3e bd b4 67 85 3d 68 76 6a 3d
       0.07270338 -0.046602488 0.065139204 0.057241827
000230 c4 bb 5c bd 99 6b 6d bd a7 ce a9 bc 54 4a 4a bd
       -0.053890005 -0.05796394 -0.020728422 -0.04938729
000240 84 2e bd bd 08 56 06 3d 1e 92 63 3d 58 18 8f 3d
       -0.09237388 0.03279689 0.05555927 0.06987065
000250 6c 41 da 3b 81 d3 67 3d 2f 04 8c 3c 88 28 27 bd
       0.006660631 0.05659819 0.017091839 -0.040810138
000260 85 9d bd bc 3e 2f 68 3c fb 14 9f bd 5e 06 52 3d
       -0.0231464 0.01417142 -0.077676736 0.051275603
000270 2b 09 46 3d c1 6c ba 3c 04 23 53 bd f9 9c 35 bd
       0.048348587 0.022756936 -0.051547065 -0.044339154
000280 f7 2e c2 bb 3f 57 35 bd 31 ea 4f bd 00 41 98 3d
       -0.005926009 -0.044272657 -0.05076045 0.07434273
000290 75 0d 37 3d d2 dd 31 bd d7 5b 57 3d 97 1e 16 3d
       0.044690568 -0.043424435 0.05257782 0.036650266
0002a0 24 e9 a4 bd f2 cb 0f bc e9 9a 5c 3c 20 d4 33 3d
       -0.080522805 -0.008776652 0.013464668 0.04390347
0002b0 7e 30 2a bd 20 63 8c bd b1 00 86 bc b7 22 48 bd
       -0.041550152 -0.06854844 -0.016357752 -0.04886123
0002c0 16 e5 cc bd f8 ad 92 3d fa 53 0a 3e 87 29 bc 3c
       -0.10004632 0.07162088 0.13508597 0.02296902
0002d0 11 89 17 be ed 6e c0 bd 06 24 b7 3c ee 7d 63 bd
       -0.1479838 -0.093961574 0.022356045 -0.055540018
0002e0 47 87 c0 3d 6f 87 ea bc 3a 41 c8 3b a2 17 b2 bc
       0.09400802 -0.028629033 0.0061112912 -0.021739785
0002f0 b2 62 5f bd c3 c8 84 3d 1b 0f cf 3d fb 9b 24 3c
       -0.054537483 0.06483605 0.10110303 0.010046954
000300 27 00 14 3d 6b 84 bd bc 6b ee 8f bc 09 f1 53 bd
       0.036132958 -0.02313443 -0.017569741 -0.05174354
000310 6e b6 71 3d c0 a7 74 3d d1 ec a2 3d 78 1b 02 bd
       0.05901187 0.05973029 0.079553254 -0.031764477
000320 de 31 a3 bd 09 1b 41 3c f8 7b 93 3d 78 34 0f 3d
       -0.07968496 0.011786231 0.072013795 0.034962147
000330 ed 0d 5b bd 54 51 84 bd f1 c6 c8 3b d2 87 6d bc
       -0.053480078 -0.064608246 0.0061272313 -0.014497714
000340 31 67 a0 bc c9 0a bd bd 61 ad 6c 3d 3a 78 a1 3c
       -0.019580455 -0.09230573 0.057782535 0.019710649
000350 0a ca 27 bd 31 82 9a bd 24 33 bb 3d 2e 16 9f 3d
       -0.040964164 -0.07544363 0.09140614 0.07767902
000360 20 73 94 3b 66 ed be 3c 45 7f 80 bd 10 ba ee 3d
       0.0045303255 0.02330656 -0.06274275 0.11656582
000370 c2 d1 0f bc c2 77 05 bc f4 20 1b 3d 66 1c 46 bd
       -0.0087780375 -0.008146228 0.037873223 -0.048366927
000380 1d 65 9d 3a 2b 95 8a bc 05 05 9d bd 41 5e 69 bd
       0.0012008284 -0.016916832 -0.07666973 -0.056974653
000390 9f 6b df bc 11 1d 7d 3d f7 f2 7e 3d 4d b6 0d 3d
       -0.027272997 0.061795298 0.062243428 0.034597684
0003a0 d5 97 86 3d db 91 b2 bc e2 89 63 3d 5a 15 5e bd
       0.065719284 -0.021798065 0.055551417 -0.05421958
0003b0 51 17 9a b9 26 c3 10 bd 58 f7 03 bc 2f 60 72 3d
       -0.0002939054 -0.035342358 -0.008054577 0.05917376
0003c0 8b 4b 40 bd 91 88 e5 3d a3 37 45 bd 98 d6 17 3d
       -0.046947043 0.112076886 -0.048148762 0.037069887
0003d0 00 c7 87 bd 03 f1 7d bd 55 95 30 3d ba bd 27 3d
       -0.06629753 -0.061997425 0.043111164 0.04095242
0003e0 15 1a ae bd b2 25 94 3b 28 c8 91 3d d5 d4 5b 3c
       -0.085010685 0.004521095 0.07118255 0.013417442
0003f0 17 6d a7 bd 60 5b 2d bd 79 a2 91 3d ca c7 d8 bd
       -0.08175104 -0.04232347 0.07111067 -0.10584982

convs.0.bias f4 [32]
000000 f2 c1 19 3e 32 c5 90 3c 50 d1 cf bd ad 61 9c bc
       0.1501539 0.017672155 -0.10147345 -0.019089544
000010 f9 37 c5 bd 47 2d 86 3b 00 c5 30 3a 31 80 32 bd
       -0.096298166 0.004094753 0.00067432225 -0.043579284
000020 79 a2 6c bc 86 6f 00 3e 00 43 94 3d 1f 60 fa bc
       -0.014443033 0.12542543 0.07239342 -0.030563412
000030 c4 0b ba 3d 58 86 90 bd 99 e9 b5 bd c2 61 fc bc
       0.09084275 -0.07056874 -0.08882446 -0.030808333
000040 46 7b e8 3b 6c 4d ae 3c d4 f8 0f bc 35 9c 0c be
       0.0070947735 0.021277152 -0.008787353 -0.13731463
000050 70 47 f6 3d e6 f7 0d be 44 23 e2 bc fa a7 26 3d
       0.12025344 -0.13864097 -0.027604707 0.04068754
000060 64 7a 94 3d 15 28 d6 bc fd a4 3a bd 95 cd d3 bd
       0.07249907 -0.02614216 -0.0455675 -0.10341946
000070 93 ea 06 be cb 40 eb 3d 09 b0 c9 bd f3 97 92 bd
       -0.1317542 0.11486968 -0.09848029 -0.07157888

convs.1.weight f4 [32, 32, 5, 5]
000000 31 f4 ab 3c b2 a4 67 3c cf 1d 02 3d 24 9f 9a bd
       0.020990463 0.0141383875 0.03176671 -0.07549885
000010 81 3d 7d bd c4 5e f5 bc 30 b4 3b 3c 05 60 00 bc
       -0.061826233 -0.029952414 0.011456534 -0.007835393
000020 57 14 a9 bd 3d 1f dd bc 7b 10 88 bc bd 09 25 3d
       -0.08255833 -0.026992435 -0.016609421 0.04029249
000030 ef b5 09 ba 47 b9 0c bc 07 4c 03 bd 9b 91 1f 3d
       -0.00052532455 -0.008589095 -0.032054927 0.03895722
000040 f2 45 fe 39 dd c4 54 3c d5 e6 86 bc 04 87 88 bd
       0.0004849877 0.012986389 -0.016467491 -0.06666377
000050 e5 31 92 3b 89 a1 d9 39 e0 af e5 3c 7a bb f8 bc
       0.0044615143 0.00041509818 0.028037965 -0.030362833
000060 26 c6 90 bc 0f 45 0b bd 86 ca e9 3c ae 1f 9e 3c
       -0.01767261 -0.034001406 0.028538954 0.019302215
000070 22 63 08 bc 8f d0 45 3c 5c 52 0d bc 50 c5 d3 bc
       -0.008324416 0.01207365 -0.008625593 -0.025850922
000080 9b 13 4a bc f8 8e a4 bc 74 a1 c7 bc 8c 1b 78 bb
       -0.012333776 -0.020087704 -0.024368979 -0.0037858216
000090 29 b7 88 bd 2f 3e 61 bd c4 73 16 bc cf 66 35 bd
       -0.0667556 -0.054990944 -0.009182874 -0.0442875
0000a0 43 87 27 3d fe 93 58 bb 13 c7 95 bc 68 bd 6f bd
       0.04090048 -0.0033047195 -0.018283403 -0.05853024
0000b0 9d b1 e4 bc 60 16 6e 3c bb ba 2d bd 90 1f 19 bd
       -0.027916724 0.014531702 -0.04241441 -0.037383616
0000c0 b0 30 8c bd ed 3e 79 bd fd c3 63 3c 4c cd 28 bd
       -0.06845224 -0.060851026 0.013901708 -0.04121141
0000d0 c4 f5 b7 bd 2d ac 8d bd 3c 24 96 bc 53 ad b0 bc
       -0.08982423 -0.069176055 -0.018327825 -0.021567022
0000e0 f0 36 5f bd be 10 e6 bd 79 81 04 bd e7 55 ad bd
       -0.05449575 -0.11233662 -0.032350037 -0.0846365
0000f0 89 4f 48 bd 19 c3 c4 bb 2a a3 28 bd 66 b2 bb bc
       -0.048903976 -0.0060047028 -0.04117123 -0.022912215
000100 dc ed ca bd 22 4e 0e bd b2 f9 54 bd c3 fb f9 bb
       -0.09908649 -0.034742482 -0.05199594 -0.0076288893
000110 b6 ba c9 3c ad 54 49 3c 46 aa 3d bd 88 91 29 bd
       0.024625164 0.012288255 -0.046304964 -0.041398555
000120 bb ef 8b bc bb 6e b2 bc b9 9b aa bd c3 4c 2a 3d
       -0.017082086 -0.021781316 -0.08330483 0.041577112
000130 0b 5b 76 bc 99 4e b2 3b 70 e2 36 bd c1 b4 43 bd
       -0.015036355 0.0054414985 -0.04464954 -0.047779802
000140 8f 98 91 3c 7e e3 0c 3c 0b ed 0f bd 50 a7 d5 bc
       0.01777294 0.00859916 -0.03513817 -0.026080757
000150 ab bf 00 bd 43 73 21 3d 75 d3 31 bd c2 52 50 3a
       -0.03143279 0.039416563 -0.04341455 0.0007946902
000160 ce d9 be bd ec 06 32 bd 0f fc 96 bc 2b f4 07 3b
       -0.09318887 -0.043463632 -0.018430738 0.00207449
000170 37 e1 5c bd cf 47 87 bd 2a 74 ad bc e4 6f 08 bd
       -0.05392572 -0.06605493 -0.021173555 -0.033309832
000180 f3 06 bb bb 41 3c 07 bd f6 b8 44 3c 92 b7 05 3d
       -0.0057076155 -0.033016447 0.012006989 0.03264577
000190 70 d3 98 3d a2 42 f9 3a c8 ba 0f bb 71 42 94 bc
       0.074622035 0.001901705 -0.0021931399 -0.018098088
0001a0 35 a8 7a 3b 19 8d 9b 3d cc 84 81 3c 92 c3 2f bd
       0.0038247232 0.075952716 0.015810393 -0.04291112
0001b0 3d 07 55 bd 47 1f b0 3c 28 20 da 3d 45 2f 77 bc
       -0.052008856 0.02149929 0.106506646 -0.0150869535
0001c0 80 e0 32 bd 0a 02 34 bd c4 fa 8d bd 23 0b 83 3d
       -0.04367113 -0.043947257 -0.06932595 0.063986085
0001d0 8e 9a 4d bd ab b2 8f 3c f9 81 80 3c 4f af 29 bd
       -0.050196223 0.01754125 0.015686976 -0.041426953
0001e0 47 9e ba 3d ce 50 c6 bc a0 e8 cd 3c 66 d9 a7 bb
       0.0911222 -0.024208453 0.025135338 -0.0051223515
0001f0 73 84 05 bd 08 f3 c3 3c 4d e9 0c 3d b1 89 27 bd
       -0.032597017 0.023919597 0.03440218 -0.040902797
000200 48 fc 7b bd 2d 08 6e 3b f8 f6 70 3c 89 11 0e 3d
       -0.06151989 0.003632079 0.014707319 0.03468469
000210 e4 89 a5 3c 3d 15 37 bc 2f bc 08 3d c4 78 70 bd
       0.020207353 -0.011174497 0.03338259 -0.05870892
000220 b7 cc 31 3b 5e 92 1d 3c 28 38 81 bd 6a 61 1e bd
       0.0027130076 0.009617416 -0.06309539 -0.03866712
000230 37 2a 55 bd 27 bf 52 3d 1b 25 14 bc f2 6b 83 bd
       -0.052042212 0.05145183 -0.00904205 -0.06417073
000240 00 03 a4 bd e5 6b 02 bd ca 06 d1 bc ce b6 d7 3b
       -0.08008385 -0.031841177 -0.025515933 0.0065830713
000250 6f 02 90 bb 78 4e 33 bd eb 44 21 3c f0 fe df 3c
       -0.0043948214 -0.043776006 0.0098430915 0.027343243
000260 61 45 2c bc 79 ad 40 bd 60 3a ac bc 43 da 2a 3c
       -0.010514588 -0.047040436 -0.02102393 0.010428014
000270 d8 1d 82 bc 33 6c 3e 3c cc 70 8e bc 55 51 6f bd
       -0.015883371 0.011622476 -0.01738777 -0.058427174
000280 82 64 de 3c d0 4a 03 bc 67 b7 52 bc f9 09 2a bd
       0.027147535 -0.008013442 -0.012861109 -0.041513417
000290 5b f0 50 bd c1 45 29 3d 82 20 82 bc 05 c2 2d bd
       -0.05101047 0.041326288 -0.015884642 -0.04242136
0002a0 38 b3 16 bd 51 25 20 bc 0d ef c2 3c 20 6c 25 3d
       -0.03679201 -0.009774522 0.023795629 0.04038632
0002b0 6e ea b7 3c dc 9f 95 bd 59 a0 63 bd 8f cd 21 3d
       0.022450652 -0.073058814 -0.05557284 0.039502677
0002c0 36 e1 34 3d 4d 95 98 bd 4e de 6b bd 64 cb 8e bb
       0.04416009 -0.07450352 -0.057585053 -0.004357742
0002d0 22 e2 97 3d 15 40 2a bc 02 cd 9e bc fa 96 1f bd
       0.07416178 -0.010391255 -0.019384865 -0.03896234
0002e0 1c 6d 81 3c a1 46 bd 3d ad ec cd 3c b6 c3 6d bd
       0.015799098 0.09241987 0.02513727 -0.058047973
0002f0 fa 17 98 bd c0 57 c9 bc 83 c0 9e 3d 7e e3 6d 3c
       -0.07426448 -0.024577975 0.077515624 0.01451957
000300 d5 9a de bc 2c ca 52 bd 10 a3 29 bd e7 e2 f1 3d
       -0.027173439 -0.051462337 -0.041415274 0.11810856
000310 ea ab f2 3c b6 24 ea bb ba e0 2a 3c 70 87 57 3c
       0.02962299 -0.0071454896 0.010429556 0.013154849
000320 40 b4 c3 bc 50 cf a5 3c d1 05 c3 3c ad 64 24 3d
       -0.02388966 0.020240456 0.023806484 0.040135074
000330 0d 2f e9 bb 96 8d eb 3c bd 13 bb 3c 42 1e 71 3d
       -0.0071162046 0.028754037 0.02283656 0.058866747
000340 41 ce 21 bd 07 80 44 bd a1 25 b2 3c 1c f2 4e bc
       -0.03950334 -0.04797366 0.021746458 -0.012630966
000350 49 4d 2e 3d 64 1a 6b bd bd 9f 50 bc 09 53 84 bb
       0.042554174 -0.057398215 -0.012733397 -0.004038219
000360 aa 72 98 bc aa 0d b4 bc f4 93 57 bd a7 a5 c1 bd
       -0.018609364 -0.021979172 -0.052631333 -0.09455424
000370 9d 56 d5 bc 6e 8c 2b bd 23 fc b1 3c 1d c7 c1 bd
       -0.026042277 -0.04188197 0.021726673 -0.09461806
000380 cc 8b 12 be 1e b9 a8 3d 56 e2 36 3a 76 86 ba 3a
       -0.14311141 0.08238433 0.00069764757 0.0014230746
000390 f6 9d a8 bd 6c 0c 8a bd 60 b5 29 3d 03 84 37 3d
       -0.08233254 -0.067406505 0.04143274 0.04480363
0003a0 54 95 89 bc 6d 55 c2 bd a0 e6 a7 bd eb 7c 6f 3c
       -0.016794838 -0.0948895 -0.08198285 0.014617185
0003b0 53 eb b0 bb cc bf 0f bd 81 a2 ab bd 15 9a 84 bd
       -0.0053991466 -0.03509502 -0.083806045 -0.06474701
0003c0 cb 2d 6c 3c 96 bb 00 bc 85 f9 6e bc d7 c6 35 bd
       0.014415215 -0.007857224 -0.014585857 -0.04437908
0003d0 0a 92 1d bd 27 5c 4e 3d f1 1d ab 3c aa 2f ad 3c
       -0.03846935 0.050380852 0.0208883 0.021140892
0003e0 08 1d 78 3b 80 e3 90 bd 81 e0 a9 bc 77 89 45 3d
       0.00378591 -0.07074642 -0.020736935 0.0482268
0003f0 6f a9 50 3d 21 8a 1e bd 6d 43 cc bb ee 7b 96 3c
       0.050942834 -0.03870595 -0.0062336237 0.018369641

convs.1.bias f4 [32]
000000 9f 93 e4 3c ef 8a d9 bc 3a 28 f1 bb 1d b6 75 bb
       0.027902422 -0.026555507 -0.0073595317 -0.0037492581
000010 53 92 42 bc 07 4c 28 ba e3 81 a9 3c 0e ff 84 bd
       -0.011875707 -0.00064200204 0.020691818 -0.0649396
000020 1b d6 2b bd 1d 91 19 bd 81 2b b7 3b 86 8d 2c 39
       -0.041952234 -0.037491906 0.005589903 0.0001645592
000030 73 be 23 3d 2e 3f 88 3c 43 2d 0e bd e3 36 79 b9
       0.03997655 0.016631689 -0.034711134 -0.00023766937
000040 57 3c 5b 3d 63 72 39 3b d9 6f e5 3c 44 2e c9 3b
       0.05352434 0.002829694 0.028007435 0.0061395485
000050 f8 ef 90 3d 1f 1e 81 bb a9 2d f0 3c 53 55 2f bd
       0.070770204 -0.0039403583 0.029318647 -0.04280598
000060 9d 77 8e bc 88 da cc bb 68 5d 19 bd ad de 94 bc
       -0.01739102 -0.006251637 -0.037442595 -0.018172586
000070 c5 d1 ec bc 38 3a 9c bc d2 26 0c 3b ea 04 46 3d
       -0.02890862 -0.01907073 0.0021385443 0.04834453

convs.2.weight f4 [32, 32, 5, 5]
000000 56 e7 c1 3c f6 85 74 bc 4b 9d dc bb 0b 3a 64 bb
       0.02366988 -0.014924517 -0.006732618 -0.0034824635
000010 1a e3 84 bb 8d 85 0d bc d2 6a f3 3c 66 1a c8 bc
       -0.004055393 -0.008637798 0.029714022 -0.02442665
000020 47 47 02 3d 83 b1 9f 3c d5 5d a6 3c a7 aa 79 3c
       0.031806257 0.019493824 0.020308414 0.015238441
000030 8a 3e d6 3c 49 fb 68 bc 62 b9 f6 3c f6 ab e7 3c
       0.026152868 -0.014220067 0.030117694 0.02828024
000040 b1 fa 70 ba 08 eb ff 3c 80 c2 08 3b 56 5c 98 3c
       -0.00091926294 0.031240001 0.0020867884 0.018598717
000050 87 43 17 bc 50 57 ef 3c e3 bf b3 bb 6f 6a 5a bc
       -0.009232408 0.029216439 -0.005485521 -0.01333104
000060 ab 99 bf bc 16 e4 ab bc c2 0e 71 ba 01 bb b9 bc
       -0.023388704 -0.020982783 -0.00091956195 -0.022672178
000070 b8 58 d8 bc 52 9f 4a 3c 8e 9b 97 3c 09 54 a2 3c
       -0.026409492 0.0123670865 0.018506791 0.019815462
000080 fd 07 ec 3b 1f 72 80 bc 6e f2 87 3b 17 4c 33 bb
       0.0072031007 -0.015679417 0.004148773 -0.0027358586
000090 98 8c 98 bc 0d 7f f2 bc 8a 64 ff bb 44 62 a6 3c
       -0.018621728 -0.029601598 -0.0077939676 0.020310529
0000a0 55 1f ec 3b 82 4c ab bc 59 f0 91 bb eb 45 01 bd
       0.0072058835 -0.020910505 -0.0044537005 -0.03156082
0000b0 90 ff b4 bb 7e 6b a6 3b 19 bf 35 3c 69 c6 d9 3c
       -0.0055236295 0.005078732 0.0110929245 0.026583867
0000c0 cf cf b9 3c 9a 22 18 3c 6d 2a 35 3b 5c ce b9 3a
       0.022682099 0.009285593 0.0027643696 0.001417588
0000d0 1b 79 17 bd 0e f2 0f bc a2 1f 05 bd 91 52 9f 3c
       -0.03698073 -0.008785738 -0.03250087 0.01944855
0000e0 4c 58 1a bd df c4 ca 3c 05 df cf 3c 4e f3 b4 3b
       -0.037681863 0.024752079 0.025374899 0.0055221682
0000f0 50 f0 b6 39 97 66 ef bc 9a d8 b6 bc c7 52 1b 3b
       0.00034892792 -0.029223723 -0.02232008 0.0023700462
000100 c4 7b 54 bc b4 8f 4b 3c b3 4b a3 3c 98 41 8f 3c
       -0.012968961 0.012424398 0.019933557 0.017487332
000110 09 e4 f3 3c 55 b3 92 bc fc a9 0e bc 2f c4 a0 bc
       0.029771822 -0.017907778 -0.00870752 -0.019624798
000120 fc a4 71 3c 09 b7 cd bc 22 ec 95 3b dc f4 1d 3c
       0.014748808 -0.025111692 0.0045752684 0.009640899
000130 1c 6b 8f 3c af 44 d8 3c d5 7d c8 bb da dc 95 3c
       0.017507128 0.026399938 -0.006118516 0.018293787
000140 27 94 dc bc 94 7a 80 3c 9e 81 12 bd e7 5a df bb
       -0.026926113 0.01568345 -0.035768144 -0.0068162563
000150 a9 07 1a 3c 26 8e b6 3b 9d 3e e1 3c 3f a1 b3 3c
       0.00940124 0.0055711446 0.027495677 0.021927474
000160 6b 04 2f 3c 44 0d c2 3b 7f fe ce 3c be d5 99 bc
       0.010682206 0.0059219915 0.025267838 -0.018778678
000170 8a b2 61 3c ea f5 0d bd a9 3c b0 3c e7 58 8c 3c
       0.013775477 -0.03465835 0.0215133 0.017132236
000180 f6 76 f7 3b 02 9a 17 bd f2 dc 02 bd 45 9c 86 bc
       0.007552023 -0.037012108 -0.03194899 -0.016431937
000190 fc 33 6c bb e5 58 1a bc 29 7a 0e 3d 7d 64 9d 3b
       -0.0036041727 -0.009420608 0.03478447 0.004803239
0001a0 5a 33 01 bb 4a 14 16 bc 22 0d a3 3c 36 c3 85 bc
       -0.0019714446 -0.009160111 0.019903723 -0.016328435
0001b0 39 7d cb 3c 8b ca 9a 3c c1 ee 05 bd 59 3e 7f 3c
       0.024839984 0.018895408 -0.032698397 0.01557883
0001c0 15 7f b5 3c 61 f6 ae 3c 9f a4 46 bb d3 2a 01 bd
       0.022155324 0.021357717 -0.0030310524 -0.03153498
0001d0 5e 83 33 bd b7 ce 2d bd fc 07 46 bd 79 76 e2 bc
       -0.043826453 -0.042433467 -0.04834746 -0.027644383
0001e0 b5 57 50 bd e6 c4 1b bd 34 b0 df bb 54 86 41 3c
       -0.050864894 -0.038029574 -0.006826425 0.0118118115
0001f0 55 0f c0 bc c0 be e5 bc 21 76 13 bb e2 c4 e1 bc
       -0.02344481 -0.028045058 -0.002250083 -0.027559701
000200 e5 09 02 bc d8 bc 96 3c ef 31 30 bc 8e 12 26 bd
       -0.007936929 0.018400595 -0.010754093 -0.04054504
000210 9d b0 e9 bb 80 b2 05 bd c3 65 8d bc 3e 33 60 bc
       -0.0071316496 -0.032640934 -0.017260438 -0.013684092
000220 48 cf 08 bc dc 44 fb 3c f5 f9 ad 3c a2 98 96 bc
       -0.008350201 0.030672483 0.021237353 -0.018383328
000230 2d 4b 07 bd 66 b1 cd bc 19 4e cc 3c 2d 64 f0 3b
       -0.033030678 -0.025109004 0.024939584 0.0073361606
000240 f0 50 b9 bc a6 06 a8 3c 21 29 db bb 40 a1 5e bc
       -0.022621602 0.020510983 -0.0066882526 -0.01358825
000250 08 11 87 bc 9e 71 06 3c ea cb f8 bc e8 ec 1f bc
       -0.016487613 0.008205799 -0.030370671 -0.009761073
000260 d5 96 eb 3c ad 97 99 bc 6b 22 f6 3b 71 ad e3 3c
       0.028758446 -0.018749082 0.007511427 0.027792664
000270 42 6c a3 bc 15 18 63 ba 0f cb 2b 3c 79 c9 5d ba
       -0.019949082 -0.00086629513 0.010485425 -0.0008460503
000280 4b c9 c4 3c 5e 7f 19 3c 4c c8 b3 bc 03 67 cb bc
       0.024021765 0.009368746 -0.021946095 -0.024829393
000290 14 df 51 3c fa 33 f7 bc 45 3f 52 bc a6 25 cb 3c
       0.012809534 -0.030176152 -0.012832467 0.024798226
0002a0 47 c5 f5 bc c0 2c 08 bd b3 eb 92 3c ca d0 cf bc
       -0.030001296 -0.033245802 0.017934656 -0.025368113
0002b0 a4 e1 0b bd f0 fe 0f bd bf 84 d6 3c be a6 bd bc
       -0.034150735 -0.035155237 0.026186345 -0.023150798
0002c0 7e dc cf bc f0 80 80 3c 91 ab 3d bd 14 9b 0c bd
       -0.025373694 0.015686482 -0.046306197 -0.03432758
0002d0 27 bb 18 bd 7d 4d e5 bb f8 1b aa bb 29 54 86 bb
       -0.037287857 -0.0069977627 -0.0051913224 -0.004099388
0002e0 96 90 11 bd c7 2c f1 3b a4 38 a5 bc 42 f3 cb bb
       -0.03553828 0.007360074 -0.02016861 -0.006224067
0002f0 75 f8 92 3c 63 a8 23 bd 99 75 ce bc 7a 01 ef b8
       0.01794074 -0.039955508 -0.02520256 -0.00011396683
000300 c5 14 fe bb 64 b0 a6 3c 76 16 88 bc 12 f5 07 3c
       -0.0077539408 0.020347781 -0.016612273 0.008298175
000310 8f f1 96 3b ca 8b ea bc e5 41 be 3b 8a 19 0b 3c
       0.0046064327 -0.02863111 0.005806195 0.008489976
000320 24 55 24 bd 48 26 46 bc b0 12 ad bc 73 74 b6 bc
       -0.04012026 -0.012094088 -0.021127075 -0.022272324
000330 a6 04 c4 bc a2 34 9e 3b c2 78 3f bd 3d 24 c0 bc
       -0.023927998 0.0048280517 -0.046746023 -0.02345478
000340 97 1c 7e 3c 6c 35 fc 3b ca 7d 2d 3c ce 54 a0 bc
       0.015509746 0.007696798 0.0105890725 -0.019571688
000350 93 94 20 3c 74 d5 4d bd 46 9e 23 bd 76 29 45 bd
       0.009801048 -0.050252393 -0.039945863 -0.048135243
000360 0c 20 3b bd 01 2d c6 bc f5 7f 5b bd 6e 1d 15 bd
       -0.04568486 -0.024191381 -0.053588826 -0.03640502
000370 c8 ee 49 3c 4f 97 fb bc e0 2b 44 ba 8c a9 40 bd
       0.012324996 -0.030711798 -0.00074833445 -0.047036693
000380 3a db a5 bc 3e 76 a8 bc 09 70 9c bc 9d 42 62 3c
       -0.020246137 -0.020564195 -0.019096391 0.013809827
000390 aa 62 7e 3c 18 c0 d5 3c e4 44 76 3c 45 9d dc bb
       0.015526453 0.026092574 0.015031073 -0.006732615
0003a0 e3 cf 0c 3c 37 26 ad 3c 50 d7 f2 bb ee 40 d0 3c
       0.008594486 0.021136386 -0.007410921 0.025421586
0003b0 e4 94 92 bb 25 1a b7 3c 88 f6 93 bb a9 e0 b7 3c
       -0.0044733156 0.022351334 -0.004515473 0.022445993
0003c0 59 91 cd bb e3 b3 3d 3c 5c 0f 85 3c ce b4 14 ba
       -0.0062734303 0.011578533 0.016242675 -0.0005672694
0003d0 4b 40 35 3c 62 6b 02 bd f5 bd 81 3c 89 81 b5 bc
       0.011062692 -0.03184069 0.015837649 -0.022156494
0003e0 fd b2 dd bc 66 a6 a4 3b 9a 68 44 3c 18 17 e9 3c
       -0.027062887 0.005024719 0.01198783 0.028453395
0003f0 38 d5 05 bd e4 59 4d 3c 56 8f 58 3a 5e 70 d3 bc
       -0.032674044 0.012533639 0.0008261105 -0.025810417

convs.2.bias f4 [32]
000000 aa fc c9 3b ae 97 12 bc 69 d1 b4 bc 26 f0 35 bd
       0.006164153 -0.008947296 -0.02207251 -0.044418477
000010 5a 9e 2d ba 44 9e db 3c ce 8b 1e 3c 65 44 a5 3c
       -0.00066230225 0.026808865 0.009676887 0.020174215
000020 1a 9e 80 bc 1c 0e 30 3c 3c 1a 23 bd b7 62 20 3b
       -0.015700389 0.010745551 -0.03981994 0.00244729
000030 9d 7d 29 bd 3d 65 6a 3d 18 e4 1e bd 48 7f 11 bd
       -0.04137956 0.057225455 -0.038791746 -0.035521775
000040 16 6e 19 3b 46 35 e1 bc e7 44 02 3d d9 dc b4 bd
       0.0023411564 -0.027491223 0.03180399 -0.08831186
000050 4a 1f ea 3c 31 00 fc bc e4 cf 25 3d 38 18 9c bc
       0.028579373 -0.03076181 0.040481463 -0.019054517
000060 ad 1b 5f bd 80 47 f5 bc de 99 32 3d af 99 40 bd
       -0.054469753 -0.02994132 0.04360377 -0.047021564
000070 8e 80 04 bc ec c3 f7 bc 25 72 a8 3c 38 88 e1 3c
       -0.00808729 -0.03024479 0.02056224 0.027530774

convs.3.weight f4 [32, 32, 5, 5]
000000 d4 4e ac bc ad 23 e1 bc 81 76 66 bc 08 1f b8 bb
       -0.021033682 -0.027482832 -0.0140663395 -0.0056189336
000010 ac cc 9d 3b 40 e0 0d bc 76 69 fa 3b 5b 3b cb bc
       0.0048156586 -0.008659422 0.0076419665 -0.024808576
000020 18 72 c6 ba ea 32 ec bb 45 96 6e 3c a8 50 07 bc
       -0.0015140204 -0.007208218 0.014562194 -0.008258976
000030 41 f9 f0 3c 91 04 07 3c 4f b6 19 bc 12 a5 73 bc
       0.029415729 0.008240835 -0.009381845 -0.014870899
000040 0c 51 dd 3c cc 66 6a bc 50 0e b5 b9 6f d3 d0 3c
       0.027016185 -0.014306735 -0.00034533674 0.025491444
000050 e5 6f f9 bb 66 70 11 3c 10 24 0d bd 1b 07 29 3c
       -0.007612216 0.0088768955 -0.03445822 0.0103166355
000060 4e 50 af bb 0b 21 9c bc 09 0c 88 3c a1 2e 08 bd
       -0.0053501492 -0.019058725 0.016607301 -0.033247594
000070 85 d7 c3 bc 7b 2c ea 3c df 54 82 3c 1d f6 3e bc
       -0.023906479 0.028585663 0.01590961 -0.011655358
000080 ef 7c a8 3c 93 ae a7 3b 2e b5 cc bc a9 38 d2 bc
       0.020567385 0.0051172464 -0.024988737 -0.025661783
000090 d4 55 91 3c 48 94 de bc 11 bf bb bc 2f 1b e0 3c
       0.017741121 -0.027170315 -0.022918256 0.027356712
0000a0 4a 0e d2 bc 66 fc 15 bd d0 0f b5 3c a6 13 b7 bc
       -0.02564158 -0.03661766 0.022102267 -0.022348236
0000b0 e1 bd ff 3b 49 96 93 b9 f3 9f da 3c 45 58 7f bc
       0.0078046178 -0.00028149996 0.026687598 -0.01558501
0000c0 68 7a ef 3a e7 54 55 bc a5 a7 e5 ba 24 ed 0c bd
       0.0018270733 -0.013020731 -0.0017521275 -0.034405842
0000d0 74 6e a2 3b 26 9b dd 39 d7 93 8d bc 66 35 b8 3c
       0.0049570147 0.00042268 -0.01728241 0.0224864
0000e0 fb 35 f8 bc c4 34 ab 3c 11 9c 20 bd d3 31 82 bc
       -0.030299177 0.020899184 -0.039211337 -0.015892899
0000f0 bc f5 0c 3c d5 47 f2 3c 62 2b 01 bd 4e 89 44 3c
       0.0086035095 0.029575268 -0.031535514 0.011995627
000100 dc 77 58 bc 9e 10 13 3c 1e 9b 92 bb 56 2d be 3c
       -0.01321217 0.00897613 -0.004474058 0.023214977
000110 74 bd 1e bc db 6c 86 bb 93 54 af bc 9d c2 06 bd
       -0.009688724 -0.004102332 -0.021402633 -0.03290044
000120 ab a1 32 bc 54 37 35 3b 29 8e 0a bc e8 94 41 bb
       -0.010902802 0.0027651386 -0.008456745 -0.0029538218
000130 f9 a5 df 3c 9e 5e b6 3c 77 cd 93 bc bf b5 29 3b
       0.027300822 0.022261914 -0.01804231 0.0025895683
000140 30 53 1c 3c 51 52 6c 3c f2 46 05 3d bd bf cb 3c
       0.009541318 0.014423923 0.03253836 0.024871701
000150 b7 f2 c9 bc 37 74 df 3b 94 f0 1c 3d 43 1e 45 39
       -0.024651868 0.006819274 0.03831537 0.00018798657
000160 3f 0b ec bc 24 27 e1 3c 70 22 d7 bc 5b 90 d3 bc
       -0.028813956 0.027484484 -0.026261538 -0.02582567
000170 13 06 25 3d a1 40 03 3d 65 f1 a3 bc 45 72 18 3a
       0.040288996 0.032044057 -0.020012567 0.00058153673
000180 65 75 8f 3c d6 ed 69 bb 74 b8 cd 3c b1 8b 88 3c
       0.017512033 -0.003569474 0.025112368 0.016668173
000190 e5 03 d8 bc ce 91 98 bc 45 a0 b6 3b 2c d1 84 bc
       -0.026369045 -0.018624213 0.005573305 -0.016213022
0001a0 e4 4e e7 bc c6 ac 3a 3c 5b c0 e7 3c 29 e9 b2 bc
       -0.02823586 0.011393731 0.028289964 -0.021839695
0001b0 30 2d 14 bb a5 01 8d 3c 41 10 dc ba 1c 46 3d bc
       -0.0022609942 0.017212698 -0.0016789512 -0.01155236
0001c0 af 93 c1 bc 3f 78 fe 3c 5a 18 19 bc ed db 22 3c
       -0.023629991 0.031063197 -0.009344185 0.00994013
0001d0 0f 7e 07 3c 58 b5 de 3c 35 c6 67 3b 72 ba 75 3c
       0.008269801 0.02718608 0.0035365943 0.014998065
0001e0 f1 e1 03 bd 1d 8f eb 3c 6d ac a6 bc df d9 c3 3c
       -0.032197896 0.028754765 -0.02034589 0.0239076
0001f0 ce c8 fe bc cd 17 6f bc 37 ae 5f 3c 76 07 c4 bc
       -0.03110161 -0.014593077 0.013652376 -0.023929339
000200 fd 37 71 bd 5a a7 03 bd 1f 6a c1 3b c0 6d 1e bd
       -0.058891285 -0.03214202 0.005902543 -0.038678885
000210 48 75 58 bd 80 62 44 bd b9 2a ab 3c 19 ad 11 bd
       -0.052846223 -0.0479455 0.020894395 -0.03556547
000220 88 b6 e3 b8 56 e8 93 bc 90 3d 91 3a c9 20 2d 3d
       -0.000108582026 -0.018055122 0.0011080969 0.042267594
000230 d0 50 2b bc eb 31 4a bd f5 95 2e bc 1c f8 57 3c
       -0.010456279 -0.04936401 -0.01065587 0.0131817125
000240 cb 3b 1e bc 54 49 99 b6 76 5c 1e bd 45 52 fe bc
       -0.00965781 -4.568292e-06 -0.038662396 -0.031045089
000250 f8 0d a9 3c 1f 7d 89 bc eb 7b 25 bd 9d a8 d7 3c
       0.020636544 -0.016783295 -0.04040138 0.026325518
000260 d6 ff 22 bd c4 9f 09 bd 84 fe 5f 3a 01 40 2e bc
       -0.039794765 -0.03359963 0.00085447007 -0.010635377
000270 d0 e7 1e bd df af b0 3b 1d dc a0 bc 1a 70 ed 3b
       -0.038795292 0.005392059 -0.019636208 0.0072460296
000280 c6 20 9e bc 96 04 d2 3c ea 27 9c 3c ec e5 a4 bc
       -0.019302737 0.025636952 0.019062001 -0.020129167
000290 ab 6a bf 3b 42 ae 8e bb 90 67 2b 3c 3e 53 73 bc
       0.0058415732 -0.0043542692 0.010461703 -0.014851389
0002a0 a7 7d a4 bc 88 65 5a 3c c5 c9 e7 bc cf 69 2b 3b
       -0.020079447 0.013329871 -0.028294453 0.0026155596
0002b0 21 46 27 bb 44 10 7f bc a5 ae d8 bc ed 9a 4d 3c
       -0.0025523978 -0.015567843 -0.026450465 0.012549144
0002c0 61 c4 9e 3c 17 f0 3f 3c 6e 2f a3 3c 97 78 34 3c
       0.01938075 0.011714957 0.019920077 0.011015079
0002d0 a9 13 90 bc a4 35 cc bc 77 c1 08 3c 39 71 b9 bb
       -0.0175875 -0.024927922 0.008346907 -0.005659249
0002e0 4c 44 1c bd b7 a6 92 bc 8d d5 37 bd 62 43 39 bd
       -0.03815107 -0.017901761 -0.044881392 -0.045230277
0002f0 79 78 fc bc 28 56 f9 3a 6b 2b 1f 3c 4f 7f 06 bc
       -0.030819165 0.0019022869 0.0097149415 -0.008209064
000300 09 27 47 bb 84 d1 00 bd 72 d8 ee bc aa 00 c8 bc
       -0.0030388257 -0.03144981 -0.029155944 -0.02441438
000310 6a 82 06 3b 81 0c e2 bc 35 f6 22 bd 7b 16 a1 3c
       0.002052451 -0.027593853 -0.039785583 0.01966404
000320 94 29 48 bc 56 b7 c7 3b 92 ed 00 bd 86 55 fb bc
       -0.012216944 0.0060948534 -0.031476565 -0.03068043
000330 8f 15 c3 3c 88 93 ab 3c 00 2f ab 3c 07 9b c5 3c
       0.02381399 0.020944372 0.020896435 0.024121774
000340 ec 00 aa 3c 03 32 75 3c 6b de a8 3b de 48 50 3c
       0.020752393 0.014965537 0.0051534674 0.012712685
000350 30 c2 96 3c 9b 67 c4 bc 44 2d 06 3c c7 7a a8 3c
       0.018403143 -0.023975184 0.008189503 0.020566357
000360 62 38 06 bd a7 d9 1c bd f1 0f f6 b9 2c 59 4c bb
       -0.032768615 -0.038293507 -0.00046932654 -0.003118108
000370 ef 17 c7 bb 7c e0 aa 3c 45 da b0 bc b6 a5 19 3c
       -0.006075851 0.020858996 -0.021588454 0.0093778875
000380 a1 04 00 bc ea 5c e9 3c a6 72 fb bc 09 bc be 3b
       -0.007813604 0.028486688 -0.030694317 0.0058207554
000390 a6 cd fd bc 6a a4 37 bc 7e b8 09 bd e1 54 a9 bc
       -0.03098185 -0.011208633 -0.03362321 -0.020670356
0003a0 13 f6 ee 3c 87 6f e1 bc d6 53 f5 b9 8a 0d 27 bd
       0.029170072 -0.027519 -0.00046792504 -0.040784396
0003b0 15 5d 09 3b bb 87 db ba a5 df a4 3c 33 34 da 3c
       0.0020960022 -0.0016748825 0.020126173 0.026636219
0003c0 61 b9 d8 bc 2c 52 29 3c de 6d 54 bc d4 8b 04 bd
       -0.026455583 0.010334533 -0.0129656475 -0.032359913
0003d0 51 46 ee bc 04 f6 d9 3b 61 f8 ed bc 8d 40 21 3c
       -0.029086264 0.006651642 -0.0290491 0.00984205
0003e0 97 09 e1 3c 9d 42 80 bb a9 96 72 bc 12 6f 01 3d
       0.027470393 -0.003914191 -0.014806428 0.031600066
0003f0 4b 6f 25 b9 2e 97 b6 3c b4 5a 66 bc 8c 55 7f bb
       -0.00015777086 0.022288885 -0.014059711 -0.0038960902

convs.3.bias f4 [32]
000000 91 84 f5 ba fc 1e ff 3a 2f f7 96 bc 98 f9 2d bc
       -0.0018731524 0.001946419 -0.018428413 -0.01061859
000010 dd 06 65 3c 41 fe 8a bc 3b 3f da bc 54 09 ab 3c
       0.013978687 -0.01696694 -0.026641479 0.020878471
000020 16 61 ab bb 23 e5 20 bc d4 79 a8 39 56 74 9d bc
       -0.0052300794 -0.009820255 0.00032134226 -0.019220512
000030 9f 85 15 3d 9d bc 1a bc 49 d1 31 bc e3 dc 8f bc
       0.036504384 -0.009444383 -0.01085312 -0.017561382
000040 b7 e0 cf bc 6e 64 a5 3c 10 f4 67 bc 84 d0 bb bc
       -0.025375707 0.02018949 -0.01415731 -0.022926576
000050 17 2d 87 3d bb 78 64 3c e9 4d e2 3b 38 cb 35 3d
       0.06600397 0.0139448 0.0069062603 0.044383258
000060 6b c1 f7 3c d2 4e d7 bc b5 43 61 3c 46 7a dc bc
       0.030243596 -0.026282702 0.013749053 -0.026913773
000070 a1 d7 b6 3c 02 ba 65 bc cd 5c ac bc 34 76 29 3c
       0.022319617 -0.0140213985 -0.021040345 0.010343123

convs.4.weight f4 [32, 32, 5, 5]
000000 77 cf 1d bc 36 01 ee 3c ab 03 ba 3c 2d 80 ea 3c
       -0.009631983 0.029053312 0.022706827 0.028625572
000010 ea 11 99 bb 4a fb b0 bc a8 85 c8 3b e1 a8 d3 3c
       -0.004671325 -0.021604199 0.0061194487 0.025837364
000020 b0 94 e7 bc 81 df 18 3c 34 f9 02 bd ba 57 97 bc
       -0.028269142 0.009330631 -0.03197594 -0.018474448
000030 3b 85 82 bc b4 5a df bb 43 83 f5 3c cb 16 89 3c
       -0.01593267 -0.0068162326 0.029969817 0.016734501
000040 0c 2c dc 39 88 32 8b bc f2 d3 86 bb 09 9c 06 bd
       0.00041994487 -0.016991869 -0.0041146213 -0.03286365
000050 e3 c4 90 ba 9c 39 86 bc ac cf b3 3c eb 6a df 3b
       -0.0011045005 -0.016384892 0.021949612 0.0068181655
000060 c3 bd 37 bb 90 c6 fd 3c 09 ef 92 bc bd 24 b7 bc
       -0.002803669 0.030978471 -0.017936246 -0.022356385
000070 1e d0 16 3c 31 e4 df 3c 69 7e d5 3c 6d 32 6e bc
       0.009204892 0.02733049 0.026061254 -0.01453839
000080 6a 87 ca ba 83 39 81 3c b4 dd 27 3d 21 62 d1 3c
       -0.0015451733 0.015774494 0.040982917 0.025559487
000090 8a dd 82 3c 92 f8 22 3d 77 a5 db 3c 1e db 1d 3d
       0.015974779 0.039787836 0.026812298 0.038539045
0000a0 32 7c 45 bc 34 5d c8 3c ee 58 de bc b7 7c de 3c
       -0.012053536 0.024458505 -0.027142014 0.027159078
0000b0 de 1e fd 3c 16 62 ea 3c df 7f de bc 8f 35 b2 3c
       0.030898508 0.028611224 -0.027160583 0.021754054
0000c0 1b 76 e8 bc b9 66 97 bc e8 7a 1a bd 48 5b 5c bc
       -0.02837663 -0.0184816 -0.03771487 -0.0134494975
0000d0 7c 6b 29 3b c9 ce 48 bc 63 cd 58 3c 75 01 f0 bc
       0.002585142 -0.012256333 0.013232562 -0.02929757
0000e0 53 60 d4 bc 40 07 1f bd eb 20 05 bc f1 5d 5f bb
       -0.025924837 -0.038825274 -0.008125524 -0.0034083093
0000f0 84 c8 ff 3b 55 b6 f8 bc 56 49 dd 3b e1 ee e8 bc
       0.0078058857 -0.03036038 0.006753127 -0.028434219
000100 f3 d2 82 bc 96 92 9a bc 29 f7 0d bd 64 c6 2b bc
       -0.015969729 -0.018868726 -0.03465954 -0.010484312
000110 87 3e ad bb 61 83 f9 bc 57 c1 28 3b e4 e0 0a bc
       -0.005286995 -0.030458154 0.0025750005 -0.00847647
000120 c5 ad 18 bd 34 b7 4c 3c b4 51 22 bd e7 03 a5 bc
       -0.037275095 0.012494851 -0.0396287 -0.020143462
000130 71 67 89 bc 70 12 07 bc 1f 18 1b 3b 35 81 b7 bc
       -0.016772958 -0.008244142 0.00236655 -0.022400478
000140 11 4d b2 3a 25 aa 54 bc c5 26 38 bc 2b 86 ab bc
       0.001360329 -0.012980019 -0.011239712 -0.020938
000150 d4 ea 36 bd 32 44 2b 3c a4 c4 63 bc ea 1d 02 bc
       -0.044657543 0.010453271 -0.013901863 -0.007941702
000160 58 49 11 bd bb f7 bf bb c3 35 90 bc 59 fa 22 bc
       -0.035470337 -0.005858389 -0.01760376 -0.009947383
000170 14 b1 88 ba 96 3d 66 3c c4 35 01 bc f2 8d 3f 39
       -0.001042875 0.014052769 -0.007886354 0.00018268058
000180 8a 4d a8 bc c3 99 52 3c 62 ec 87 bc 05 1e 23 bd
       -0.020544786 0.012854042 -0.016592208 -0.03982355
000190 a9 8d e4 3c de ac 9d 3b 87 17 e5 bc 70 36 9d bb
       0.02789958 0.004811867 -0.02796532 -0.004797749
0001a0 a6 7b ac bc 23 14 d7 3c 8c 82 ff 3c a5 9e 1d 3c
       -0.021055054 0.02625472 0.03119018 0.009620343
0001b0 07 b8 34 bd a4 a4 32 bd e5 96 63 3c c8 d5 a8 bc
       -0.044120815 -0.043614045 0.0138909565 -0.020609751
0001c0 82 48 d4 bc 1f 6b 2f bd 3c 96 eb bc 0c 84 09 3c
       -0.02591348 -0.042826768 -0.02875816 0.008393299
0001d0 56 9c db bb 1f 59 b1 bb b2 88 0e bd 71 78 88 bd
       -0.0067019863 -0.0054122354 -0.03479833 -0.066635974
0001e0 aa 47 1c bc ac 2a 83 bc ab 7b 6b bc 2c 61 0d bd
       -0.00953857 -0.016011558 -0.014372746 -0.0345165
0001f0 50 8c d0 bb e3 94 f7 3c c3 7d a6 3c 58 3e 54 bc
       -0.006364383 0.030222362 0.02032364 -0.012954317
000200 9f 8f f4 3c cc 88 8d 39 bb 51 11 3b 74 bf ca bb
       0.02985364 0.00026995537 0.002217396 -0.006187374
000210 4a 58 c0 bc ad cf 9e bc e7 f7 2d bc f6 07 fb 3c
       -0.0234796 -0.019386137 -0.010618187 0.030643445
000220 da 81 c3 3a 14 14 ed 3c 4a 01 f9 3c a9 bc bf bc
       0.0014916018 0.028940238 0.030396122 -0.02340539
000230 65 4d 0d bd ec ff 75 3c 24 99 b0 bc fe 49 33 3c
       -0.034497637 0.01501463 -0.021557398 0.010942934
000240 e7 b0 bb 3c 2c 37 d4 bc e2 5f 1a bd 4b 6c d2 3c
       0.022911502 -0.025905214 -0.037689097 0.025686404
000250 15 d1 1e bc 6f d3 ec 3b 2e d3 77 bd f7 6f 3d bd
       -0.009693404 0.0072273533 -0.06050413 -0.046249356
000260 39 25 30 3c 9e 6f 13 bd 27 bb 9a 3c 32 99 97 bd
       0.010751062 -0.03599512 0.01888807 -0.074022666
000270 bc a2 09 bd de f4 b2 bc d2 11 d7 bc 12 a0 80 bd
       -0.03360246 -0.021845277 -0.026253615 -0.06280531
000280 a8 a8 73 bb 94 70 c3 bb 18 f6 08 bd b2 9f 00 bd
       -0.0037179384 -0.005964348 -0.03343782 -0.031402297
000290 e4 3c 1b bd d0 1f 1f 3d 63 12 39 3d b3 58 b9 bc
       -0.037899867 0.0388487 0.04518355 -0.022625303
0002a0 96 41 25 bc 18 d0 08 bc 9e ce a8 bc c5 5c d6 bc
       -0.010086438 -0.008350395 -0.020606335 -0.026167283
0002b0 c1 33 87 3c c1 64 3e bc 69 d2 35 3c fe cd 6d 3c
       0.01650417 -0.011620701 0.011097529 0.014514444
0002c0 09 da ac 3b 15 49 c0 3c 68 43 b8 bc c8 f1 de 3c
       0.0052750153 0.023472348 -0.02249308 0.0272149
0002d0 09 d1 09 bc 66 4f 08 bc a6 a7 bc bc aa f2 4d bb
       -0.008411654 -0.008319711 -0.02302916 -0.0031425157
0002e0 28 04 59 bc c5 e1 ad b8 c5 a5 b0 3c c0 f8 f1 3c
       -0.01324562 -8.291336e-05 0.02156342 0.029537559
0002f0 f5 75 82 3c 86 2e e5 bc 7d 01 15 bd 3f 45 be 3b
       0.015925387 -0.027976286 -0.036378372 0.0058065946
000300 4f 6b ba 3c c9 e9 67 3c 68 81 c2 3b 18 43 03 bd
       0.022756247 0.01415486 0.0059358366 -0.032046407
000310 48 6e bf bc 17 3e 59 3c c8 8d e5 bb 89 b5 6a 3c
       -0.023368016 0.013259432 -0.007005427 0.014325508
000320 c6 8e 99 bc d8 c1 55 bd 6f 95 d6 bc 23 1f 8c 3c
       -0.018744837 -0.052186817 -0.026194302 0.01710469
000330 38 42 0e bc bf 07 96 bc 3b e9 f1 bc fe a0 28 bd
       -0.00868278 -0.01831424 -0.029530158 -0.04116916
000340 23 e0 24 bd 0a 92 2b bd 2c f6 d1 bc 55 3f 06 3c
       -0.040252816 -0.04188732 -0.02563008 0.0081938105
000350 bb 1a 87 bc 2f 70 03 bd cb 82 c7 bc 4b 6e 45 3c
       -0.016492238 -0.03208941 -0.02435436 0.012050222
000360 c7 be b0 bb c8 f5 a4 bc 40 9b 58 3c c8 51 ca 3c
       -0.005393836 -0.020136729 0.013220608 0.0246972
000370 b6 61 97 3c 7b 43 11 bd e4 2a 10 bd fa bf b3 3a
       0.01847921 -0.035464745 -0.035197154 0.001371383
000380 c9 34 ee bc 12 b6 0d bd 3a a7 dc bc 66 16 15 bd
       -0.029077904 -0.034597464 -0.026935209 -0.036398314
000390 28 94 d5 3b 60 f5 a2 bc 80 ba 80 bd 8c b2 51 bd
       0.0065179057 -0.019892395 -0.06285572 -0.051195666
0003a0 ba 51 2d 3c 84 a9 05 bd 57 2d 07 3c d2 3d 40 3c
       0.010578567 -0.032632366 0.008250556 0.011733489
0003b0 e9 cf f3 bc bd 22 04 bd 7a f8 00 bd 55 2c f1 bc
       -0.029762225 -0.03225969 -0.031486966 -0.029440084
0003c0 b0 7c 3e bd e1 f6 9b bc fe 96 31 bd e6 f2 76 bd
       -0.04650563 -0.01903862 -0.043356888 -0.06029024
0003d0 db 1d 7c bd 5d b1 30 3c 8f d3 fc bc 63 84 ab 3b
       -0.06155191 0.010784474 -0.030862598 0.0052342876
0003e0 1f c7 4f bd fd 34 aa 3b c4 5e 0f 3c 8a cb c5 bc
       -0.050727006 0.005194305 0.008750621 -0.024144907
0003f0 2e 00 5d 3b a8 e3 0d bb ca b1 4f 3c 52 98 12 3d
       0.003372203 -0.0021650586 0.012676666 0.035789795

convs.4.bias f4 [32]
000000 4f 38 23 bd ab 68 1e bb 14 9b 0b 3b 2b 48 5d 3c
       -0.039848622 -0.0024171274 0.002130215 0.013505976
000010 74 6a 88 3c fb ff 9d 3b 10 5e 50 bd 07 c6 ac 3c
       0.016652323 0.004821775 -0.050870955 0.02109052
000020 6f 35 a6 3a f0 de 8d 3b 94 a7 8a 3c 02 33 b8 3b
       0.0012680719 0.0043295547 0.01692561 0.005621315
000030 38 e0 04 bd a6 bc 8c bd 53 47 5c bc 18 52 77 3d
       -0.032440394 -0.06871919 -0.013444739 0.060381025
000040 3e fa 28 bd 90 41 11 3d 1b b3 66 bc 6a e9 0b 39
       -0.041254275 0.035462916 -0.014080788 0.00013343027
000050 ef d2 44 bd 59 67 97 bd af 0a 87 bc 01 7f 95 bc
       -0.048052724 -0.07392759 -0.016484587 -0.018249037
000060 f3 52 24 bd 0e 3a 8c 3c be 8b fb 3c c8 0b a3 3c
       -0.04011817 0.017117526 0.030706283 0.019903079
000070 f9 89 ca bc 21 f3 6f bd 8c d6 bb bb 67 6e db ba
       -0.024723994 -0.058581475 -0.005732363 -0.0016741276
