cases/test/snaps_128_32_96_uflux6/plumePLRNN_2024-05-22_09-54.pth (torch, 138336 bytes, 6 tensors)

conv1.weight f4 [32, 4, 5, 5]
00000000: ab78 90bc 3635 9fbc 0f6b 6f3d 3dd5 733d
00000010: b87d 8ebd 0294 813d 1b0c e83a 7a81 28bd
00000020: 8d11 833d 71c9 b1bc d891 6bbd fabf c239
00000030: 92f7 ca3a 1fb2 1a3b 6669 5fbc 3c65 19bc
00000040: c3b4 05bd a16e a83d 51c7 593c 9b5e 903b
00000050: 984e 913d 4add 5fbb 3bcc f9bc 2961 f5bc
00000060: 7efc 8cbb c7aa 683a 7261 58bd c73e f13c
00000070: 00b0 913d 9adc 83bd ec9c e2bc 6ac7 0d3d
00000080: e300 f7bc ba32 0ebb ba16 c93c 36fe 15bc
00000090: a971 d93a 878d 3239 c33d 343c 521c 58bd
000000a0: ec5e f63c 795d 653d b08e 4839 c26f 90bd
000000b0: 0292 443d 840b 0abc 751f 08bd 26e7 b43d
000000c0: 93d3 31bd 2c0b 123d d2d2 a23d 999c f2bc
000000d0: 6e23 70bd 0152 d23d b664 fe3c 3fa6 4bbc
000000e0: c47d 843d da06 98bb 86f0 abbc 0352 53bc
000000f0: c9f4 8a3c d737 6cbd 30c9 08bd feaa e93d
00000100: 3ace e3bc 8134 803d f3a3 8dbc 4d63 e3bb
00000110: e698 27bd 2b96 903d 1737 303c cd6f 883d
00000120: 15a3 28bd 8eb0 9f3d aef4 32bd 265e 8bbd
00000130: 8c8f a7bd 3424 0d3c 4595 9b3c 8181 4a3d
00000140: e470 40be 3b96 8f3d ec8b 243d 7cd2 4f3e
00000150: e83f 023e a577 05be 6e4d 8dbb 5432 ecbd
00000160: 42f3 64bc a256 c33b 3690 953e 5bc9 0dbd
00000170: d7a0 babd d447 613c 4bc8 4bbc 7d23 c53e
00000180: 847c 093e ccee 9e3d 4451 103b 66a0 52be
00000190: 666e f0bc c527 063d a758 1cbd 6746 9dbc
000001a0: a1c0 a4bc ddff 3abd bfa7 97bc 67ca 93bc
000001b0: aa18 1b3d e6aa b6bc 883a d4bc 10ac 2a3d
000001c0: 1c92 1c3d aee7 e4bc 1eb3 633c 8632 b53c
000001d0: 016c 31bd 3f1c ab3c d28e 5cbd a410 643d
000001e0: cb8c 26bc 504a cd3d a4fb b8bd 3220 243d
000001f0: 697a 62bc fd75 0d3d 3f0a 27bd 458b d23c
00000200: bdbc b5bc cfc4 d8bc c226 c4ba eea5 21bd
00000210: 0e38 79bc aecb 773d e7a4 d0bc 360f 063d
00000220: 2f7c c6bc 91ee a6bc 04c8 fd3b 1a0d 2dbd
00000230: 3ad0 d13b fcc4 d3bd c1aa 533d e612 68bc
00000240: 46b1 e43c f38c 083d 0c02 803d 330c ba3c
00000250: 5bfe 0ebb 8dc0 1c3d 44f1 f23c 40e8 1fbd
00000260: de3e b23c 4c1f 23bd 4b12 e03b bb06 1dbd
00000270: 394e a23d 4d05 d6bc b6f4 cebb ef3f 58bc
00000280: 92fb 0fbd 3a32 233d caeb 12bb bdc1 f4bc
00000290: d976 2b3a cb12 6e3c bb49 9f3d 6930 4fbd
000002a0: fef6 acbc 5242 84bc 852f 40bd 595b a4bc
000002b0: 3bc8 5d3d 3c36 25bd ec8e a13d 0a9e 493d
000002c0: a90a 97bd 4097 913c 2864 18bd 7461 46bd
000002d0: cc05 3f3e e307 033d 95aa cf3d 8ed4 70bd
000002e0: 0c18 0ebe aba9 8b3e ebbb 2ebc 99c8 d6bd
000002f0: c0eb 91bd 5bc9 9b3d f74a 5a3d 2a58 1ebd
00000300: 5669 e6bd 1676 1abd 20db acbc 1a0c 85bd
00000310: 44ea 283c 3cd0 133e 9d5e 063d 15da 263d
00000320: ce55 f13c ebeb 123d 02bb 00bd 9104 d2bc
00000330: 261d cd3d e2c9 d6bc 7d35 863d afe5 ecbd
00000340: 9022 b1ba 9fdb a73c 65bc 23bc 1c64 b9bc
00000350: 977c 0cbb b87e ab3b 2a22 e73c 1f76 03bc
00000360: dc6a c5bb c259 debc 8616 ab39 0887 b4bc
00000370: 10c7 443c e349 34bd ccb8 433d cc59 bebb
00000380: b794 433c 0e43 c0bd bfe9 883d b3f8 78bd
00000390: dc9d 47bd 2a75 833b 91ed 5a3d 715c efbc
000003a0: 7f68 ea3c d3e6 e83d a5df 84bd de1f 8e3c
000003b0: 819a 68bd ecab 11bd c5b4 01bd ae78 77bc
000003c0: a0bb 8c3d 8587 a1bd 57e0 853d 4c57 54bc
000003d0: f925 6b3c 69da f1bc c8fa 903c 00a7 933d
000003e0: 95ed fbbc 94da 453d 186f 83bc b733 26bd
000003f0: 12fa 8fbc f3e6 623c 1b28 e63b 2822 0f3d
-0.017635664 -0.019434553 0.05845171 0.05952953 -0.06957573 0.063270584 0.0017703803 -0.041139103
0.06399832 -0.0217025 -0.057512134 0.00037145597 0.0015485159 0.0023604704 -0.013635969 -0.009362515
-0.03264309 0.08224226 0.01329215 0.004405809 0.07095069 -0.0034158998 -0.030492892 -0.029953556
-0.0043025604 0.00088755455 -0.052827306 0.02944888 0.071136475 -0.06438561 -0.027662717 0.034614004
-0.03015179 -0.0021697716 0.02454697 -0.009154847 0.001658966 0.00017028126 0.011001053 -0.052761383
0.03007456 0.055997346 0.00019126642 -0.07052566 0.047990806 -0.008425597 -0.033233125 0.088331506
-0.043414664 0.035655186 0.07950367 -0.029615687 -0.05862754 0.10269547 0.031053882 -0.012429773
0.064693004 -0.0046394886 -0.020988714 -0.012897971 0.016962426 -0.05767044 -0.033394992 0.11409567
-0.027808297 0.06260014 -0.017290091 -0.006939328 -0.0409173 0.07059892 0.010755322 0.06661949
-0.041171152 0.07797347 -0.043690376 -0.06805067 -0.08181676 0.0086145885 0.018992076 0.04943991
-0.18793064 0.07011076 0.040172502 0.20295137 0.12719691 -0.13033922 -0.004312209 -0.11533037
-0.013974013 0.005961255 0.29211587 -0.034615856 -0.09112709 0.013750035 -0.01243789 0.38503638
0.13426405 0.07760391 0.0022021094 -0.20569 -0.029349517 0.03275277 -0.038170483 -0.01919861
-0.020111384 -0.045654166 -0.018512605 -0.018040849 0.03786532 -0.022298288 -0.025906816 0.041667998
0.03822528 -0.027942505 0.013897685 0.022118818 -0.04331589 0.020887492 -0.05384714 0.055679932
-0.010165404 0.100239396 -0.09032372 0.040069766 -0.01382313 0.03453635 -0.040781256 0.025701175
-0.022184724 -0.026461033 -0.0014965164 -0.039464884 -0.015211118 0.06049698 -0.025469257 0.03272935
-0.024229137 -0.02037743 0.007744791 -0.042248823 0.0064029964 -0.10340306 0.051676515 -0.014164662
0.027916562 0.033337545 0.062503904 0.022710895 -0.0021819088 0.03826957 0.02965606 -0.03903985
0.021758493 -0.03982477 0.006838118 -0.038336497 0.07925076 -0.026125574 -0.006315793 -0.013198837
-0.035152026 0.03984282 -0.0022418373 -0.029877538 0.0006540842 0.014530848 0.07777735 -0.050583277
-0.021113869 -0.016144905 -0.04692032 -0.02006309 0.054146033 -0.040334925 0.07888588 0.049222983
-0.0737508 0.017772317 -0.03720489 -0.048432782 0.18654555 0.031989943 0.10139958 -0.058796458
-0.1387636 0.27277884 -0.01066492 -0.1048748 -0.07125044 0.07606765 0.05329415 -0.0386583
-0.1125056 -0.03771027 -0.02110058 -0.06496449 0.0103097595 0.14434904 0.032805074 0.040735323
0.02945986 0.03586952 -0.031428345 -0.025636943 0.10015325 -0.026219312 0.06553171 -0.11567246
-0.0013514329 0.020490466 -0.009993647 -0.022630744 -0.0021436566 0.005233612 0.028214533 -0.008023768
-0.0060247015 -0.02714241 0.00032632443 -0.022037044 0.012010351 -0.044015776 0.047783658 -0.0058090445
0.011937312 -0.0938779 0.066852085 -0.060784053 -0.04873453 0.00401177 0.053449217 -0.029218884
0.02861428 0.11372151 -0.06487969 0.01734918 -0.05678797 -0.035564348 -0.031666536 -0.015104456
0.06871724 -0.078871764 0.0653693 -0.012960266 0.014352315 -0.029523091 0.017697707 0.07209587
-0.030752936 0.048304155 -0.016044185 -0.040576663 -0.017575298 0.013849008 0.007023824 0.034944683

conv1.bias f4 [32]
00000000: acf8 253d 4dbb 5d3d 06be c23d aa08 e73d
00000010: 50d1 5cbe e801 583c 38e2 2ebe 18c4 bbbe
00000020: fd22 c03d d597 d73d c013 283e 912f 023c
00000030: ac01 a4be ad51 38be 7dea b73d f210 b03e
00000040: 5cea 8039 1426 1d3d 1f39 d6be f06d 0abe
00000050: 23aa 6abd 56d2 90bd 4086 6b3e b22a 30bf
00000060: 4eeb 0abf 5de1 f0bc 61a8 4c3e 32f4 dfbe
00000070: ab42 3ebe 97c6 0bbe 54c3 c9be 0339 78be
0.040520355 0.054133702 0.095089 0.112809494 -0.21564221 0.013184048 -0.17078483 -0.36673045
0.093816735 0.105270065 0.16413784 0.007945911 -0.32032526 -0.17999907 0.08980272 0.34387928
0.00024588674 0.038366392 -0.41840455 -0.135185 -0.05729116 -0.070713684 0.23000431 -0.6881515
-0.54265296 -0.029404337 0.19986106 -0.43740994 -0.1858012 -0.13649975 -0.39406836 -0.24240498

conv2.weight f4 [32, 32, 5, 5]
00000000: a65d adbc e177 9abc abc5 7ebc 11f4 6bbb
00000010: f2af 50bb 8f1a 89bc d942 fbbc cddb 15bd
00000020: 7530 a33c 4554 243c 8abd 90bb 23cd 15bd
00000030: 98b9 0fbd 9560 a2bc f55d a13c 721f 883a
00000040: a360 7f3a 937a f43c f0ba af3a e25a 18bd
00000050: 5b5d 06bd 8b50 14bb 17ed 88bc 2804 8abc
00000060: 30e7 e13c 1566 0d3c 7553 54bc 62c2 24bc
00000070: 8a3a be3c 6be5 fbbc 5b52 193c a315 19bd
00000080: 7ea8 21bc 2e72 0ebd 27a7 13bd 57cb 2f3b
00000090: e879 e23c 33d6 31bc 9ba8 d83c e792 e7bc
000000a0: eab4 12bd e6fa 1abd 69c0 80bc 54ca 13bd
000000b0: 1693 d4bc 4191 863c 074c 54bc b908 733c
000000c0: 0da2 4bbb 7413 03bc 1a17 e6bc 8547 da3c
000000d0: 8eb8 64bc fb8e 0b3b 8148 b53c 5f3e aa3b
000000e0: fa39 b53c 1871 cbbc 1dfa b43c 9b03 993b
000000f0: f1a9 6abc e2c6 ccbb 69cd afbb 3831 2e3c
00000100: e500 2d3c 53f8 a9ba a5aa 05bd 01c3 c4bc
00000110: d95d c83c ca57 67bc f36e 61bc 14b3 06bd
00000120: 40b1 cbbc 343f 9dbc 91bd a7bc 6e6a e73c
00000130: 65de 25bc b23d 663c 9e7a 3b3c fdab 19bd
00000140: 976e e0bc b6f5 183c cd43 9e3c 03e1 2ebc
00000150: 6e70 21bd 9a89 61bc 6dbe 383b 7b9e 83bb
00000160: 4c29 993c a049 4fbc b2fb 3c3a e497 433c
00000170: d03d 29bc 7067 00bd 562a fabc 57cb 9dbb
00000180: d488 d5bc 9254 0a3c 7e48 e63c 9159 9ebb
00000190: 6928 183c e86b bc3c 6246 0c3c 5033 c4bc
000001a0: bfad d43c 3ac8 eabc e25a 25bd 9457 d4bc
000001b0: d572 a83c e715 00bc cc72 283b 5ec3 05bc
000001c0: f336 f1bb ea36 bbbc 9948 d53c 9129 6cbb
000001d0: edf6 40bc 325b 973c 2e8d b73b 95d7 1ebd
000001e0: 7487 873c 3f3e ea3b 81e0 06bd b047 17bd
000001f0: 3c58 423c cfe4 17bd 0a3c 0bbd 8ff5 e9ba
00000200: 3d18 6dbc 6d4d aebb 35f6 87bc 0881 c43c
00000210: 8e68 36bb 91ff ccbc 3a76 85bc b95e a53c
00000220: 9979 c3bc 704e 083c b08f de3c 23d1 b63c
00000230: e537 b8bc 40d7 33bc 8896 b93b 08d1 8dbb
00000240: a1fe d53c cfaf efbc fe75 233c 8ac1 11bd
00000250: f32c b93c 72da 1dbd ab94 243c ea29 9fbc
00000260: 9a67 99bc b744 c4bc eaae db3b a111 73bc
00000270: 5be5 18bc 7425 75bc 7b23 cd3c 92c1 913c
00000280: 9a8e c73c 5b84 893c d0c5 cd3b af55 d63a
00000290: 5f2c 9c3c bf2f 6a3c e942 c4bc acf4 a2bc
000002a0: bcf1 e3bc fef2 723b 8b85 803c a2ab b1bc
000002b0: 653a bfbc 2c3b 803c 056b 1cbd 36d7 edbc
000002c0: 2fb0 1dbd 0659 8bbc 5028 84bc 1af5 06bd
000002d0: 8545 103c 07cf eebb 6e10 4e3b 5612 b239
000002e0: e084 04bd a28e b8bc d146 c1bc b816 793c
000002f0: 232a da3c d8a0 88bc 60a2 023c 23e9 4fbc
00000300: b0bb c33c 1a8f c0ba e5c4 00bd 8b25 15bd
00000310: 835b e6bc 5327 03bd 631d 09bb 75ab f7bc
00000320: 4a13 66bb 72fe 7b3c 98c6 b8bb 81d6 353c
00000330: b776 ffbc 45a4 d9bc f0fe 833a 4b70 623c
00000340: 070e b93c 4461 6abc 3138 cb3c 37ce 9d3c
00000350: 9584 0fbd 00b3 c8bb f17f f63b 8195 bdbc
00000360: a4ed b2bc 4213 b3bc 192b 8bbc a50b eb3c
00000370: 6e05 10bd 49a0 dc39 9483 143c 62fa dd3b
00000380: 79ad c0bc 3f43 21bd ed84 babc 063f 1ebc
00000390: ef6f 1fbd 3d0a 793c ec5d 9ebc 7dc1 9d3b
000003a0: f004 d63c a411 2c3c df9e c5bc 2042 883c
000003b0: f61e a53c ceb2 c43c 7f83 f73c 38bd 173c
000003c0: 3b71 d5bb 0ec4 cdbb d0ef 17bd 1696 afba
000003d0: 9d2a 05bb f611 4a3c 93c0 3f3b 2bcb ea3c
000003e0: d9ed f33c 1a2f a83c ec77 533b 2de2 93bb
000003f0: 924c d43c 5cb1 acbc 56fb 0ebd 7625 f5bc
-0.02116282 -0.01885599 -0.015550057 -0.003600363 -0.0031843153 -0.016736297 -0.030671524 -0.03658657
0.019920567 0.010029857 -0.004417126 -0.036572587 -0.035089105 -0.019821445 0.019698123 0.0010385348
0.0009741878 0.029843604 0.0013407152 -0.037196048 -0.032803874 -0.0022631015 -0.016714616 -0.016847685
0.02757606 0.008630295 -0.012959351 -0.01005611 0.023221273 -0.030749043 0.009358014 -0.03737415
-0.009866832 -0.03477686 -0.03604808 0.002682408 0.02764602 -0.010854292 0.026447585 -0.02826829
-0.035817064 -0.03783693 -0.015716748 -0.036081627 -0.025949042 0.016426684 -0.012957579 0.014833623
-0.0031071932 -0.008000243 -0.028087188 0.026645431 -0.013960017 0.002129494 0.0221293 0.0051954235
0.022122372 -0.0248342 0.02209192 0.0046696193 -0.014322744 -0.0062492946 -0.005365063 0.010631852
0.010559295 -0.0012967683 -0.032633442 -0.024018766 0.024458813 -0.014120052 -0.0137593625 -0.032885626
-0.024864793 -0.019195177 -0.020476134 0.028248992 -0.010123824 0.014052795 0.011442808 -0.037517536
-0.027396483 0.009335926 0.01931944 -0.010673764 -0.039413862 -0.013765717 0.0028189674 -0.004016695
0.01869645 -0.012651831 0.00072091364 0.011938069 -0.010329679 -0.031348646 -0.030537765 -0.0048154998
-0.026066221 0.008443015 0.028110739 -0.0048324545 0.009286978 0.023000672 0.008561702 -0.023950249
0.025961755 -0.028659929 -0.040369876 -0.025920667 0.020562569 -0.007817722 0.002570319 -0.008164255
-0.007361287 -0.022853334 0.026035594 -0.0036035518 -0.011777622 0.018476103 0.0056015467 -0.038779814
0.016544081 0.0071485336 -0.032928947 -0.0369336 0.011861857 -0.037083443 -0.033992805 -0.0017849671
-0.014471111 -0.0053192885 -0.016596893 0.023987308 -0.0027833316 -0.025024207 -0.016291726 0.020186769
-0.023861693 0.008319482 0.027168125 0.022316521 -0.02248759 -0.010976613 0.0056636967 -0.004327897
0.026122393 -0.029258637 0.009976862 -0.035584964 0.022604441 -0.038538404 0.010045211 -0.019429166
-0.018726159 -0.023958547 0.006704201 -0.014835746 -0.009332026 -0.014962543 0.025041332 0.017792497
0.02435999 0.016786745 0.0062796846 0.001635244 0.019064127 0.01429361 -0.023957686 -0.01989206
-0.027825229 0.0037071104 0.015688678 -0.021688286 -0.023343274 0.015653215 -0.038188 -0.029033285
-0.0384981 -0.017010223 -0.016132504 -0.03294859 0.008805637 -0.007287863 0.0031442898 0.00033964467
-0.032353282 -0.02252895 -0.023593338 0.0152031705 0.02663142 -0.016678259 0.0079732835 -0.0126898615
0.023893207 -0.0014691085 -0.031437773 -0.036412757 -0.028119808 -0.032019924 -0.0020922057 -0.030233124
-0.0035106712 0.015380489 -0.0056389086 0.011098505 -0.031184537 -0.026567588 0.0010070484 0.013820718
0.022589697 -0.0143054165 0.024807068 0.01926337 -0.03503855 -0.006124854 0.007522576 -0.023142578
-0.021841832 -0.021859769 -0.016988324 0.028692076 -0.03516143 0.00042081092 0.009064574 0.0067742327
-0.023520218 -0.03937077 -0.022768462 -0.009658581 -0.038925108 0.015200195 -0.019331895 0.0048143254
0.026125401 0.010502253 -0.024123607 0.016633093 0.020156365 0.024011042 0.03021407 0.009261422
-0.0065137423 -0.006279475 -0.037093937 -0.001339617 -0.002031959 0.012333384 0.002925907 0.028661331
0.0297765 0.020530272 0.0032267524 -0.0045130462 0.025915418 -0.021080665 -0.03490766 -0.02992509

conv2.bias f4 [32]
00000000: 05d4 833c 99b9 d13b 2704 e5bb 2929 02bc
00000010: 355c bbbc 4c8d bd3c f6cd cc3b 6a0b 0ebd
00000020: e68a 183d 65bc fbbc 0e42 9fbc 1795 e2bc
00000030: e6d4 503c 0be9 babb 78e4 febc ebcd 25ba
00000040: 871c d83c 5c4d a03c 1e76 f2bc 2a9a 99bc
00000050: ae59 ae3c 5058 30bc 4c64 ea3c cc4d f23b
00000060: 4792 043d ff5c c33a 3111 203c 797a 20bd
00000070: 3e3d 413b a002 25bd f754 debc 2c7d 0cbd
0.01609231 0.006400299 -0.0069890204 -0.007944384 -0.022871116 0.023138665 0.0062501384 -0.034678854
0.03724184 -0.030729482 -0.019440677 -0.027658982 0.012746071 -0.0057040504 -0.031114802 -0.00063249347
0.02638079 0.019568138 -0.029597338 -0.018750269 0.021282997 -0.010763243 0.028612278 0.007394528
0.032366063 0.0014905034 0.009769724 -0.0391793 0.0029485966 -0.040285707 -0.027140124 -0.03429906

conv4.weight f4 [1, 32, 5, 5]
00000000: ca86 59bc a269 90bc 4605 fcbc 6046 18bc
00000010: 7fc3 a3bc 0518 393c 11e1 9b3c 9522 2cbc
00000020: 6ab7 de3c bad4 d63c e903 a4bc 4509 7bbc
00000030: 0dda e33c 1365 c3ba 8043 dc3c 61ab ffba
00000040: 5363 44bc 5418 d8bb 555e 073c 6422 8e3c
00000050: 407a b83c 92ad 5d3c d4c0 fabc 911d 06bd
00000060: da9d 8f3b 8125 873c 04c8 fc3c 8b41 833c
00000070: 813f fc3b 6668 ed3b c1f5 52bb 08c2 303b
00000080: 6bed 8abb c9d7 b7bb 2a03 06bc 9f03 cb39
00000090: e812 d03c 284e 67bc 359f c03c 5043 f0bc
000000a0: 6e79 a2bc 0835 bbba 9575 a0bb b5c1 b03c
000000b0: d687 5ebb 9aee 423c 9696 d7bc 1918 f2bc
000000c0: cd16 2a3c 97e5 e0bb 83c2 cbbc 7832 dbbb
000000d0: 2e59 2d3c ab92 923c c5b6 e23c bc8a 85bc
000000e0: a4e2 fb3c 689f bcbc 61db a5bc 866a eb3b
000000f0: b689 393b e03f b2bc aa72 34bc 3c7a 80bb
00000100: ca0f af3c 4f61 ec3c 296b 6dbc 41f3 87bc
00000110: 3747 1a3d 8291 193d cbf0 a1bc 5c3f c0bc
00000120: eff0 0d3c b423 1c3a e99c 95bc dc92 d2bc
00000130: 3fa8 da3c c5c7 dc3c 91de 833c 19a0 b4bc
00000140: 0f9f 003d 821e 4b3c 8c6a f2bc 84dc e0bc
00000150: 959b 1cbc 14fe e53b 360e 26bc a464 b437
00000160: cd05 2bbc a11c ab3b 4446 9c3c 567c da3c
00000170: 65e5 13bc 1e32 67bc 1fe5 82bc e726 f83c
00000180: 1c37 ff3b 30e6 ff3c 1c5c 74bc 9072 163d
00000190: 9a86 08bd 95bb dcbc ca1f 8f3c eb01 023d
000001a0: 3049 c13c 7a54 8ebc 7663 6bbb 733a 013d
000001b0: 13d0 08bd 2930 d73c 556c 10ba 8ad2 fabc
000001c0: eb19 f5bb ff7a bbbc 1090 9fbc e7c4 b63c
000001d0: 252c a53b 211b d33c e6d8 a63c 3de6 e8bc
000001e0: 04e6 f6bc b453 033d b3b5 90ba 67cd c03c
000001f0: b570 74bc a84f 823c f364 10bc 159d d13c
00000200: 03eb e53c eb33 ebbc 8b00 e73c 1982 ad3c
00000210: 83da efbc 9dd4 88bb 609a 3f3c 70d8 09bd
00000220: e5ef ca3b 6ccc cbbc d979 82bc 57e6 4b3a
00000230: f5a1 33bb c6c8 613c 6771 db3c 4d63 503b
00000240: 008b 6c3c 5faa 293b 7a6a 103b fb0b 9dbc
00000250: a4e0 d9bc 2b12 efbb 4b6d 32bc 89d7 30bc
00000260: 2f16 2ebc 6259 00bc 3b27 3a3c 07f3 9a3c
00000270: bbf8 60bb 220a adb9 84a4 f2bb 5c15 d13c
00000280: 710f a83c f344 84bc fa21 eebc 88f2 d23c
00000290: 0727 643c 2a55 5ebc a761 593a 5b56 f7bb
000002a0: 5f81 05bd d4ee ab3b fdeb b13c 3dae 00bd
000002b0: ece9 d23b df76 8d3c 0e4b 9fbc 3240 bebc
000002c0: a207 043b 5875 eb3c a5fa db3c 0584 d5bc
000002d0: 9383 82bc c736 3abc 8117 e5bc b8f1 8a3c
000002e0: ebb1 bebc d61a edbc 7ff9 313c dec6 193d
000002f0: d6aa 4d3c 0092 92bc 32d7 a7bc b214 633c
00000300: ca3a 86bc 1b7a 6b3c 398d dcba 421b 8f3c
00000310: d20f 8b3c a7cf 6abc 040c 3a3c edd3 c9bc
00000320: 6102 bebc bb0e 2a3c 06d1 94bc c7dd aebc
00000330: 1c57 ccbc 6a6f 703c 05b3 b8bc d57c 90bb
00000340: 5846 5ebc 46ba b7bc 1468 153d 464c 073d
00000350: 1af4 0e3d a8a9 933c 3201 1a3d 5e04 043c
00000360: 29e0 b3bb 47a1 d93d 6aa4 713d 4355 213d
00000370: a76a 92b9 d5e1 afbc 640e 543d a72f 0cbc
00000380: 8bab 70bc c8db e43a 54f9 b63b 1deb 0abd
00000390: 5b86 8dbb bba6 ffbc ffd5 f23b d9d9 b2bc
000003a0: 2f48 ee3c a349 213c ac0e 1abd ae3b cfbc
000003b0: f579 a03b 0b6a de3c 8279 dd3c 69e6 763c
000003c0: 4f0f 023c 625e c13c 97b9 84bc 1893 dabc
000003d0: 5d09 073c 573c 04bc bf89 5fbc d26e 01bd
000003e0: 6f73 b3bc 5a5d 763b c5b7 fd3c 5075 9cbb
000003f0: 7994 c8bb a7d8 7e3c 3da4 af3c 5270 343c
-0.013276765 -0.017628495 -0.030764233 -0.009294122 -0.01999068 0.011297231 0.019028218 -0.010506292
0.027187068 0.026224483 -0.020021396 -0.015322034 0.027813936 -0.0014907442 0.026887655 -0.0019506031
-0.011986571 -0.006594697 0.008262237 0.017350383 0.02251923 0.013530152 -0.030609526 -0.03274304
0.004382831 0.016497375 0.030857094 0.016022464 0.007698 0.0072451113 -0.0032189938 0.002697112
-0.004239728 -0.0056104404 -0.008179465 0.00038721875 0.02539964 -0.014117755 0.023513416 -0.029328972
-0.019833293 -0.0014282772 -0.0048968294 0.021576742 -0.0033955476 0.011897707 -0.026316922 -0.029552506
0.010381413 -0.0068633067 -0.024873024 -0.006689366 0.010580344 0.017892202 0.027675042 -0.016301505
0.03074772 -0.02302523 -0.02024621 0.0071843294 0.0028310842 -0.021758974 -0.011013666 -0.0039208215
0.021369833 0.028854994 -0.014490881 -0.016595485 0.037665572 0.037492283 -0.01976814 -0.023467712
0.0086634 0.0005956248 -0.018263297 -0.025704794 0.026691554 0.026950726 0.016097339 -0.022048997
0.03140169 0.01239741 -0.029591821 -0.0274489 -0.009558578 0.007018814 -0.010135224 2.1504537e-05
-0.010438395 0.0052219187 0.019076474 0.026670616 -0.00902686 -0.01411107 -0.015978394 0.030291988
0.007788552 0.031237692 -0.014914539 0.03673035 -0.03333149 -0.026944915 0.017471213 0.03174011
0.023594469 -0.017374266 -0.0035917438 0.031549882 -0.03340156 0.026268082 -0.0005509307 -0.030617971
-0.0074798963 -0.022885798 -0.019477874 0.022310687 0.005040663 0.025769772 0.020367097 -0.028430099
-0.030138977 0.032062247 -0.0011040479 0.023535443 -0.01491945 0.015907124 -0.008813131 0.025587598
0.028066164 -0.02871128 0.028198501 0.0211802 -0.029279 -0.004175736 0.011694521 -0.033653677
0.0061931484 -0.02487775 -0.015927242 0.0007778159 -0.0027409766 0.013780778 0.026787473 0.003179747
0.014437437 0.0025888903 0.0022036121 -0.019170752 -0.026596375 -0.007295867 -0.010890315 -0.010793575
-0.010625406 -0.0078338105 0.011361892 0.018914713 -0.0034327942 -0.0003300468 -0.0074048657 0.02552288
0.020515176 -0.016146159 -0.029068936 0.025750414 0.0139253205 -0.013570109 0.00082924444 -0.007548136
-0.03259408 0.0052469764 0.021718973 -0.031416167 0.006436577 0.017268596 -0.019444969 -0.02322397
0.002014615 0.028742477 0.026852915 -0.026063928 -0.01593188 -0.011365599 -0.02796531 0.016960964
-0.023278197 -0.02894346 0.010862707 0.03754317 0.0125529375 -0.017891884 -0.020488355 0.013859915
-0.016385455 0.014372374 -0.0016826756 0.017469052 0.016975317 -0.014331735 0.011355404 -0.024637187
-0.023194494 0.010379489 -0.018166076 -0.021345986 -0.02494388 0.014675001 -0.0225463 -0.0044094124
-0.013566576 -0.02242769 0.03647621 0.033031724 0.034900762 0.018025234 0.037598796 0.008057682
-0.0054893685 0.10626464 0.058994688 0.039387953 -0.00027926752 -0.02146999 0.051771536 -0.008556283
-0.0146893365 0.001746052 0.0055839214 -0.033915628 -0.004318995 -0.031207433 0.007410764 -0.021832393
0.029087154 0.0098442165 -0.03761165 -0.025297012 0.004897351 0.027150175 0.027035479 0.0150695825
0.00793822 0.023604576 -0.016201777 -0.026681468 0.0082419785 -0.008071027 -0.013643681 -0.031599827
-0.021905629 0.0037592263 0.030971417 -0.004774727 -0.006121215 0.015554584 0.02144062 0.011013107

As.0 f4 [1, 1, 32, 128]
00000000: a406 773f 21cc 763f 680e 763f 32fe 763f
00000010: 8e11 773f fdf4 763f 601c 773f 3a25 773f
00000020: ad40 773f fff4 763f 321f 773f d712 773f
00000030: 9102 773f eb14 773f cdfe 763f 55fd 763f
00000040: 9afb 763f f90f 773f 0a17 773f 1402 773f
00000050: df02 773f 4c17 773f c428 773f 17fb 763f
00000060: 06ea 763f c501 773f b5f6 763f 9801 773f
00000070: 8504 773f 7604 773f 400e 773f 4732 773f
00000080: 3219 773f cf04 773f 85f6 763f 8c00 773f
00000090: 3411 773f 5a11 773f 8f14 773f 98f9 763f
000000a0: 6f18 773f e629 773f c519 773f b9f9 763f
000000b0: dc03 773f ecf9 763f 4e20 773f 6814 773f
000000c0: caf0 763f f60e 773f f017 773f a102 773f
000000d0: 8e0f 773f 40ed 763f 0dfb 763f f804 773f
000000e0: d009 773f a305 773f eae9 763f 66f6 763f
000000f0: 041f 773f fe1c 773f b310 773f 0c01 773f
00000100: 2511 773f 7aeb 763f ed0f 773f 371a 773f
00000110: fffc 763f c6f4 763f f014 773f 1a12 773f
00000120: 2c13 773f 351d 773f 7bfa 763f 4dfb 763f
00000130: 97f6 763f 543b 773f 20f8 763f 440a 773f
00000140: 1b28 773f 1519 773f 47f0 763f 93fa 763f
00000150: bb1b 773f d1f5 763f fe1b 773f 7df9 763f
00000160: 8421 773f 7324 773f e424 773f 26f9 763f
00000170: 75e8 763f 31f5 763f d817 773f 380b 773f
00000180: b622 773f f6f1 763f d8e4 763f 18f9 763f
00000190: 8c1b 773f 781e 773f 93db 763f bb10 773f
000001a0: 6829 773f b905 773f 44fe 763f 7c01 773f
000001b0: 81e4 763f 0925 773f e301 773f 7927 773f
000001c0: 2511 773f d927 773f 8515 773f 39f9 763f
000001d0: 8cfb 763f aa23 773f eef6 763f caf8 763f
000001e0: 390d 773f f01b 773f 40fe 763f e916 773f
000001f0: 4500 773f 1afe 763f 71e5 763f 5c19 773f
00000200: 742c 793f 434d 793f f54e 7a3f 9e09 773f
00000210: 5629 773f a0f8 763f 9c06 773f 7012 773f
00000220: 9102 773f 9f40 773f ebf7 763f 5819 773f
00000230: e706 773f 68f8 763f 9c1f 773f 9a1c 773f
00000240: 0a17 773f ff04 773f 8223 773f 8909 773f
00000250: 0c15 773f 9ff7 763f 4d1b 773f c2ff 763f
00000260: 59e8 763f fafc 763f b2f1 763f c9fa 763f
00000270: 6a12 773f 11f7 763f f606 773f 273d 773f
00000280: 1d17 773f c101 773f ca0f 773f 3c36 773f
00000290: 0f18 773f 8409 773f 81f7 763f cc01 773f
000002a0: 9c0a 773f 7ff4 763f 2002 773f 2710 773f
000002b0: 200a 773f d02b 773f 1104 773f a20f 773f
000002c0: a737 773f 1218 773f 00f8 763f 903e 773f
000002d0: 1223 773f 1f12 773f fa16 773f fafa 763f
000002e0: 7af7 763f c1e9 763f 02f6 763f 4c0f 773f
000002f0: 76f6 763f 4dfa 763f b6f7 763f 8904 773f
00000300: f107 773f aaf3 763f 4418 773f 3808 773f
00000310: 7514 773f fe1a 773f 0807 773f 2923 773f
00000320: d910 773f 611c 773f af20 773f 7e2b 773f
00000330: 2c12 773f ec1b 773f e12c 773f b20e 773f
00000340: abf3 763f daee 763f ba3c 773f 6504 773f
00000350: a7d6 763f 4006 773f faf1 763f b83b 773f
00000360: de0a 773f 8616 773f 2617 773f 7922 773f
00000370: ae13 773f 9b21 773f 63ee 763f ce02 773f
00000380: 9f00 773f db11 773f e804 773f 360f 773f
00000390: 3e11 773f 371a 773f f607 773f 050e 773f
000003a0: f6ea 763f 47eb 763f d623 773f 620a 773f
000003b0: 771a 773f d61a 773f 391c 773f 3229 773f
000003c0: 8510 773f b509 773f c2ff 763f 6bf0 763f
000003d0: 55f6 763f 63fa 763f 2c04 773f 6d1b 773f
000003e0: 74f3 763f d4fc 763f 5f18 773f 0103 773f
000003f0: f50a 773f 1106 773f a6f6 763f bb07 773f
0.9649451 0.96405226 0.9611573 0.9648162 0.9651116 0.9646757 0.9652767 0.9654118
0.9658306 0.96467584 0.96531975 0.9651312 0.9648829 0.96516293 0.96482545 0.96480304
0.96477664 0.9650875 0.9651953 0.96487546 0.96488756 0.96519923 0.9654658 0.9647688
0.9645084 0.96487075 0.96470195 0.96486807 0.9649127 0.9649118 0.9650612 0.9656109
0.9652282 0.9649171 0.9646991 0.9648521 0.96510625 0.9651085 0.96515745 0.964746
0.9652166 0.96548307 0.96523696 0.96474797 0.96490264 0.964751 0.9653367 0.9651551
0.96461165 0.96507204 0.965209 0.96488386 0.9650811 0.96455765 0.96476823 0.96491957
0.9649935 0.96492976 0.96450675 0.96469724 0.965317 0.96528614 0.96509856 0.9648597
0.96510535 0.9645306 0.96508676 0.96524376 0.9647979 0.96467245 0.96516323 0.96511996
0.9651363 0.9652894 0.9647595 0.96477205 0.96470016 0.965749 0.9647236 0.9650004
0.9654557 0.9652265 0.96460384 0.96476096 0.9652669 0.96468836 0.9652709 0.9647444
0.96535516 0.9653999 0.96540666 0.9647392 0.9644845 0.9646788 0.9652076 0.96501493
0.9653734 0.96462953 0.9644294 0.96473837 0.9652641 0.96530867 0.96428794 0.96509904
0.96547556 0.9649311 0.9648173 0.9648664 0.9644242 0.96540886 0.96487254 0.96544605
0.96510535 0.9654518 0.9651721 0.96474034 0.9647758 0.96538794 0.96470535 0.9647337
0.9650455 0.96527004 0.96481705 0.96519333 0.96484786 0.9648148 0.9644385 0.9652307
0.97333455 0.9738352 0.9777673 0.9649905 0.9654745 0.9647312 0.9649446 0.9651251
0.9648829 0.9658298 0.9647204 0.96523046 0.9649491 0.9647279 0.9653261 0.9652802
0.9651953 0.96492 0.96538556 0.96498924 0.9651649 0.9647159 0.9652603 0.96484005
0.96448284 0.9647976 0.9646255 0.9647642 0.9651247 0.96470743 0.96494997 0.96577686
0.96519643 0.9648705 0.9650847 0.9656713 0.96521086 0.96498895 0.9647141 0.96487117
0.96500564 0.9646682 0.9648762 0.9650902 0.96499825 0.9655123 0.9649058 0.9650823
0.96569294 0.96521103 0.9647217 0.9657984 0.9653789 0.96512026 0.96519434 0.9647671
0.9647137 0.9645043 0.9646913 0.96507716 0.9646982 0.9647568 0.96471727 0.96491295
0.9649649 0.9646555 0.965214 0.96496916 0.9651559 0.9652556 0.96495104 0.96538025
0.9651008 0.9652768 0.96534246 0.9655074 0.96512103 0.9652698 0.96552855 0.965068
0.9646556 0.9645821 0.96577036 0.9649108 0.96421283 0.9649391 0.96462977 0.965755
0.96500957 0.96518743 0.96519697 0.96536976 0.96514404 0.9653565 0.964575 0.96488655
0.9648532 0.9651162 0.9649186 0.96507585 0.96510684 0.96524376 0.9649652 0.9650577
0.9645227 0.96452755 0.96539056 0.9650022 0.9652476 0.96525323 0.9652744 0.96547234
0.9650958 0.96499187 0.96484005 0.964606 0.9646962 0.9647581 0.9649074 0.96526223
0.9646523 0.96479535 0.9652156 0.9648896 0.96501094 0.9649363 0.96470106 0.9649617
